autoencoder_lstm.pth (torch, 10476 bytes, 8 tensors)

encoder.weight_ih_l0 f8 [32, 6]
000000 9c 8e 15 81 c9 4e ed bf c0 96 15 d9 f5 73 de bf
       -0.9158675690818714 -0.4758276576961684
000010 9b 7c 7d ab 28 f8 c8 bf 35 7c bc 82 80 90 60 bf
       -0.1950732076029212 -0.0020220289205919125
000020 4a 32 c4 c4 88 20 d5 bf 8b d4 47 2e 27 ba e4 3f
       -0.33011073317974093 0.6477237609784806
000030 cc 65 54 e2 d5 9c e7 bf a9 a0 1e 1b 4d a9 e0 bf
       -0.7378949566365747 -0.5206666497879456
000040 2e 32 a3 20 2e 15 cb bf 62 18 63 a3 e7 12 de bf
       -0.21158386796595735 -0.4699038596703585
000050 82 bc 9f 14 c4 14 d2 bf 29 04 79 c2 f6 9b d8 bf
       -0.2825174523740729 -0.384519281306043
000060 16 93 b3 cd bc f5 d2 bf 40 a1 df 79 9a 00 b8 3f
       -0.2962486275485373 0.09375920749119349
000070 90 be a6 ae 46 d6 8c 3f 7f f7 3c 61 b7 3c e3 3f
       0.014080574231086801 0.6011616610701224
000080 b8 01 5c f4 fc 56 e9 bf 2a f3 d8 94 23 8e f8 3f
       -0.7918686649937206 1.5347019018510744
000090 2e 68 29 d2 ea 96 e6 bf 12 50 de 20 78 fd e5 3f
       -0.7059225182267761 0.6871910707436675
0000a0 64 8d 9a e1 45 76 e7 bf 23 18 37 bb ba 05 a3 3f
       -0.7331876188585906 0.03715308699933952
0000b0 19 bc a2 51 85 be e0 bf 24 18 13 1d b2 a0 71 3f
       -0.5232569307753493 0.004303642040389053
0000c0 d7 84 f6 88 c3 3e e6 3f d7 97 01 82 b5 d8 ef bf
       0.695161597734251 -0.9952037371810957
0000d0 e7 6e 03 af 49 52 e9 3f 81 55 f4 23 cc 07 d4 bf
       0.7912949007254299 -0.31297591696905874
0000e0 32 24 99 f7 b2 da b8 bf 53 4b 41 5a 2c 93 e8 bf
       -0.09708708329084528 -0.7679654848856025
0000f0 28 d5 2e 6e 21 e2 f3 3f f1 d6 ed e0 2b c4 b1 bf
       1.2427076629658789 -0.06939958802635339
000100 bb 5e 44 31 37 67 b9 3f f0 ff dc a5 61 2c d7 bf
       0.09923119499978388 -0.3620838279493901
000110 08 a6 21 a9 07 87 ca bf ad da 3c bc 26 04 fc bf
       -0.20724578626986578 -1.7510135033641447
000120 44 10 b5 46 50 22 f8 bf 50 6f 3a 80 c1 d2 fb bf
       -1.5083773386004546 -1.738954068080563
000130 bd 54 a3 0e 31 a7 e7 bf 0a 72 97 ac 58 6f f5 bf
       -0.7391591344736735 -1.3396841756685967
000140 43 a2 81 22 d8 8c e3 bf eb e3 f6 0c 2f 6c dc bf
       -0.6109429048493172 -0.44410301462227036
000150 c1 23 66 11 fa 7f f6 bf 04 dc 4a 9f 3d b1 88 3f
       -1.4062443427703644 0.0120568098294438
000160 7f e5 0d 01 30 35 e4 bf e9 3d 44 a2 3e 4d e9 bf
       -0.631492616709849 -0.7906792802113475
000170 97 a7 93 40 fa 59 dc 3f 1d 5d 12 dd 0c e7 ee bf
       0.44299179369283465 -0.9657043760115901
000180 d2 76 a2 de f5 2d ec bf 0a cf 78 b3 26 7e e2 bf
       -0.8806104038555651 -0.5778993134794927
000190 ad 73 ac c7 bb ce c0 bf b0 fc 46 28 41 cc d8 bf
       -0.13130900621118027 -0.387466706593794
0001a0 f8 d6 77 65 70 d5 90 3f 0e 6c 5e 3f a2 dd d9 3f
       0.016439205353853986 0.4041524523578922
0001b0 1c 50 e9 5c 74 82 e5 bf 98 d0 ae 1b b9 14 d7 bf
       -0.6721746267962803 -0.3606398363438159
0001c0 05 3c 1c 58 40 b4 d5 bf 50 9b 56 63 bf 77 e5 bf
       -0.3391266689731654 -0.6708676281167332
0001d0 f4 62 60 ac 20 ea ce bf c2 29 99 99 97 17 b3 bf
       -0.24152000824758313 -0.0745787382121881
0001e0 10 0c f0 a3 2d 99 dc bf 60 3c 8e d1 dc c6 de bf
       -0.44684926042117556 -0.4808876081887714
0001f0 fe 36 64 a1 fc 3e c2 bf 61 af 20 8b 66 d2 c3 3f
       -0.14254720573847374 0.15485841554015692
000200 17 75 30 b5 cc d6 e8 bf 76 76 9f 59 13 3c f0 3f
       -0.7762206591466193 1.0146668911833365
000210 1c 23 74 01 6a 22 d7 bf d9 89 60 04 32 4e c7 3f
       -0.3614754690357118 0.18207383359647514
000220 bf 80 10 4b 53 df df bf 9a c6 f6 e8 0f 48 e4 bf
       -0.4980056984950458 -0.6337966489865778
000230 9a 72 f4 8a 50 11 b3 3f 25 23 02 5b 46 dc cf bf
       0.07448295013859721 -0.2489097542168334
000240 32 e1 7d 79 1a 3e a1 3f bd 31 0b af 1c 61 f0 bf
       0.03367693646481697 -1.02370899559456
000250 41 5b 26 a9 1b 75 ce 3f 18 e8 e7 8b 54 5e d3 bf
       0.23794885405797042 -0.30263246214565376
000260 1f f3 58 b2 44 55 ee bf f8 37 c2 ba 48 ef de bf
       -0.9479087336872886 -0.48335474241400744
000270 c6 5f 4c ec a4 78 e7 3f 18 94 26 2d 9d 0e d0 3f
       0.7334770789338954 0.25089196595428254
000280 b4 2b 34 99 cd 85 e3 bf fe 5c 13 3a 97 ca de bf
       -0.6100833885442314 -0.48111515685509676
000290 1a 79 4f ed 2d 77 e2 bf 95 f9 5b c6 53 e1 f9 bf
       -0.5770482668847621 -1.6175115345391522
0002a0 0c 4b ad 5e 2f dd ed bf 96 5a 2d 5d 0a e7 f7 bf
       -0.9332501267584532 -1.4939063682301472
0002b0 3a a5 d9 06 35 c2 b1 3f 07 4d c6 5d a2 ba d6 bf
       0.06936961571922931 -0.3551412502067283
0002c0 ee 32 52 a8 91 93 e2 3f c8 f5 64 27 37 55 d9 3f
       0.5805137908479006 0.39582613799197164
0002d0 7f 2f c6 fe 3a cd e9 bf bf 50 a2 6c fd fa f1 3f
       -0.8063025451715332 1.1237768405454032
0002e0 48 ad 0a 66 b7 8a bd bf ba ef 5e 32 38 45 b1 bf
       -0.11539789429905511 -0.06746245603329629
0002f0 03 91 ff 7f d9 50 e3 3f 7b 1f f7 07 f6 07 e8 bf
       0.6036193370787547 -0.7509718089649903
000300 9a b0 d6 73 1d 64 f1 bf 04 1e 0e ed 43 b0 ad bf
       -1.0869421505877086 -0.05798542278995103
000310 8c d8 c2 1a 5d af e6 bf 05 08 11 3c 5f c8 c1 bf
       -0.7089067003896772 -0.13892736847816436
000320 40 23 69 ca 47 3a c0 3f 1a ec e3 77 c2 33 cc 3f
       0.1267785776456325 0.22032957891482924
000330 d7 0d 3e 52 94 32 f0 bf d4 67 cc e1 f9 3d c5 bf
       -1.012348481425638 -0.16595386052432437
000340 cb 45 fd 41 0e 7c f3 bf 67 1a e5 08 b5 59 b9 bf
       -1.217787034769901 -0.09902507273828008
000350 7c 06 e2 3f 38 ba e8 bf 01 7e 63 ff f2 5b a3 bf
       -0.7727318999970545 -0.037810891795512454
000360 9b 9c b4 eb 2e 9a f1 3f 37 15 bb 17 d7 4a 8c bf
       1.1001424033400216 -0.013814621364313424
000370 91 80 6d 21 dc 39 b7 bf 92 25 3d 59 b5 76 ea bf
       -0.09072662178141601 -0.8269907706209543
000380 78 c2 8a 36 1e 61 f5 3f 77 40 d3 8b 57 fb 00 c0
       1.3362104540393869 -2.1227255748599947
000390 f3 a1 8f e0 15 58 da bf 08 c9 cb 1c 7d cf f0 3f
       -0.41162630967895025 1.0506564259381452
0003a0 5a 71 cb ed e4 7c f2 bf d6 b2 cf a4 20 8c ab 3f
       -1.1554917610984234 0.053803463095254564
0003b0 a4 ff 99 ea 64 9a d6 bf 48 7b 01 f3 af b1 eb bf
       -0.35317347441013625 -0.8654403444487366
0003c0 8b d0 f5 f4 fc 86 d6 bf bf 28 35 21 88 2a f7 3f
       -0.3519890205564102 1.4478837296651788
0003d0 b3 3f b0 2d fe bd e6 bf 2a 61 b2 06 36 a3 e7 3f
       -0.7106924908020943 0.7386732226177959
0003e0 d2 09 0e b5 a5 9f bf 3f 42 4d 2a d1 7c bc cd 3f
       0.12352977438243976 0.23231468403955985
0003f0 ce ff 3c 3d d7 6e fa bf 3c f1 17 d5 01 96 c0 3f
       -1.6520607368583913 0.12957785515744458
000400 50 bd 19 17 4e 71 e4 3f 96 61 86 fb 6b c7 d5 3f
       0.6388311816389578 0.34029674113255604
000410 45 58 4c 0e d6 14 ca bf 2a b5 4e c2 e0 c8 01 40
       -0.20376086900859228 2.2230849437970805
000420 9a ef 83 c5 da 0d 04 c0 1d 35 36 58 89 61 02 c0
       -2.506764929856172 -2.297625245241433
000430 56 7e b8 99 43 07 e3 bf d5 b3 d8 e8 14 01 ef bf
       -0.5946367266041743 -0.9688820407660567
000440 32 37 0d ad 2b 8b f3 bf 41 ec ac cb f6 fa e9 3f
       -1.2214771995381395 0.8118852594410627
000450 0c 36 f8 3c 9d 74 f7 3f ba f9 e9 03 d5 57 e6 bf
       1.4659702664970409 -0.6982216907925285
000460 78 a4 b5 f0 3e 32 aa bf 1b e7 c8 6d 9a c6 ea 3f
       -0.0511645954928292 0.8367435592874445
000470 af 5b 78 c9 ed d8 e3 bf cc 5f 6c 5a 1f 1d ea 3f
       -0.6202305731738899 0.8160549894409939
000480 7c 9e 6c 8c a8 af e9 bf e6 8d 16 b7 1b 53 b3 bf
       -0.8026926748907068 -0.07548688144611723
000490 39 96 fb 64 09 07 d5 bf 28 64 f3 c5 b0 90 e0 bf
       -0.32855448590848685 -0.5176624170518425
0004a0 1f 23 2d 8b ae 99 e4 bf 17 75 3e 45 0d e8 dc 3f
       -0.6437599867141194 0.4516633201800046
0004b0 a5 79 ea 2f a5 8d e6 bf f9 92 9e ef fd 1d a6 bf
       -0.704790681443957 -0.04319757032434341
0004c0 d9 db 8c 12 9e 56 db bf a6 db 16 05 52 e3 d0 bf
       -0.42716171084924565 -0.2638745355320061
0004d0 f9 c0 bb d0 b0 5a ab bf c0 18 6a 75 54 3c d4 bf
       -0.05342629001632022 -0.31618224588636323
0004e0 c0 e3 c6 1d a2 d3 e3 bf fa 04 b1 5d 5e a8 d8 3f
       -0.6195841390209509 0.38527640485342796
0004f0 95 8a 97 6f 9b 96 b6 3f 7b 94 2c b0 b0 e1 f0 3f
       0.08823558306134267 1.0551001436045044
000500 6f c7 aa 93 91 61 ee bf 94 f8 1d e5 06 9c f9 3f
       -0.9494102367518574 1.6005925130735124
000510 fe 97 9f 90 1a e9 e9 bf 2f b7 13 13 83 37 e1 3f
       -0.8097050499607119 0.538026368388932
000520 37 bd 9b cd fa ec de bf e6 7e ab 79 d8 7b d3 bf
       -0.4832140930074788 -0.3044339359457652
000530 04 ac ca b8 93 42 e6 bf 4e b6 11 2d af 7b d8 bf
       -0.6956270798885957 -0.382549089444045
000540 41 4e 8b 60 f9 e1 f3 3f ae 46 fb f7 1d ee eb bf
       1.2426694651848182 -0.872817024554214
000550 41 7c 56 68 f7 e1 e1 3f f6 19 f5 8b 95 f3 e3 bf
       0.5588337934349356 -0.6234843953650955
000560 a9 30 de 2e 45 70 e7 3f 74 17 6e 7e b5 64 f1 bf
       0.7324548640622385 -1.087087148539891
000570 6d fb e1 3e c4 d4 f8 3f 2f a6 22 df 32 cc e4 bf
       1.551944966922487 -0.6499266012298842
000580 5b c1 c4 72 3a da d5 3f ca 15 44 55 92 cf f2 bf
       0.341444599226653 -1.1756766634656395
000590 96 da 7a 1e ec 6d ed 3f 1d 9d ca fc b2 5b 06 c0
       0.9196682544050698 -2.7947749852497865
0005a0 d9 7c 74 60 8e e2 fa bf b0 ca 23 3c 77 3c f6 bf
       -1.6803115623259173 -1.3897621487819087
0005b0 e7 8e cf 62 3f 72 dd bf 61 34 41 69 d1 17 f5 bf
       -0.4600981202076881 -1.3183149444114621
0005c0 31 53 89 ac ea 4c e7 bf 6c 4f 05 e9 de 97 d7 bf
       -0.7281392450191558 -0.368644454535789
0005d0 be 31 cd 00 c3 c3 f3 bf e8 73 1c 23 0a 7d e3 3f
       -1.2352933913526694 0.6090136228336833
0005e0 e5 44 83 62 fa 3d e6 bf a3 d9 67 f0 dc db ed bf
       -0.695065681846384 -0.9330887504027497
0005f0 d2 bd 2d 95 a2 bd d5 3f 91 39 4f 62 54 9b ea bf
       0.3396994072745346 -0.8314611358744505

encoder.weight_hh_l0 f8 [32, 8]
000000 d4 06 53 f1 1f ae d1 3f 86 a3 12 71 8c c0 b0 bf
       0.2762527329142419 -0.06543805847708314
000010 3a 8b 4e 28 2d 50 c4 bf 14 9f ea 80 2c 93 a9 3f
       -0.15869678943735172 0.04995097230613346
000020 81 db 93 7c 4f c0 da bf 36 05 a1 00 65 7d cb 3f
       -0.4179877010896505 0.21476423769676395
000030 81 11 d3 36 3d 31 c5 3f aa fc 56 b2 9d 95 a4 bf
       0.16556515862442825 -0.0402039795112555
000040 72 96 e0 72 07 6c d1 3f df df 2e 24 14 bc cd 3f
       0.2722185727928724 0.23230220572236157
000050 f3 ee 34 c0 93 46 d2 3f 83 e0 00 66 51 bd a0 3f
       0.2855576874751328 0.03269438142928129
000060 66 c9 ac 71 07 95 b2 3f 8d f0 00 14 de 6d b8 bf
       0.07258650326983726 -0.09542644489642012
000070 40 72 d8 59 2e 49 d4 3f c9 57 9c a4 55 1e db 3f
       0.3169666173360248 0.42372647357239807
000080 8a 30 cc f3 9a 1f d1 3f 23 60 bb d2 07 28 c7 3f
       0.26755403335915473 0.1809091357197313
000090 72 b3 55 8d 23 eb b6 bf 8b 78 e1 4a d7 91 d2 bf
       -0.08952543449931996 -0.2901514273888856
0000a0 6f 23 64 b4 04 1c 50 3f b1 f6 0d b4 03 87 c5 bf
       0.00098324260176438 -0.16818281451917508
0000b0 d7 fb 45 2a 7e bd ad 3f f9 09 73 cd 15 06 d1 bf
       0.05808634058029554 -0.2659964090672982
0000c0 fa 36 e4 94 a7 0f d2 3f e7 f6 6e 29 7f a1 86 3f
       0.28220548191244144 0.01105021805949087
0000d0 75 b3 78 22 be 8c d0 3f d4 e6 14 25 07 ad cb 3f
       0.25859025350910453 0.2162178927481394
0000e0 e9 4a ef 09 d5 81 b1 3f 41 54 4f a3 81 ef c4 3f
       0.06838733189151082 0.1635591552173157
0000f0 66 41 f2 d2 9d 5b 9d 3f 71 22 50 85 fd db d2 bf
       0.028669801712170616 -0.29467714327669287
000100 c0 5b 6f 1d 57 04 d4 3f 01 f9 79 fd 32 cc e4 3f
       0.312764910454856 0.6499266577446009
000110 23 d2 21 e5 3e 24 e3 bf a8 58 05 be f3 c9 e3 3f
       -0.5981745219456268 0.6184023581834213
000120 5a 1d 7a 36 eb fa db 3f a3 91 69 32 cb 13 ab 3f
       0.4371898681642584 0.05288538923631172
000130 8e be 73 87 b4 0f bc bf c8 65 cf fc 69 a6 c8 3f
       -0.10961464220940284 0.19257855266805124
000140 f1 f9 3d 2f 6e 8b be bf ef 3e 22 33 00 b6 ba bf
       -0.11931503919002019 -0.10433961151488423
000150 84 c6 93 82 ab 78 b6 bf 91 2c 1f 8c 25 24 c6 bf
       -0.08777877748414126 -0.17297810880549894
000160 7b 56 08 27 e8 7b c7 3f f6 99 ed 40 c3 9f c7 bf
       0.18346883684050738 -0.18456307096785424
000170 db 7e ea 47 68 d9 86 3f 41 db 00 15 67 ff c7 3f
       0.01115685910673341 0.18748177075914366
000180 d4 a8 58 ba a6 06 b0 bf ed ec ba 8d 25 6e 77 3f
       -0.06260149049254277 0.005720278447991262
000190 79 d6 8c 4b e2 42 d1 bf 9c 0a 5d 96 e8 18 d6 3f
       -0.2697072732729349 0.34527029689722055
0001a0 46 0e dc d2 49 db b7 bf 54 72 e5 a3 65 53 c6 bf
       -0.09318982503833081 -0.17442007544277038
0001b0 e4 7e 28 54 df 9b dc 3f 19 55 f2 e8 43 ea db 3f
       0.4470136949403083 0.4361734175557373
0001c0 20 d4 23 eb fa 3c df 3f 1e 47 9f 69 2e 9e b1 bf
       0.48809693301092416 -0.06881990507761457
0001d0 2b df b7 74 56 40 b2 3f 9a 61 f0 22 38 75 d6 3f
       0.07129421567503573 0.35090449726114914
0001e0 60 60 54 9e 32 1d c6 3f 34 c0 5f 7a 64 be c1 bf
       0.17276604395806583 -0.1386228177575518
0001f0 6b 8f 34 2b eb 4c cc 3f fc 31 e7 1e 92 64 c2 bf
       0.22109737023958628 -0.14369417675915475
000200 be 49 fc 5b 13 1d a5 bf 2f 6f c7 cf 5c 80 d4 3f
       -0.04123745439405323 0.3203346280185881
000210 10 85 0d 38 94 c7 e0 3f 11 32 81 06 17 92 c2 bf
       0.5243626684934117 -0.14508331124888277
000220 ca 91 21 16 16 90 d7 3f 41 6f ce 8c 9c 52 c3 3f
       0.36816932831996196 0.15095860362350247
000230 10 f4 e9 05 bd ef 85 bf e6 5e 44 78 9d 1b d6 3f
       -0.010711170905091577 0.34543549294310905
000240 11 53 8b 8b 11 1e d3 3f 5d 0f 02 0b 8b 0d a3 bf
       0.2987102377640421 -0.037212700933223465
000250 f6 2b 2d 4d b3 8d ba bf d7 a5 cb 96 5e e5 af 3f
       -0.1037246764582703 0.06229682532086727
000260 3d 59 9e 4c 44 5a ca 3f b1 ec 42 30 23 d0 c9 bf
       0.2058797239412317 -0.20166435104861116
000270 ad 53 de 69 17 c6 cc bf 56 54 4a 30 18 f1 c5 3f
       -0.22479527158125504 0.17142011983802047
000280 a3 21 ad 92 5c 13 d4 3f fc 4e f9 8e 0b c8 c2 3f
       0.3136817390809716 0.14672989350457744
000290 f9 cf 03 e0 7c ff ce 3f 29 38 9b de 3f a0 97 bf
       0.24217186868884236 -0.023072240793048735
0002a0 b8 a4 b6 fa b0 a6 b8 3f f1 de 21 21 06 dd d5 3f
       0.09629350777562962 0.34161523089959106
0002b0 5c f0 3d ed 2f 63 a0 bf cf 0d 58 9e 62 bb c1 bf
       -0.0320067383863438 -0.13853104335440355
0002c0 9a f5 d4 91 94 58 89 bf b1 aa 06 90 79 37 c9 bf
       -0.01237598485988194 -0.1970054581882628
0002d0 d7 00 b1 3b f1 f2 94 bf fb 6f ff a5 ee ed c4 bf
       -0.020458001392626848 -0.16351111512528846
0002e0 81 39 3f b9 a0 87 c3 3f 37 db 20 4e 99 7e aa bf
       0.1525765327955462 -0.05174712256159924
0002f0 5f 34 b3 e9 32 cf d1 3f 88 dd 6a bd 9a fe ca 3f
       0.2782714159228074 0.21089491127871107
000300 17 a4 97 c0 91 8e c8 3f fc 5d 0e ee 2d 68 e2 3f
       0.19185087112353535 0.5752172135861993
000310 ec 64 90 eb 9c 70 d8 bf 2e 9e ee b2 4a e5 e0 3f
       -0.381873350184448 0.5279897207992172
000320 f8 de d0 7d 67 a6 cb 3f 55 2d 03 b5 39 36 d9 3f
       0.21601575511316873 0.39393465687745294
000330 07 ff 4d 2f 55 71 7a bf 0d 28 a2 a0 af bc c2 bf
       -0.006455738785802862 -0.14638324111393822
000340 c7 48 b3 f2 9d 7f d0 bf 0f 90 28 bf ed 9b d4 3f
       -0.25778912259296444 0.32201713245217517
000350 1a 17 83 ad 26 7a bf bf 4a 14 7c d8 d9 42 c8 3f
       -0.1229576276410537 0.18954012938061943
000360 69 2a 94 40 94 db c4 bf 86 b7 7e 85 bc 89 d4 3f
       -0.16295102265606268 0.32090676342601687
000370 aa 47 73 2c 11 95 d1 bf 6c 96 55 19 3b 37 ae 3f
       -0.274723332794674 0.0590151279855434
000380 b7 b1 61 2c ac 5c a7 3f 9f b1 2d 34 93 93 d2 3f
       0.04562891046302602 0.290257264094885
000390 7a 6c 36 24 25 8e c5 bf da 94 34 c6 59 4f d0 bf
       -0.16840042370026592 -0.25484318119045
0003a0 45 a2 91 9d 90 26 d2 3f a6 b5 ed 0e 8b d0 c9 3f
       0.28360381496034776 0.20167673329289676
0003b0 eb f5 2f 31 31 13 c8 bf 38 5b e8 b0 16 92 cf 3f
       -0.18808569814420592 0.24664577138966037
0003c0 95 83 93 43 23 5a c2 bf 02 ac 30 c9 5a a0 a9 3f
       -0.14337578582401692 0.050051533755628
0003d0 d6 f4 49 48 55 d1 cd 3f 80 2c 45 0e 5e 8c a1 3f
       0.2329508402798754 0.034274043313950564
0003e0 3d 3c a1 2b c6 b9 80 3f 16 53 d2 49 76 3a d4 3f
       0.008166835981823545 0.3160682412065382
0003f0 5c 12 7e 57 8f 78 c5 bf 5c 4e 94 5c ec 7b e4 3f
       -0.16774169704526087 0.6401273544492585
000400 f9 87 d1 e4 c1 ee c1 bf 76 0e 88 4c df cc d4 3f
       -0.14009879753854174 0.32500441049362594
000410 a3 d2 81 b7 5a 80 de 3f ee 29 9c d2 24 dd 95 3f
       0.4765841285764429 0.02135140929662243
000420 1f ea 7b 15 bf d9 d0 bf 0d 25 ef 14 c0 0f b2 3f
       -0.2632901868634309 0.07055283080184811
000430 f4 70 54 b2 b4 b8 ca bf c5 f2 ae fc 00 aa cd 3f
       -0.20876177508842597 0.23175060594612354
000440 e8 6c ae 33 b9 be 51 3f 6f 86 5f 34 85 cd d2 bf
       0.0010830696689712541 -0.2937939654785628
000450 d3 ca fe d9 37 e9 b6 3f 9b b9 2f cf 75 f3 d3 3f
       0.08949612686300705 0.31173463089990044
000460 1d 81 b6 dc 07 67 e3 3f c0 b7 04 8e 22 4d c9 bf
       0.6063269911574342 -0.1976664727639541
000470 b9 f4 3e cd 24 b2 b7 bf ec 53 db 95 c9 32 e0 3f
       -0.09256200800787696 0.506199639023746
000480 48 03 5b e5 cf ff b6 3f ad fa f8 7a 48 8f d0 bf
       0.08984088277339908 -0.2587453080085805
000490 ac 1f 98 b2 7a d0 c3 bf 56 46 7c 85 2a 0c d5 3f
       -0.15479978294774577 0.3288675597733336
0004a0 82 7f 6f 99 0c eb aa 3f 39 5c 13 5c 6a a6 96 3f
       0.0525745332049601 0.022119199628687112
0004b0 b9 c5 68 9d 7a c2 b2 3f b4 45 fc 9e 80 4c ce 3f
       0.07328001349448855 0.2367096687599265
0004c0 e1 9d 31 91 bc 88 ab 3f 48 3a 3a 20 e5 38 b5 bf
       0.05377759239564362 -0.08289939915469191
0004d0 90 05 1f 42 ba 15 af bf 27 ac 15 65 8d 6b b3 3f
       -0.06071264321463865 0.07585986822020684
0004e0 97 ee 8e d9 05 de c6 3f 2f 67 0d 60 a9 a3 ce bf
       0.17865059969868888 -0.2393695563321727
0004f0 0f 8f 67 54 e9 fb ae 3f ec 11 1e a6 87 05 d9 3f
       0.06051568179444022 0.39096251699837015
000500 51 18 09 16 45 96 d6 3f d0 7a a1 0e 92 f3 d8 bf
       0.352921744841642 -0.38986636570727473
000510 9a bb 9f 98 00 ce b5 3f 16 65 1e 4d fe 7a c2 3f
       0.08517459608240899 0.14437845960200296
000520 c2 d5 98 4f c8 39 b0 bf 05 dd 16 94 de d6 c4 bf
       -0.06338169043814104 -0.162807295140489
000530 4a b6 51 f9 a0 94 cc bf cc 45 a4 74 39 1d b1 3f
       -0.22328579114712205 0.06685217950532446
000540 bf d5 d8 e9 84 ee ba bf 8d 35 0d 2f 26 ee d2 bf
       -0.10520201405673556 -0.2957854709137216
000550 fe ae 36 f8 3d 95 c2 3f ec 9b 0a a6 55 c0 d4 bf
       0.14517950649075567 -0.3242391702173666
000560 e1 f8 f4 3d 6c df d2 bf 5f 49 17 63 aa 41 b8 3f
       -0.29488664675217363 0.09475197715008708
000570 df b3 dc 78 fd d6 8d bf 82 02 03 7c 0c 03 b3 bf
       -0.014570217371863535 -0.07426527049666201
000580 05 6c 17 5c 4f 35 c5 bf e4 29 8e a1 61 71 bc 3f
       -0.16568939205794223 0.11110506242963641
000590 49 df 8e 9d 3c 9e af 3f c3 cb ed 66 e6 8b a4 3f
       0.061754125817457046 0.04012985235649282
0005a0 fe 8a dc f0 55 b2 cb 3f f4 3a 0b f6 ee 1f ce 3f
       0.21637987385573604 0.23534953130589253
0005b0 95 08 2b ea 4f 06 c7 bf 5a 42 6b e3 c8 73 d3 3f
       -0.17988013204564327 0.3039419384850014
0005c0 fd d3 70 25 94 5c c7 bf 54 05 1a b2 b5 42 a2 3f
       -0.18251277759705423 0.035665204993174854
0005d0 1e ea e8 ef 44 21 bd bf ab c9 73 a9 04 6d d8 bf
       -0.11378889901326558 -0.38165394352031495
0005e0 16 5f 0a 57 e5 3e d1 bf cf 2e e0 cd df 00 aa 3f
       -0.2694638586049093 0.050787919884979986
0005f0 15 d3 3f e3 b5 f2 b4 3f 9a 75 7d 48 c9 2d a6 3f
       0.08182846830443354 0.04331807145966167
000600 af 48 18 6e 29 59 d0 3f f5 ca 31 84 e8 ea a3 bf
       0.25544200660182076 -0.03890158284857207
000610 15 ea 2d 1e f1 3b d7 3f c5 b3 ef 11 30 56 b2 bf
       0.36303356120302627 -0.07162762105845306
000620 05 48 92 05 04 e4 c8 3f 98 9a 4c f8 6b a9 9e bf
       0.19445848724404882 -0.02994316771505598
000630 3b 43 3f c2 e8 03 dc 3f d6 46 4a 1e 24 5c c6 3f
       0.4377385994858291 0.17468692282687098
000640 3f 0d 10 42 30 8c 07 3f 7d b4 af 79 62 e8 d5 3f
       4.4913504332578454e-05 0.34230863459999467
000650 68 94 c0 9e ad e9 d2 3f 11 3d ed d1 1d 9a b2 3f
       0.29551258567000227 0.0726641309276952
000660 4c e6 6f d7 f2 79 dc bf ce e4 6a 57 93 99 db bf
       -0.4449431518438345 -0.4312485078513192
000670 3e 0f 25 cc 3d 7f c1 bf 27 64 a0 d2 98 6e d4 3f
       -0.13669559925085112 0.31925030297276397
000680 67 9f c2 21 4d 1b e0 3f 80 f8 dc b8 2b 27 88 bf
       0.5033326777820378 -0.01179346235187162
000690 36 e3 41 44 5d 56 bf bf 9d c0 14 ed 0f ab b5 3f
       -0.12241156498374725 0.08464145219909587
0006a0 1e 8d 43 28 ef ee c7 3f a6 ca 8d 90 aa 96 c3 3f
       0.18697919336327912 0.15303546961111641
0006b0 8a b6 a5 b1 39 bb e3 3f 8a fe f4 40 09 4d da bf
       0.6166046590494301 -0.41095191329439074
0006c0 8e de 0d 16 4b f0 d0 3f 66 f5 e0 ae 4e ad c3 bf
       0.2646663394329857 -0.15372642077447124
0006d0 4f 7a 58 b9 cd 57 d3 3f 10 e0 1a b0 14 37 c7 bf
       0.30223410701902237 -0.18136843298793837
0006e0 94 1a ad 1e 0a 89 b2 bf d6 d7 3c c1 ed fa ca 3f
       -0.07240355729036657 0.21078273711617496
0006f0 b2 ee 7b b8 16 f8 c9 3f f4 a4 40 b8 39 d4 d3 3f
       0.2028835678864787 0.3098282145825373
000700 ad 5f 36 6b 6b fd 59 bf 9c 3b b5 17 42 6e df 3f
       -0.0015862988483146088 0.4911046248934612
000710 48 67 ce 0f c9 ac cf bf ce 13 c2 fe 56 b2 83 bf
       -0.2474604918650647 -0.009617499971008938
000720 36 74 a3 aa 12 64 d1 bf 20 fe 77 14 81 92 d4 bf
       -0.2717329660789035 -0.3214419078721864
000730 b1 1e ce 97 df 55 55 3f 45 0c 2d 6d 73 5a d7 bf
       0.0013022120976717117 -0.3648956838771407
000740 8a 3d de 7d be 4e bb 3f ba 02 52 a2 3f 64 d3 bf
       0.10667028973533924 -0.3029936871680935
000750 37 d7 0e b5 82 df cf bf f6 5e 44 78 ef c8 cc bf
       -0.24900850144120465 -0.22488206264892313
000760 b2 30 45 3b 3d 1a bf 3f b3 ed 6e 10 a8 ae b8 3f
       0.12149412819889241 0.09641504670337646
000770 47 b0 34 75 b4 f1 af bf 04 2d f7 9d 26 e1 db bf
       -0.06239093714461368 -0.43561711717912055
000780 d2 12 0f 91 1c 9c cc bf 7c de 32 60 db f6 d2 3f
       -0.22351414759591265 0.29631695169835104
000790 95 13 6d 7d 9e da c3 bf 1c 98 fa d2 1c 13 c2 3f
       -0.15510922550506892 0.1412082700891809
0007a0 68 aa 54 02 02 8b e1 bf 6c 22 e4 da 57 a2 dc bf
       -0.5482187314531304 -0.44740864158715143
0007b0 a6 da 24 4e 76 75 dc 3f 99 d4 e5 b3 d1 69 d5 3f
       0.4446693194508192 0.3345836884321414
0007c0 96 16 98 ba ee 99 d6 3f 11 35 cb 53 4a de d8 3f
       0.3531452963073688 0.388567525701391
0007d0 92 2a b6 89 c8 ca c0 3f 2b 3e 50 ea 88 05 e1 3f
       0.13118845676611507 0.5319256378588241
0007e0 64 76 d9 3c fe 0a c9 3f be 9f 02 0c 99 13 aa bf
       0.19564798327603505 -0.05093076964959618
0007f0 44 0d f3 09 0a ff dc 3f 0e fb 90 e6 c7 50 86 3f
       0.45306635829566155 0.010896264766527188

encoder.bias_ih_l0 f8 [32]
000000 b8 9d 0e 4d fe 6c c3 3f b4 7b 7a 6c 44 92 cb 3f
       0.15176371347955153 0.21540122315215415
000010 7e 8e f8 1c 55 42 ad 3f a3 a1 4f b4 ca ce b6 bf
       0.057146701609124925 -0.08909289266705982
000020 16 80 b4 25 d3 e5 dd 3f 4f e0 ce b5 31 9b cc 3f
       0.4671523922170321 0.22348615052556162
000030 00 e9 17 7d a0 a1 da 3f ba ce 22 39 28 4d c1 3f
       0.4161149236312127 0.13516714849321493
000040 6f 5e f0 02 f0 7d c3 3f a0 1f 2d 70 0a 3a 96 bf
       0.1522808088636682 -0.021705782982536115
000050 8a 60 96 d0 28 02 a9 3f 1d b7 2e d1 8f 0f b3 3f
       0.04884460016472854 0.07445620400423221
000060 65 57 38 ac e2 af d8 bf a0 3f 5a a6 7b 33 8f 3f
       -0.38573519533507855 0.015234914793182786
000070 34 d7 5b e6 35 0e ce bf 4f 6e d3 d8 b2 f4 b8 bf
       -0.23480867145524942 -0.09748380464173433
000080 83 c5 1c e8 90 43 9e 3f 59 16 53 4e e2 75 c1 3f
       0.02955461899472801 0.1364100344127788
000090 a1 83 e0 8d e0 24 b4 3f 6d 8b c6 74 23 c1 ca 3f
       0.0786877008799949 0.2090191192811192
0000a0 62 a7 30 a5 d2 50 bb 3f cd 63 cb 1a d2 9b d2 bf
       0.10670200856170944 -0.2907605420746762
0000b0 23 6b 92 be a7 66 b8 3f 8b 63 bc 98 ec b0 c1 bf
       0.09531639483104164 -0.13821179826552696
0000c0 2d 5e f7 17 79 02 db 3f c4 27 52 7a 53 40 d0 3f
       0.4220259412809096 0.2539261526622989
0000d0 b0 7d 9e c0 b2 e0 a8 bf cf 17 77 2a 03 98 c2 bf
       -0.04858931161220015 -0.14526404927727163
0000e0 d3 95 21 f9 40 58 e4 3f a4 b6 7b 06 6e 01 d6 bf
       0.635773169121132 -0.3438372672379535
0000f0 cc 4b 2c d3 26 06 c3 3f ef 7a c1 ba 22 7d e0 3f
       0.14862523375685865 0.5152753493856305

encoder.bias_hh_l0 f8 [32]
000000 79 3b 1d ea b0 b4 b7 3f b8 08 0b 13 95 41 bb bf
       0.09260087695768772 -0.10646945681495168
000010 d2 11 9f fb 4d af d7 3f a3 17 ec 62 fd 84 d4 3f
       0.3700747449149989 0.3206170526540239
000020 1a 80 b4 8d 98 3b db 3f 18 70 e7 0a f0 6a d0 3f
       0.4255124458159131 0.2565269571766762
000030 70 f4 8b 7c 09 7a e0 3f 4f 67 91 f0 dc 5b da 3f
       0.5148971016457278 0.4118568753525453
000040 3e 2f 78 81 06 9f d1 3f e5 47 0b d8 9f 3a bb bf
       0.27533114093306554 -0.10636328720582318
000050 2a 30 4b c8 f0 3f b6 3f e1 48 d1 fe 32 47 b4 bf
       0.08691315546019554 -0.07921141358500307
000060 57 a2 1e cf f8 27 b0 3f f3 a3 65 5a 7c 0c cb 3f
       0.06310992294914662 0.211318534983803
000070 be 28 a4 f9 1e 5b ce 3f 90 dc a6 b1 49 f4 a1 bf
       0.23715579213632582 -0.03506689351655112
000080 61 cc 81 7a 39 1a db 3f f8 a6 b3 c6 93 0b ac bf
       0.42347561801506656 -0.054775827413164835
000090 02 df 87 fc 51 e9 d9 bf f8 e8 72 ee 88 f6 b6 bf
       -0.4048657384987423 -0.08969932385926771
0000a0 47 d6 b3 f6 73 14 d8 bf cf 63 cb 9a 22 b4 d4 bf
       -0.3762483510211933 -0.323494578520294
0000b0 ae 9a a4 a2 c6 18 d8 3f 1f 77 8c 17 56 e0 74 bf
       0.37651220210174585 -0.005096756264519247
0000c0 c4 0d 45 c0 dd 06 a0 bf 9e c1 6e 9d 09 ce ad bf
       -0.03130238506357899 -0.05821256682191066
0000d0 30 18 f6 83 81 65 e4 3f a1 be b8 67 41 10 99 bf
       0.6373908593529958 -0.024476072269122743
0000e0 a0 2b 43 b2 fa 92 d7 3f f4 92 08 13 a3 1e c9 3f
       0.3683459034770582 0.19624746732110732
0000f0 a8 4b 2c d3 a4 c2 cb 3f e7 f5 82 f5 18 d0 dd 3f
       0.21687755881484105 0.46582626319636095

decoder.weight_ih_l0 f8 [24, 8]
000000 8a 7f 65 a3 73 c5 ae 3f 4f b6 83 21 df 46 b3 bf
       0.06010018701158433 -0.07530016487336265
000010 06 e0 dc 3e b6 dd d5 3f 12 6b d6 23 c9 53 dc bf
       0.341657220258185 -0.44261387347948855
000020 50 ff 13 f6 4e c9 d1 3f b8 c6 93 42 fc 1e d3 bf
       0.2779118922335231 -0.29876619817433037
000030 f5 88 11 07 72 b9 c0 3f f8 d1 7c cc 39 c4 c3 bf
       0.13065934510365876 -0.1544258354639536
000040 19 31 7f a8 7f 81 cb 3f bb 7b a0 45 d1 bc d3 3f
       0.21488948562035473 0.3083995037031248
000050 35 4a ba 04 55 7c d9 3f 80 3b a4 8a 06 7e c1 bf
       0.39821362935723253 -0.136658494659482
000060 bd ef d3 ec 7c 5e c7 bf f5 98 bf 50 af c0 c4 bf
       -0.1825710445772283 -0.16213027422708817
000070 91 5b 41 3e 36 02 ce bf 04 df 6f 03 08 5a b8 3f
       -0.23444250144777048 0.09512376865302136
000080 af 33 52 49 41 ff e3 3f ac 60 b6 fc 64 0f d5 3f
       0.6249090606739766 0.3290646045584349
000090 4c 80 ae 81 c3 c0 e6 bf 1f dc fa 37 dc 94 ba bf
       -0.7110307247967369 -0.10383392683694169
0000a0 5c 68 47 87 ac d0 e3 bf 07 d8 d4 d9 8c 1d cd bf
       -0.6192228929678651 -0.22746430050182218
0000b0 c6 38 a2 3b 0e 59 df 3f d7 cf 49 c1 91 c3 ca bf
       0.4898105223045487 -0.20909330308825133
0000c0 5f 7e 76 85 ab 84 e0 3f 06 6c 2e 83 ba 52 c3 3f
       0.5161950689980123 0.15096217542017615
0000d0 b0 bd ef 8e fe 1a e6 bf d6 7a f9 2c 54 e6 bd 3f
       -0.6907952110031399 0.11679578874598504
0000e0 ea 0e b9 34 6a 7b c4 3f ac 2c 3c 3f df 9d e2 bf
       0.16001632284507333 -0.5817714915332508
0000f0 60 13 40 a2 f7 16 d2 bf c8 0d df 69 05 a9 e1 bf
       -0.28265181393390115 -0.5518824641989619
000100 22 49 a7 99 2a 39 cc 3f 52 7f ef f4 ce 5f c9 bf
       0.22049458029375396 -0.1982363410925197
000110 72 a1 69 52 cb 92 d3 bf 11 3d fa df 55 dc a8 3f
       -0.3058346085367908 0.048556026068690035
000120 60 d4 95 eb 9e f2 d9 bf ad 4c 54 0e 65 b6 c7 3f
       -0.40543339735387995 0.18525374602959258
000130 54 69 10 d2 c6 f2 d0 3f c3 2e 09 d0 49 51 c3 3f
       0.26481791032860724 0.15091822298051313
000140 52 5a 9c 0a 73 42 97 3f 9b 75 0e 45 0a 16 ca 3f
       0.022714421770695666 0.20379761096857582
000150 87 1d 38 6e 6d 30 b9 bf b8 af 63 40 73 b6 d9 bf
       -0.09839519444368793 -0.40176087654139847
000160 d7 9c 46 fe b8 bd db bf 27 8a 79 fb bc 53 b8 3f
       -0.433454750362626 0.0950277437164365
000170 de 89 45 ce 8f 90 c7 3f 13 41 8f f6 70 de c6 bf
       0.18409917423112082 -0.17866336859743423
000180 e1 6d 67 9a ae 22 c6 bf d3 fd c2 e3 9c 03 d7 bf
       -0.17293341197260673 -0.35959551088668923
000190 5b 65 18 92 19 52 c5 3f 25 34 99 51 12 7b b0 bf
       0.16656798966941264 -0.06437792293691354
0001a0 33 d3 95 22 b7 b9 d0 3f 3b c7 1d 91 cf 7f d8 3f
       0.2613351667162533 0.38280095263972996
0001b0 e0 5a 49 aa 77 8c a4 3f a3 5b 9c 1c da 7d c4 3f
       0.04013418153470183 0.16009069821367658
0001c0 e1 54 fb 8e 7c 26 d3 bf 61 6b 7d d9 d0 16 cc bf
       -0.29922403300345307 -0.21944628352761256
0001d0 d8 5a ec d1 90 33 d3 3f 71 fd 38 fa 26 82 b9 3f
       0.3000223207504127 0.09964221581411949
0001e0 9a ec f1 c0 60 b0 ce bf 5a b6 36 a4 3d 75 d7 3f
       -0.23975762768882164 0.36653080975051966
0001f0 e2 4a bb 37 36 fa 8e 3f 87 ef 83 7e 7d dd c9 3f
       0.015125678611558727 0.2020718448401306
000200 31 5a 65 ee e5 41 aa 3f d2 65 29 47 d0 4e c5 3f
       0.05128401312929432 0.16646769976323
000210 f1 c3 d5 a2 d0 0f c5 3f 83 c3 57 7e ad 59 ca bf
       0.1645451350300671 -0.20586174649318076
000220 d2 c7 96 0a 71 c8 d0 bf ba ba c1 3e b3 c5 ae 3f
       -0.26223398241120066 0.06010208264421153
000230 a2 38 ba 5a 86 86 e4 bf aa 73 0d ee 7e cd e0 3f
       -0.6414214870472004 0.5250849389518539
000240 10 c5 ba 75 e9 1a dd bf 22 ff ef 18 8b 58 9d 3f
       -0.4547675752356364 0.02865807857233372
000250 d5 22 7d 32 bc 64 d6 3f f3 13 19 5f b6 f8 da bf
       0.34989838533924217 -0.42143019949827404
000260 44 34 f8 23 3d b7 d7 3f a4 04 87 cc ce 02 e1 3f
       0.3705590106263268 0.5315927500415865
000270 17 ef 21 03 b7 df e8 bf 8d 1d 97 1a 07 c9 d5 3f
       -0.7773089467222886 0.3403947601004454
000280 c5 f1 7b 50 7d aa d5 bf 30 14 7e 34 bc cc c7 bf
       -0.3385308538416008 -0.1859355217276586
000290 5b 1d 13 58 c3 01 c5 3f f8 ab 1e be 80 44 cd bf
       0.16411630440255007 -0.22865304263299868
0002a0 2c e7 99 e8 62 56 ea 3f 57 01 a8 68 1f 42 cb 3f
       0.8230452101699703 0.2129554043785997
0002b0 25 2b 00 e8 2b 4a d4 bf c8 1b ae bb e9 e8 e2 3f
       -0.3170270696288518 0.5909317651393104
0002c0 52 6b 41 57 69 6a c5 3f f0 a9 75 41 d1 f5 d3 bf
       0.1673099208881817 -0.31187850372830805
0002d0 ad df 0e 1c 1c ea b7 bf 56 89 07 0f 8a 97 dc bf
       -0.09341598210346432 -0.44674922435492215
0002e0 98 f9 dc b5 60 3a d3 3f 5b 14 fa 52 5f 04 dc 3f
       0.30043809661938203 0.43776686766824974
0002f0 e6 7e 57 dc 51 88 e1 bf 9a f8 9e 6e a9 05 a0 3f
       -0.5478905967283623 0.03129319644311686
000300 21 41 d8 d4 c2 6c dd bf d4 ef 84 f8 02 81 d0 bf
       -0.4597632483064605 -0.2578742434450281
000310 39 7a 9e 3d 90 9a d8 3f 4f 8e cf cc 3e 2b cd 3f
       0.3844338037251052 0.22788224220777173
000320 31 7e 9d 90 8b 3a d3 bf 50 ae fe bb 04 1f d5 bf
       -0.3004483139284018 -0.3300182186019116
000330 a4 a2 b6 6a d2 38 d2 bf 6d 11 27 28 88 58 e2 3f
       -0.28471813603622764 0.5733071121435792
000340 0e ae ea 1f 3c 7d cb bf 90 53 7e 93 d2 8c 96 bf
       -0.2147593646853782 -0.022021570446287664
000350 44 3f b0 18 3f b8 c0 bf 19 a9 c3 40 c0 e4 a9 3f
       -0.13062275605670426 0.050573356538580146
000360 72 47 d9 ce 76 10 e6 3f 04 e5 e1 6f 8c 98 c6 3f
       0.6895097770704821 0.17653041327483987
000370 82 03 35 89 69 c0 d8 bf 5d 7d 43 87 2c 61 d3 bf
       -0.3867439117348611 -0.30280602654780414
000380 a9 11 da 56 63 a8 d7 bf 72 40 64 71 4a e9 d6 bf
       -0.3696525905764028 -0.35798893998526815
000390 b6 14 f7 fb d6 04 c2 bf 25 29 56 5d 6d 52 e1 bf
       -0.14077269843088452 -0.5413119147281448
0003a0 10 c0 e4 85 1e d2 e1 bf ec 68 42 b9 d6 de b9 3f
       -0.556899320135928 0.10105649969992542
0003b0 8b 2a c1 f8 16 e6 d3 bf f5 9e 2a 69 b6 4e cb bf
       -0.3109185628169732 -0.21333961615641042
0003c0 39 bd 25 75 c1 43 da 3f 79 02 19 40 c1 45 cf 3f
       0.41038547935655206 0.244316250131323
0003d0 2f a9 f7 46 60 a6 e2 bf bb 52 8b a4 b1 6a 84 bf
       -0.582809580429318 -0.009969127496711186
0003e0 55 70 fc e8 ae 98 cf 3f ec 04 a9 5d 8b 07 b9 3f
       0.246847022783984 0.09777136837603323
0003f0 30 54 56 cd d2 37 df bf 33 a8 4b 49 2d a1 e4 3f
       -0.4877821927305517 0.6446749145081924
000400 1a cf 13 26 b7 dc c5 bf ad a2 ac e9 59 49 d4 bf
       -0.17079820021864905 -0.31697700328599404
000410 7e ee 32 b4 16 3a c9 3f a0 eb e2 40 4b 15 e2 bf
       0.1970852260472959 -0.5650993602097181
000420 66 70 d5 79 8d db b9 3f 5b 1d 4a 4f 3f e0 cd bf
       0.1010063574262304 -0.2334059846072972
000430 ee 78 a7 10 84 f0 aa bf dc 65 f4 39 d4 f0 cb bf
       -0.05261624053285795 -0.2182870181066353
000440 a4 a1 9a 35 f3 6b 8f 3f 30 78 78 03 00 0d d4 bf
       0.01534261710487856 -0.31329346026348315
000450 58 dc d3 2d 31 8d dc bf 7e 65 6c 07 1a 80 93 3f
       -0.44611768222188664 0.019043356612291167
000460 2d 94 d1 b9 36 64 d5 3f 26 6f 97 11 2b a1 d1 3f
       0.33424156328539106 0.27546192853854945
000470 b2 3c 60 e2 4c ee b7 3f f1 76 07 36 d8 78 cf 3f
       0.09347992445713052 0.24587538374083054
000480 f1 a8 59 7c 7a 9e db bf ae 05 de 37 e0 82 c6 3f
       -0.43154775756433056 0.17586901405233618
000490 b8 3c c9 4e 8a f6 d0 3f 0a af 94 14 18 71 d0 3f
       0.26504762357667344 0.25690271386950825
0004a0 46 58 5b 2a e6 26 cb 3f 21 9a de 60 06 3c a6 bf
       0.212124605829276 -0.04342670376290792
0004b0 3c 44 86 f5 6e 9c d2 bf f1 8d 28 2f 13 89 ba bf
       -0.2907979390811908 -0.10365409756973755
0004c0 1f d5 51 4d a4 de cb 3f 98 67 73 4d 1e 3d c3 3f
       0.2177319886720079 0.1503026846101505
0004d0 70 83 b7 ac 19 c3 d7 3f 59 c5 d9 be d2 ba c0 3f
       0.37128297678832833 0.1307013923538232
0004e0 28 25 f5 ef 6a ad 8c bf ef c2 c5 c6 4e a0 d2 bf
       -0.014002643058705092 -0.2910344067704917
0004f0 e4 50 7a 73 e8 f2 cc bf 6a 1b 2f a7 bf 91 d0 bf
       -0.2261629642349653 -0.25889579130710294
000500 f8 5e f9 24 6a af da 3f b0 20 76 d6 ef 76 a8 bf
       0.41695645914795376 -0.04778241627633528
000510 90 49 98 13 d0 18 e5 bf f1 ac ed 55 0a 63 b7 bf
       -0.6592789061272004 -0.09135498617040462
000520 99 14 87 d3 a6 0d dd bf 36 3f 33 91 2c b5 d3 bf
       -0.45395823151586395 -0.307932988926939
000530 1e a0 df c7 5e 6d d9 3f 27 83 ac 30 a5 81 d4 bf
       0.39730042952442257 -0.3204129195528815
000540 78 9b 11 15 64 47 b4 3f c2 8a bb c2 73 db bc bf
       0.0792143393933723 -0.11272357467855001
000550 b7 40 f3 94 73 b0 e9 bf be c9 ac 02 8e e2 95 3f
       -0.8027894887145725 0.021372050202623553
000560 cc 13 83 a4 cd 5e e3 bf 3e 5b ee 64 d6 b2 dd bf
       -0.6053226674199492 -0.4640403733878208
000570 bf ec 61 28 ad 9f df 3f b4 fb aa 21 f5 3b e0 bf
       0.49412087386708586 -0.5073190362526163
000580 e2 33 94 ac 0e 37 da 3f 80 a1 2d 18 2c af c5 bf
       0.4096104321804984 -0.16940833263948818
000590 52 53 5a 23 32 cd c0 bf 71 c3 4a 50 ff a5 d2 bf
       -0.13126208044254867 -0.2913816722967147
0005a0 7c 93 41 8f c9 ad cc bf 3a ed 03 f4 3a 76 c7 bf
       -0.22405356879167104 -0.1832956019860406
0005b0 89 f3 10 63 90 ea bf bf 51 3b f1 93 0b 62 d0 3f
       -0.1246729127751235 0.2559842056988844
0005c0 03 c0 d1 aa 49 39 9e bf c2 b0 27 bf de c1 d7 bf
       -0.02951541047190177 -0.37120789210781535
0005d0 9f 8a 5c 77 b1 43 d4 bf 20 b1 20 b6 76 fe da bf
       -0.31663166672130133 -0.421781232699475
0005e0 50 ef bf 45 cf a3 b6 bf 69 76 02 30 30 50 b8 3f
       -0.08843703701853411 0.09497357532605978
0005f0 73 60 c5 13 50 06 c5 bf c4 be 18 27 1d 12 db bf
       -0.16425515141850475 -0.4229805833628968

decoder.weight_hh_l0 f8 [24, 6]
000000 b1 1e 2c 40 49 a7 ba bf c8 a7 e6 1a 60 be b5 3f
       -0.1041150838537941 0.08493614823115003
000010 95 e1 4e d5 f8 9d b9 3f f7 cd 8a 99 62 30 b8 bf
       0.10006671149938591 -0.09448829887951847
000020 a8 98 7e e5 d9 bb 98 bf 8d 4c f6 93 c3 f7 d4 bf
       -0.024154095298989958 -0.3276223130171239
000030 e9 dc e8 85 e8 d5 98 bf 4f 16 47 bb cf 8c 80 bf
       -0.0242534953815409 -0.008081076529275281
000040 e5 d2 fb 2a 3d 66 c0 bf f9 9a 52 fe fe 16 d8 3f
       -0.1281200847512515 0.3764035686130423
000050 eb 01 c9 b9 5b f7 b9 3f 7d 01 27 00 21 f3 d8 bf
       0.10143063817759639 -0.3898394109237627
000060 7f de b2 4d 87 66 96 3f ca e6 1f 33 68 81 c6 bf
       0.02187549030051494 -0.17582418915099246
000070 20 03 f4 6b 59 6e d7 3f ea c5 60 67 a5 89 c1 3f
       0.36611018698026676 0.13701312587504272
000080 cd d6 3d ca 2a b7 c4 3f 5a dc 9b bd fe 39 cb bf
       0.16183981776310077 -0.21270736940616325
000090 0e 6f 12 d4 d1 cf cb bf d9 6c 68 15 b6 2d de 3f
       -0.21727965216711492 0.47153999415031717
0000a0 0b d0 77 6a 77 19 e2 3f b2 0b 3f 56 83 c5 d1 3f
       0.5656086997464639 0.2776802389382126
0000b0 a1 93 6e c6 1c 32 ed 3f fc ad f0 f4 00 e2 bd 3f
       0.9123672366737204 0.1167297933576989
0000c0 5c b5 22 db 62 02 9c 3f 4e 79 64 2b 1b 89 a8 3f
       0.02735285246369777 0.04792103676503477
0000d0 f4 30 a9 52 ad 9c c3 3f f6 74 3f 7e d6 a9 c1 bf
       0.1532189038865749 -0.13799554027983846
0000e0 62 a5 1a 31 7a a3 d2 bf 50 c7 28 fe f7 38 a9 bf
       -0.2912278632671442 -0.04926276185541545
0000f0 e1 6e 6e b0 a7 e8 c3 bf ba 6e 38 e9 3c e0 c3 bf
       -0.15553756823361822 -0.15528069865910316
000100 23 57 65 f8 e3 f6 a1 3f ac 9a e6 ba 54 d7 e2 3f
       0.03508675009895359 0.5887855196386531
000110 ac 87 87 95 a7 b3 a1 bf 64 96 b4 3f 92 fa d9 bf
       -0.03457378101644734 -0.4059186575053444
000120 41 6d 04 80 5a ed c2 bf fc 94 ab 4e d1 32 9b 3f
       -0.1478684544643816 0.02656104128518154
000130 61 5c c8 51 33 d5 d4 bf 20 7d 72 15 b0 9c cb 3f
       -0.32551272379482127 0.21571923300960183
000140 84 1c 54 ae 93 ab d7 bf 40 43 f6 4a c7 68 d0 3f
       -0.36984722160600136 0.2563951713610102
000150 61 04 1f 3a 7d eb d7 bf c0 1b e0 90 a3 d6 d3 bf
       -0.3737481181706866 -0.3099755205916459
000160 87 20 f0 0b ac a4 aa bf 9e 33 31 0f 50 5e c9 3f
       -0.05203759809234137 0.19819069616133062
000170 40 f2 17 07 be d4 d8 bf 43 f8 9a c6 81 f8 bc bf
       -0.3879847592614034 -0.11316691492808766
000180 a8 19 d0 c5 b7 02 c2 bf db a1 55 e4 13 31 9a bf
       -0.1407079425700435 -0.025577841578895515
000190 63 4e 1c be 30 ae da 3f 09 f4 6b 21 11 c8 ed bf
       0.4168817383335634 -0.9306722309844427
0001a0 c2 4c ac 0e c4 8e be bf 78 62 91 8c b4 c6 e3 bf
       -0.11936593397358577 -0.61800601439161
0001b0 16 6e 73 7b 4a fa d6 3f f0 21 e7 7a 2e 29 d8 bf
       0.35902654700996217 -0.37751352312309816
0001c0 b1 43 29 f9 ee ca f5 3f 23 aa 4d 99 fc 04 b2 bf
       1.3620443089350653 -0.07038859122045742
0001d0 7c 64 71 56 49 f2 e9 3f 6b 65 df 6c 60 66 d1 bf
       0.8108259857500708 -0.2718735755166423
0001e0 7a 74 15 b6 f5 dc a7 3f 8f b1 38 d5 b8 b9 b1 bf
       0.046607664563205156 -0.06924014287569079
0001f0 08 7e 05 f8 16 a5 b5 3f 6d 01 9c ff 9d 67 d6 bf
       0.08455031924449241 -0.3500742908654704
000200 6d 39 bc 3f 12 52 c1 3f c6 11 8f 5c c0 69 c7 3f
       0.13531711685250106 0.18291477698779895
000210 87 fb 29 9e f8 27 d5 bf e0 03 fc 3a 95 b3 d5 bf
       -0.3305646462030655 -0.3390858722705712
000220 cf db 6b e6 ea 30 ca 3f 0a 76 cf 02 02 36 ad 3f
       0.20461784602204466 0.0570526722365053
000230 2a 71 04 28 d0 86 cc bf 7c 52 48 8c ce 32 cc bf
       -0.2228641696355081 -0.220300501344031
000240 b0 ea e4 74 b5 92 d1 bf 28 e0 87 af 58 c1 d4 3f
       -0.2745793954415303 0.3243009294669741
000250 89 59 e3 b3 e3 a1 d8 bf 5f ed bb 95 3b 4a af 3f
       -0.38488094870754047 0.06111322596367574
000260 3f ac b0 47 79 33 d2 bf 90 af bc 40 fa a2 a6 3f
       -0.2843917083834561 0.044212170031044384
000270 63 99 ce 59 d0 f9 d9 bf cc 22 b3 2f c1 df c5 3f
       -0.40587242861001566 0.17089094952668515
000280 7d c5 8c 3a 45 08 c6 bf 95 3c 3c 9a ed ab ab bf
       -0.17212739333039542 -0.05404608257060165
000290 ad f3 0e fa ff 7d d5 3f 64 68 62 e7 73 34 d2 3f
       0.3358154241539591 0.2844514617551168
0002a0 05 da 07 7e 45 6f c0 3f 5d 37 e9 6a db 85 a3 3f
       0.12839573530045825 0.03813062362733775
0002b0 9f 65 fc 65 b9 e2 d5 bf 68 ce 81 a7 06 ab c5 3f
       -0.3419631477314286 0.16928179911666352
0002c0 e3 75 a4 7c 4e b8 94 3f e5 6e 91 71 27 23 ca 3f
       0.02023432384259206 0.20419781728093436
0002d0 e3 7d b2 66 dc 0a c0 bf b9 14 c5 ad db 7e c6 bf
       -0.12533144964707707 -0.17574640259605248
0002e0 42 99 18 ae ae 2b c4 bf c7 c1 1b 69 74 4b e9 bf
       -0.15758307934556554 -0.7904607823275506
0002f0 7c ed 7d 2f 56 28 b1 bf f3 ae bb 54 a9 06 b8 3f
       -0.06702173861952149 0.09385164564781316
000300 de c9 16 2a be a4 c9 bf 14 48 b2 97 5e f0 d9 3f
       -0.20034005217674083 0.40529599012472883
000310 ff 70 17 36 70 99 b4 3f 7b de cb a1 1f 4e ab bf
       0.08046628304095192 -0.05333041048100725
000320 c0 94 2f cc 87 a5 e0 bf c3 44 c5 bd d6 56 d8 3f
       -0.5202063549046656 0.3803002217510533
000330 7e d9 e0 65 56 e5 d9 bf e0 33 d4 51 79 f1 c2 3f
       -0.4046226496606308 0.14799419875671926
000340 11 18 9c 19 90 04 e1 3f 15 02 e6 73 6d f7 ae 3f
       0.5318069935026434 0.06048147239471661
000350 50 53 70 f8 12 b6 b0 bf f7 91 20 a2 02 43 c8 bf
       -0.06527823033713998 -0.18954499164932745
000360 b9 e7 51 ce ea 27 d3 bf 15 1e 71 fd 38 72 b7 bf
       -0.2993113531916794 -0.09158664882226504
000370 42 eb 2d b0 e8 c1 ce 3f e3 95 a9 8a 7f 39 d5 bf
       0.24029263117321348 -0.33163441220525963
000380 5e cd 0a 74 b9 bf d7 3f 29 4f fd 50 33 56 94 3f
       0.3710769303536007 0.019860078638273358
000390 be c1 b1 ba 7c d1 92 bf e7 b4 09 b9 cc 28 be 3f
       -0.01837725533954581 0.1178100539925314
0003a0 0a a8 19 c1 5f 59 ca 3f c3 6e 6d 88 c2 fd c4 3f
       0.2058524792549295 0.16399413739678978
0003b0 4d 0b 86 9c 67 2d c5 bf 7c 2b 20 93 77 f5 d4 3f
       -0.16544814245943443 0.3274821221136148
0003c0 e0 00 71 84 e5 98 c9 3f 25 fc 82 81 ce 1e d5 bf
       0.19997853247514907 -0.3300052895319275
0003d0 9d 69 33 53 33 00 dd 3f 74 96 28 3d 0d da a5 3f
       0.45313723683434565 0.042679227557795324
0003e0 24 89 1f db a2 af dd 3f 24 67 5d 5d b5 5e d0 3f
       0.4638449802279345 0.25578054540311457
0003f0 af 5c d5 9c 66 e8 cb 3f b0 b0 2b 52 70 dc cc bf
       0.2180298105037983 -0.22547725689162723
000400 8c 49 79 6c f7 43 ed 3f 52 2d dd 41 e8 3d c9 3f
       0.9145466917637335 0.19720175949110313
000410 d6 d2 26 4d 9e c1 dc 3f 12 18 20 15 5e 49 d2 3f
       0.44931752714482565 0.285727997427217
000420 3a 6b 77 99 c7 a3 c6 bf cb c9 42 cd b4 7f cb bf
       -0.1768731593463942 -0.21483478567604516
000430 3c 50 93 97 9c a9 cd bf ad 60 72 3a ce 33 b4 bf
       -0.23173863793511085 -0.07891549040721442
000440 45 11 b2 87 71 20 c5 bf 67 29 9a 7b 82 73 c1 3f
       -0.16505259633789585 0.1363375762487735
000450 47 42 a6 08 8c c6 d3 3f 79 92 c6 7d 0c 01 b8 3f
       0.30899334759400116 0.09376600332923059
000460 60 c6 37 4b de ec c6 3f 0d 31 5d 7c b3 a6 a0 3f
       0.17910364792583078 0.03252182858577344
000470 60 93 ce a5 28 bb c9 bf e0 e0 ff 47 15 1d d5 bf
       -0.20102413269082842 -0.3299000933761942

decoder.bias_ih_l0 f8 [24]
000000 0d 19 21 60 fd 6b b7 3f 01 db 41 0e a3 ba d1 3f
       0.09149154278665979 0.27701641456899045
000010 ae 5d 74 56 b0 f7 de 3f fb 2a fa 88 37 57 e0 3f
       0.4838677257807501 0.5106465983711524
000020 a0 f0 08 2e a1 3a db 3f da d6 14 f0 44 8f d9 3f
       0.4254534673270971 0.3993694634003596
000030 e6 d1 4e a1 6e 96 94 3f bd 9d 98 b0 2b a7 ae bf
       0.020105103106930054 -0.05986916094507986
000040 ca b4 87 c6 8d 0c e7 bf 15 49 c5 7e 66 45 df bf
       -0.7202824475804388 -0.48861086254068314
000050 01 3a c5 3b 4b 2d bf 3f a1 e4 22 60 2a 8c c0 bf
       0.12178487977255516 -0.12927751249461486
000060 b3 ec 16 be 44 eb c4 bf 67 51 17 03 15 8a 96 bf
       -0.16342982560840866 -0.022011116326966198
000070 68 4c ef ad bd b0 9e 3f 71 5b 33 e7 21 97 be 3f
       0.029971088162551146 0.11949359793230287
000080 68 ce e7 94 31 fd c7 bf ea 50 57 42 91 07 b7 3f
       -0.18741435786033667 0.08995921964316592
000090 bd 8e 33 6d 76 47 b8 bf 7d 0d 7f 94 c8 5c cd bf
       -0.09484043279695249 -0.22939402819438817
0000a0 ad ca 45 20 94 98 e0 3f cf 88 82 eb 92 06 e7 3f
       0.5186253195118603 0.7195524787714705
0000b0 00 5c 2b b9 a8 28 c2 bf 7b c5 35 cb 99 61 af bf
       -0.14186581651185293 -0.061291509681619304

decoder.bias_hh_l0 f8 [24]
000000 88 8c 10 d0 cf 8c c1 3f ff 24 be d1 cc b8 d3 bf
       0.13710973414808714 -0.30815430147829653
000010 bd 2e 3a 9b db e8 ee 3f 03 2b fa 93 a9 2e e3 3f
       0.9659250289709785 0.5994460954837851
000020 a0 f0 08 6e a0 f1 df 3f 26 29 eb 0f 46 70 d3 bf
       0.4991227221069128 -0.3037276416258855
000030 f6 d9 29 24 88 61 ca 3f 90 d8 d9 b9 c0 bc cc 3f
       0.20610143438143752 0.22451027941469137
000040 6b b3 84 97 c3 81 a1 3f 66 92 8a 0d a9 eb c5 bf
       0.03419314598645581 -0.17125428353496658
000050 7a b1 0e e1 53 aa da bf 15 dc 46 f7 fd 17 6e 3f
       -0.4166459749055985 0.0036735496780369117
000060 97 89 f4 18 41 7a d2 3f e3 8a ce 97 38 75 d0 3f
       0.2887118095115055 0.2571546061027858
000070 d5 98 de 2b 5f 6e 87 3f 81 a4 cc 18 5d 07 b3 bf
       0.011440986181537141 -0.07433111052945841
000080 9a 31 18 6b 4a 54 ce 3f 73 5d 51 bb 96 4b aa bf
       0.23694734791969269 -0.05135794674486762
000090 9f 1c b3 44 da 8f d7 3f c8 86 3f 1a fd 77 d2 bf
       0.36815506657553415 -0.28857352793975766
0000a0 ab ca 45 a0 cc 4f e0 3f af 11 05 67 73 e1 d2 3f
       0.5097411279987986 0.29501042423751306
0000b0 f7 8e 52 db 4d 5c a5 3f d6 b8 66 ad 74 01 d9 bf
       0.04171984960819757 -0.3907138532039317
