auto_encoder.pth (torch, 14524 bytes, 8 tensors)

encoder.0.weight f8 [16, 6, 3]
0	0xbf8cab8020784a6b	-0.013998986235525387
1	0xbfce4068fdc02066	-0.23634064092789514
2	0xbfc18e5e9b3a004c	-0.1371572740499708
3	0x3f922ce3ee6af3b8	0.017749368121019876
4	0x3fc32e1da7a8dfcd	0.14984484373576237
5	0xbfb91a47a98335f4	-0.09805724991311832
6	0x3fd3864701ecdfa4	0.3050706404496799
7	0xbfc36fb0c12f7b8e	-0.1518460219658348
8	0x3fd1f0486665d94e	0.28029069900312187
9	0x3fbd4a99969baebc	0.11441955496746464
10	0xbf9b2bdf0ef3ab05	-0.026534543311679055
11	0x3fc8e884e875c0dc	0.19459592199883147
12	0xbfd1a55308d2e1cf	-0.2757155977410805
13	0xbf910ffedc98e690	-0.016662580694378593
14	0xbfd4194a1b82a819	-0.3140435475021391
15	0x3fb291cc46107752	0.07253720007471756
16	0x3fcf542de65af07a	0.2447564482480436
17	0xbfd283701b1ab18a	-0.2892723335924293
18	0xbfb146df40000000	-0.0674876719713211
19	0x3fc1fc10c0000000	0.14050492644309998
20	0xbfc3b8e1e0000000	-0.15407966077327728
21	0x3f81d04760000000	0.008698041550815105
22	0x3fc9213720000000	0.1963261514902115
23	0x3f9a87db40000000	0.025908876210451126
24	0x3fb882d2c0000000	0.09574620425701141
25	0x3fc682b000000000	0.17586326599121094
26	0xbf877d2200000000	-0.011469140648841858
27	0xbfbe515ae0000000	-0.11842887848615646
28	0xbfc9a82a60000000	-0.20044450461864471
29	0x3f9f4ee4c0000000	0.030574392527341843
30	0xbfb2ff8a80000000	-0.07421174645423889
31	0x3f76e2e160000000	0.005587463732808828
32	0x3f94176080000000	0.01962042599916458
33	0xbf96214220000000	-0.021611245349049568
34	0xbf9c4237c0000000	-0.027596350759267807
35	0xbfba6b6d40000000	-0.10320170223712921
36	0x3fd22c37c8127c3d	0.28394884622861466
37	0xbfcb8ebf4ad95cd7	-0.21529379992236983
38	0x3fc2f7676cf162ad	0.14817517108419534
39	0xbfd081ac5e7517b3	-0.2579146311221578
40	0xbfc3bf811bf0cc8c	-0.15428174843109266
41	0x3f9fc56eddbbd103	0.031026584895657027
42	0x3f8cffbbbd9a4e5d	0.014159647678105342
43	0x3fc5e3312f6aa3af	0.1709958535696194
44	0xbfd466f21b65b76c	-0.31878330874939453
45	0x3f828c8bc6a11a85	0.00905713272017051
46	0xbfbea22147210685	-0.11966140734241477
47	0x3fd32df135b28a7b	0.2996790909184381
48	0xbfa7072de366a984	-0.0449766483391896
49	0xbfd4c44c19f29305	-0.32448103460255623
50	0xbfca88a0f327f771	-0.2072945773397197
51	0x3fc3ca04d1fc6204	0.15460262540069902
52	0x3f9ffdd1026eca45	0.031241670392498717
53	0xbfcf1bb5d15ff9cb	-0.24303314898857162
54	0x3fa7fd2bbd63d4aa	0.0468534153641625
55	0xbfc25feab55c1799	-0.14355214934783758
56	0x3fa4e712da0606d3	0.04082545195980249
57	0xbfc3b429c14469dc	-0.1539356416404435
58	0x3f9ac7304aeb9f0b	0.02615046937253766
59	0xbfc41cd7991c0f09	-0.1571301934819689
60	0x3fa76dbbbf5708bf	0.045759074313097774
61	0xbfc97d13f32e58c3	-0.19912957548212348
62	0x3fbfa24bdea37233	0.1235701960135394
63	0x3fb89898d653a18d	0.0960784457453256
64	0xbfce28da00899a7e	-0.23562169100042135
65	0x3fae7f32870ddf23	0.05956418894396467
66	0x3fc9c8c4e21e64dd	0.20143948594048924
67	0xbfc53309b43eb515	-0.16562005330107668
68	0x3fba5779dec8788f	0.10289727868118546
69	0x3fb4da5895ff8d21	0.08145669614855368
70	0xbfaad60d9e2ec635	-0.05241434627476985
71	0x3fa6010eda6976ce	0.04297682205354435
72	0xbfd5869d6ababf95	-0.33634124205399846
73	0x3fc39bf144dd3c49	0.15319648611554929
74	0xbfc557f33f452aee	-0.16674652661671224
75	0xbfb70dc94798a075	-0.0900541114612013
76	0x3fcd4f50bd56ab5c	0.22898301358267303
77	0xbfc93da83374bad4	-0.19719412338732545
78	0x3fd56ceba24ea91d	0.33477297640151155
79	0xbfd0de2c86eba741	-0.2635604207595073
80	0x3fbb18c42b842ef7	0.10584665357981381
81	0xbfcf4aae91cbd998	-0.24446661108931944
82	0xbfc5dd8e557aa1c4	-0.17082385228901675
83	0x3fd5bab77445b35e	0.33952127794946374
84	0xbfc299d5163dcf11	-0.14531959138877729
85	0x3f9915121d513c45	0.02449444106997258
86	0xbfd0e80e270f1e59	-0.2641635304866888
87	0x3f9ea169455117b3	0.0299126099164579
88	0xbfc5603bd1d7375a	-0.16699931856276856
89	0x3fb9b12a40edd3a5	0.10035957417660642
90	0xbfd153a36565b926	-0.27072987463079057
91	0x3fd0a0063fb0f844	0.25976711482860915
92	0xbfb35f23cb0eae21	-0.07567046840147686
93	0xbf905e7c468eb730	-0.015985433393942816
94	0xbf94722d75477282	-0.019966802867076534
95	0x3fc843e2b966e4f4	0.18957170536831536
96	0xbf9d1883e0abef2e	-0.02841383036410077
97	0x3fc92bf6dd3618fc	0.19665418435415194
98	0xbfd5d86b1cfce1d2	-0.3413341315349757
99	0xbfc348eb850dc8ce	-0.1506628417660693
100	0x3fc04580e8412c5a	0.1271210798316556
101	0xbfd4d8bb861841d3	-0.3257283029097639
102	0x3fd54e094863245d	0.33288795537061394
103	0xbfbf6836d149eb9c	-0.12268393144215256
104	0x3fc33ff3cc4d9b7e	0.15038917041530547
105	0x3fca1b6b64ad6b17	0.20396177688493175
106	0xbfc9616b3946f966	-0.19828548714390165
107	0x3fa524560a90f8fd	0.04129284743292947
108	0xbfd571c0bcb39b3c	-0.33506792476548575
109	0x3fd053e5b843fe56	0.2551206874340769
110	0xbfb1fe640426ab46	-0.0702879438528444
111	0xbfab88edc94656ef	-0.05377905923812231
112	0xbfc469501b135f3a	-0.15946389505438124
113	0x3fcfab5ac044b1e8	0.2474168242273571
114	0xbf9813b083ea97a1	-0.023512609530960685
115	0x3fd0294b5695409b	0.252520403436401
116	0x3fb15e6c3d8cec7b	0.06784702780434941
117	0xbfb4a6dbf76b7fd4	-0.08067107000851986
118	0x3fc45c6106a14a69	0.15906918357594016
119	0xbfca2bcfaeb09205	-0.20446201352855567
120	0xbfd504042fecfa7f	-0.3283701389336002
121	0x3fb81c67212a1e76	0.0941833930938801
122	0x3fceba2893c40d04	0.24005610671165567
123	0xbfa797412614a0cf	-0.04607585515833678
124	0x3fb4305e5dce0974	0.07886304655224824
125	0x3fd39fb2c98dd9c0	0.306622216062717
126	0x3fc8e068fba5f11f	0.19434845244894292
127	0xbfd0bde28ade183b	-0.2615896564606179
128	0x3fbb44934426534d	0.1065151254063725
129	0x3fd260cfe67f262b	0.2871589423126319
130	0x3f7ba91d4445efbf	0.006753076861396977
131	0x3fbe159546402661	0.1175168320188731
132	0x3fc3e2cc4603d5e8	0.15535882395458533
133	0xbfd131953abb9016	-0.2686513017235951
134	0x3fc110791590ac15	0.13331521561607987
135	0xbfcfb7fef83a30e6	-0.24780261154626898
136	0xbfbc9dd4d1a99d18	-0.11178331488337212
137	0xbfb0b2b8f15b5255	-0.06522708790300531
138	0x3fc97130843cfecc	0.19876676995226317
139	0xbfd41c2f6c4f6322	-0.3142202909198649
140	0x3fb688782e2ddf83	0.08801985862180399
141	0x3fd3c78696585754	0.30905308420311894
142	0xbfc90af09fa6e160	-0.1956463603544405
143	0x3fc2904f114fbfc4	0.14502895684517914
144	0x3fb44fe8a0000000	0.07934430986642838
145	0x3fb2f0ae60000000	0.07398500293493271
146	0x3fcd3bd200000000	0.22838807106018066
147	0xbfc66b0900000000	-0.17514145374298096
148	0x3fa6913880000000	0.044076696038246155
149	0x3fc1fa39c0000000	0.14044877886772156
150	0x3fc043e160000000	0.1270715445280075
151	0x3fc5bb5fa0000000	0.1697806864976883
152	0xbfbf58f220000000	-0.12245095521211624
153	0x3fc9198dc0000000	0.19609233736991882
154	0x3fcb25fa40000000	0.21209648251533508
155	0x3fcd313ca0000000	0.22806508839130402
156	0xbfbe287400000000	-0.11780476570129395
157	0xbfb00cdd60000000	-0.06269630044698715
158	0x3fb6bf0b00000000	0.08885258436203003
159	0xbfb40e2fc0000000	-0.07834146916866302
160	0xbfab9219c0000000	-0.05384903401136398
161	0xbf726b93c0000000	-0.0044971248134970665
162	0xbfc6a70500000000	-0.17697203159332275
163	0x3fcb38eba0000000	0.2126745730638504
164	0x3fc80d87c0000000	0.18791291117668152
165	0x3fca019f00000000	0.20317447185516357
166	0x3fb7e211a0000000	0.09329328685998917
167	0xbfb2412980000000	-0.07130679488182068
168	0xbfc2ea2e00000000	-0.14777159690856934
169	0x3f9be51f80000000	0.02724122256040573
170	0xbfc252f960000000	-0.14315716922283173
171	0xbfa49530c0000000	-0.04020073264837265
172	0xbfb8e65de0000000	-0.09726511687040329
173	0x3fbf45b5c0000000	0.12215743958950043
174	0xbfbb01e340000000	-0.10549755394458771
175	0x3f9b401de0000000	0.026611773297190666
176	0x3fc7934a00000000	0.18418240547180176
177	0xbfc37de8e0000000	-0.15227995812892914
178	0x3fc36f0ec0000000	0.15182670950889587
179	0x3fc7f71280000000	0.1872275471687317
180	0x3fa0ab2554cd1cc6	0.03255573902293345
181	0xbfd3ab0371664b90	-0.3073128325860859
182	0x3fd08a4b2b79c91f	0.25844077344585686
183	0xbf9429687142c0a4	-0.01968920890129823
184	0x3fd46451f838dce9	0.31862305870477187
185	0xbfd545303e7c0860	-0.3323479280662749
186	0xbfc902082a1c031f	-0.19537450843929435
187	0x3fcff4d15ade57e4	0.24965874611797212
188	0xbfc3692dad6a60f3	-0.15164729087405923
189	0x3f873ac762b590bb	0.011342580509058888
190	0x3fd1f7ccfdc6a0b9	0.2807495573311019
191	0xbfd53e7873a8f870	-0.3319378976337992
192	0x3fd5382487be20ae	0.3315516782390756
193	0xbfc4e906c1f336fd	-0.1633614012738959
194	0xbfb0ca0fd7e5205e	-0.0655832197272743
195	0x3fcc1e9c82c01abc	0.2196841848783232
196	0xbfc7a93b1ce9c5fc	-0.18485201751495584
197	0x3fd59fdf68f56dfd	0.33788285493730524
198	0xbfc4fb8440e17948	-0.16392567794805246
199	0x3fb7d4770f4dbc8e	0.0930857097971389
200	0x3fbe39e34cf12393	0.11807079914537004
201	0xbfc87b538538c919	-0.19126361851665122
202	0xbfcadc2bfd136ddb	-0.20984411103459774
203	0x3fbfa17c533549ea	0.12355782538842389
204	0xbfb2069c1f211eea	-0.07041335830683307
205	0xbfbf7d9e7fbb3f93	-0.12301054590648013
206	0x3fc1ed42059d4706	0.14005303644312778
207	0xbfb4509c98865292	-0.07935503696200844
208	0xbfaf9a86514eb9d5	-0.061725804734453917
209	0x3fc9d441ea1fc809	0.20179008418887204
210	0x3f9c1edcb6c4f684	0.027461479812009873
211	0x3fcbeb9187e6d216	0.21812647949049396
212	0xbfb4ca20fa7de4c9	-0.08120924106141837
213	0xbfc9ef4302f72e14	-0.20261418957521526
214	0xbfcae58f8c9d68e9	-0.21013063779793775
215	0xbfa3b74afceacb00	-0.03850778901450802
216	0x3fb1825300000000	0.06839483976364136
217	0x3f8041a200000000	0.007937684655189514
218	0x3fb1f6f5c0000000	0.07017455995082855
219	0x3fbe53b740000000	0.11846490204334259
220	0xbfca0e45a0000000	-0.20356054604053497
221	0x3fc1614c20000000	0.13578177988529205
222	0xbfb7442e00000000	-0.09088408946990967
223	0xbfb0b55280000000	-0.06526675820350647
224	0x3fc5a5abe0000000	0.16911838948726654
225	0x3fabcfb7e0000000	0.05431913956999779
226	0x3fa203b200000000	0.03518444299697876
227	0x3fb69aae20000000	0.08829773217439651
228	0xbfcdafd920000000	-0.2319289594888687
229	0x3fa418c4e0000000	0.03925147280097008
230	0xbfcdad68c0000000	-0.23185452818870544
231	0x3fc5f4e820000000	0.17153646051883698
232	0x3fcdbbb420000000	0.23229075968265533
233	0x3fa02fa180000000	0.03161339461803436
234	0xbfcd2577affa36e1	-0.2277059182419441
235	0x3fd4432595e71967	0.31659831656397447
236	0xbfd1c71d35397de5	-0.27777795980179426
237	0xbfd5382aaec5066e	-0.33155314509722345
238	0xbfb4fbc77d9e07b6	-0.08196684662655582
239	0xbfb3ea0d0b83ed34	-0.07779008418213068
240	0x3fc10c42348bb21d	0.1331866032191024
241	0xbfd429b9098bd9ac	-0.3150465577340593
242	0x3fb737c53a95ef94	0.09069473915400145
243	0xbfb218101046a5d0	-0.07067966840136042
244	0xbfd06accf5562320	-0.25651859244003283
245	0x3fd072953a134a85	0.25699358626767604
246	0xbfc3f2503cc1eb79	-0.1558323189418294
247	0x3fc43da6ec75c12a	0.1581314711179485
248	0xbfac4d6f248fe6a9	-0.055278275693081476
249	0xbf9991178dd7c50c	-0.024967544586563625
250	0xbfc68e12809b79fa	-0.17621070174841674
251	0x3fc4afe17340580a	0.16161745193011284
252	0x3fcaccff80000000	0.20938104391098022
253	0x3fb8cbe140000000	0.09686096012592316
254	0xbf9226adc0000000	-0.01772567257285118
255	0x3fc18aed20000000	0.13705219328403473

encoder.0.bias f8 [16]
0	0x3fd170195f2013db	0.2724669865568196
1	0xbfc88e8c00000000	-0.1918501853942871
2	0x3fcd6c0e899c41d2	0.2298601314473801
3	0x3fccc6f8b870a286	0.22482213025911707
4	0x3fc05f2c16d2c756	0.1279044257585677
5	0x3fd4baadfca67457	0.32389402077553114
6	0x3fceaac48008ed30	0.23958641292288396
7	0x3fd62899d9d90a30	0.3462280871791874
8	0xbfca3ad060000000	-0.20491985976696014
9	0xbfb6f4d880000000	-0.08967354893684387
10	0x3fd0ac069b99940e	0.2604996223001884
11	0xbfaf935323072ec9	-0.06167087366665453
12	0xbfccdd31e0000000	-0.22550033032894135
13	0x3fd1930b385ac77d	0.2745998430574373
14	0xbfcc38ac80000000	-0.2204795479774475
15	0x3fb955ea50d730ee	0.09896721337935663

encoder.3.weight f8 [8, 16, 3]
0	0x3fb845bbc0000000	0.09481404721736908
1	0xbfb1852fe0000000	-0.06843852251768112
2	0xbfb77a4900000000	-0.0917096734046936
3	0x3fa193e2c0000000	0.03433140367269516
4	0x3f911921a0000000	0.016697430983185768
5	0xbfbae39720000000	-0.10503525286912918
6	0xbfc0a13600000000	-0.12991976737976074
7	0xbfa4844fa0000000	-0.04007195308804512
8	0xbfc18414c0000000	-0.13684329390525818
9	0xbfaa571b20000000	-0.051445815712213516
10	0x3fabe017a0000000	0.05444406345486641
11	0x3f942b9860000000	0.019697552546858788
12	0x3fa61cc0a0000000	0.04318811371922493
13	0xbfa88d91c0000000	-0.04795508831739426
14	0xbfb762bc00000000	-0.09135031700134277
15	0xbfb7547d60000000	-0.09113296121358871
16	0x3fb3840f60000000	0.07623382657766342
17	0x3fb7b42f40000000	0.09259314835071564
18	0x3fba91bac0000000	0.1037861555814743
19	0xbfb8a5aba0000000	-0.09627792984247208
20	0xbf83bdbc80000000	-0.009639237076044083
21	0xbf88d26a80000000	-0.012120086699724197
22	0xbfbca32040000000	-0.1118641048669815
23	0xbfb0f8ab00000000	-0.06629437208175659
24	0x3fc0ca8dc0000000	0.13118144869804382
25	0xbfaa4d3e60000000	-0.05137057229876518
26	0xbfb45ff700000000	-0.07958930730819702
27	0xbf839df6c0000000	-0.009578635916113853
28	0xbfb921f8e0000000	-0.09817462414503098
29	0x3fc0f92b20000000	0.13260401785373688
30	0xbfc0e88160000000	-0.13209550082683563
31	0x3faf603a40000000	0.06128103286027908
32	0xbfb1878ec0000000	-0.06847469508647919
33	0x3f98dd0420000000	0.02428060956299305
34	0xbf905eefa0000000	-0.015987152233719826
35	0x3fbb170ea0000000	0.10582057386636734
36	0xbfc1c811e0000000	-0.13891814649105072
37	0x3fc120c6c0000000	0.13381275534629822
38	0xbfc1aa9be0000000	-0.13801907002925873
39	0xbfa9b24080000000	-0.050188079476356506
40	0xbf6468e020000000	-0.0024914147797971964
41	0xbf935ded80000000	-0.018912993371486664
42	0xbfa59341e0000000	-0.04213910922408104
43	0xbf895fe2a0000000	-0.012389917857944965
44	0xbf9462daa0000000	-0.019908348098397255
45	0xbfa6dd1760000000	-0.04465554282069206
46	0x3fb2d58d20000000	0.07357103377580643
47	0x3f8172f7c0000000	0.008520064875483513
48	0x3fa63549e1d7a768	0.043375309771206016
49	0x3fc26e85dcdd0fdc	0.1439978912768528
50	0x3fcbba4e32a8cd8b	0.21662309144595002
51	0xbfbca3c100000000	-0.11187368631362915
52	0xbfc10ef7c0000000	-0.1332692801952362
53	0x3fb6256ac0000000	0.08650843799114227
54	0x3faafeee8ff3fb1c	0.05272622592200646
55	0x3fb5e0d9082d2b71	0.085462154861643
56	0x3f97d1df5da12ac6	0.02326153763741947
57	0xbf94354123d8a043	-0.019734399617078912
58	0xbf8a2008d73fdb57	-0.012756413525478
59	0x3fcb36d39503388a	0.21261067176823573
60	0x3fb5b8239db03b6b	0.08484099006476035
61	0x3fbef7868486c455	0.12096443877705217
62	0x3fc4b636674c13ee	0.16181068462188314
63	0x3fb5cd87cd6270e9	0.08516739620467075
64	0x3fcc26197407d5ee	0.21991270223195108
65	0x3f9db879c989b314	0.029024031568428546
66	0x3fd04d13812e18a9	0.2547043572925625
67	0x3fb192678e80322d	0.06864020566008185
68	0x3fc00c7360c6007f	0.12537996506944535
69	0x3fbce91016fc752e	0.11293125687776204
70	0xbf90eba889031718	-0.01652396522765462
71	0xbf9f6d660b1a294d	-0.030690760066627566
72	0x3fac3918c0000000	0.055123113095760345
73	0x3fb35ba260000000	0.0756169781088829
74	0xbfb4947f00000000	-0.08039087057113647
75	0x3fbe2779e0000000	0.1177898570895195
76	0x3fc25e2d80000000	0.14349907636642456
77	0x3fb555df40000000	0.0833415538072586
78	0x3fbc2dc0a268e367	0.11007312741356899
79	0x3fa9999d9b1c5f81	0.050000119385173576
80	0x3fb584c2710987aa	0.08405699977586659
81	0xbfba787a7396e38d	-0.10340085336691925
82	0xbf63c87f1adb8330	-0.0024149401204883944
83	0xbf78eacf01b11f17	-0.006083305949750948
84	0x3fadccca60000000	0.05820305272936821
85	0x3fb073fee0000000	0.06426995247602463
86	0xbfa1035220000000	-0.03322846069931984
87	0x3fcdf66b489b8036	0.23408261342319897
88	0x3fc989c794a50f58	0.1995172000698584
89	0x3f884e01818c2021	0.011867534414264526
90	0x3fbc9aeda0000000	0.11173901706933975
91	0x3fb6ead4e0000000	0.08952074497938156
92	0xbfb6be4620000000	-0.08884084969758987
93	0x3fb546039f7ddd50	0.08309958118285476
94	0xbf87b026391bbaf1	-0.011566446893508582
95	0x3fc793ce466c3a34	0.184198173891177
96	0x3fcd4e3bb353a578	0.22894998794735577
97	0x3f61d005c29580b3	0.0021743881704168965
98	0xbf94181ab925989b	-0.019623200941531676
99	0xbfb0e49b20000000	-0.06598825007677078
100	0x3fc138e240000000	0.13454845547676086
101	0xbfc06fa880000000	-0.1284075379371643
102	0x3fa1437dea1082bf	0.03371804697258573
103	0x3fa53681c89ef7ef	0.04143148015963038
104	0x3fcaf6f93ff5f69a	0.21066203711591386
105	0x3fb4857ad7dbc05a	0.08016174097042619
106	0x3fa6e8cda61b534c	0.044744898344709044
107	0x3fb60de5181de0fe	0.08614951933657619
108	0x3fcb5306673aedf8	0.21347122231041715
109	0x3fa917c174324743	0.04900936644948086
110	0x3fc71e54e2e8887e	0.18061314658649857
111	0x3fcec31adf6a8f9c	0.24032913121220367
112	0x3fac04e6e88a7dd0	0.054724899183607456
113	0x3f61967f09f5f148	0.002146957514638146
114	0x3fa10448323cac7d	0.03323579419369425
115	0xbf7448e5f1dc7bc8	-0.004952333661804205
116	0x3fc6b2cee0117cf9	0.17733179035983662
117	0x3fc2dcfb6f3ac0bb	0.14736884051445096
118	0x3fc7cdbaa12b94ac	0.18596585149422162
119	0x3f94257775d0d2a2	0.019674173894787324
120	0x3f95f9ce00000000	0.021460741758346558
121	0x3fb32e9c60000000	0.07492997497320175
122	0x3fb43f66a0000000	0.07909242063760757
123	0xbfb83f2700000000	-0.09471362829208374
124	0xbf9317eee0000000	-0.018645985051989555
125	0xbf8722d1e0000000	-0.011296882294118404
126	0x3fceace08197fc7d	0.23965078666512687
127	0x3fca86bae13d9c09	0.20723663328246314
128	0x3f7269ac7fe9f322	0.004495309664545729
129	0xbfb7c802cb6ba5c0	-0.09289567438431501
130	0xbfa4443ac0000000	-0.03958304971456528
131	0xbfb2b4277bd51084	-0.07306143544434646
132	0xbfa4fffd80000000	-0.04101555049419403
133	0x3fa3579ea0000000	0.0377778597176075
134	0x3fb038a4c0000000	0.06336431205272675
135	0x3fb9a57f1aed8d26	0.10018152625484741
136	0x3fc06b1e74fbf66b	0.1282690116130881
137	0xbf82924fe659642f	-0.009068130700301406
138	0x3fb3548280000000	0.07550826668739319
139	0xbfa8e18760000000	-0.048595648258924484
140	0xbfba34efc0000000	-0.1023702472448349
141	0x3fcd99ab40fa5521	0.2312521044993128
142	0xbf4159c03433d99f	-0.0005294979568180486
143	0xbf9b8032e486fe5f	-0.02685622711010038
144	0xbfb72a5c00000000	-0.09049010276794434
145	0x3f95a784c0000000	0.02114684507250786
146	0xbfb87355c0000000	-0.09550987184047699
147	0xbfae7878a0000000	-0.059512872248888016
148	0x3fab47a500000000	0.05328097939491272
149	0x3fbf84fba0000000	0.12312290817499161
150	0x3f9480a320000000	0.020021962001919746
151	0xbfb337e640000000	-0.07507170736789703
152	0xbfc10bc3e0000000	-0.13317154347896576
153	0xbfbb818900000000	-0.10744529962539673
154	0xbfb1cccce0000000	-0.06953125447034836
155	0x3fbd0b2f20000000	0.11345190554857254
156	0xbfc00aab40000000	-0.12532559037208557
157	0x3f87640880000000	0.011421266943216324
158	0xbfb4ac8000000000	-0.08075714111328125
159	0x3fa97f69e0000000	0.04980021342635155
160	0xbf7b8472e0000000	-0.006718109827488661
161	0x3faf65a2c0000000	0.06132229417562485
162	0x3fa2e2a940000000	0.03688553720712662
163	0x3fa5ae2e40000000	0.04234451800584793
164	0x3fb30e5ee0000000	0.07443802803754807
165	0x3fad32a5a0000000	0.05702703073620796
166	0x3fb30e5a80000000	0.07443776726722717
167	0xbfa83cbe20000000	-0.04733842983841896
168	0xbfc1c19b40000000	-0.13872089982032776
169	0x3fbac5dac0000000	0.10458151996135712
170	0xbf78c45a20000000	-0.006046630907803774
171	0x3f621777c0000000	0.0022084559313952923
172	0xbfac234dc0000000	-0.05495684593915939
173	0x3fc137fea0000000	0.13452132046222687
174	0x3f80012ce0000000	0.0078147416934371
175	0xbfaf897a00000000	-0.06159573793411255
176	0xbf8f4f1780000000	-0.015287574380636215
177	0x3f94d44b60000000	0.020341088995337486
178	0xbfa868dfc0000000	-0.04767512530088425
179	0x3fbb2ac8a0000000	0.10612157732248306
180	0x3f93704a40000000	0.018983040004968643
181	0x3fb2ca5b20000000	0.07340020686388016
182	0xbfbe047d80000000	-0.11725601553916931
183	0xbfb90ca9c0000000	-0.09784947335720062
184	0xbfc17ee1c0000000	-0.1366846263408661
185	0xbfb3a3d2c0000000	-0.07671849429607391
186	0xbfbc5dfe20000000	-0.11080921441316605
187	0xbfae56e180000000	-0.059256598353385925
188	0xbfad095080000000	-0.05671168863773346
189	0x3fc26ea5a0000000	0.14400167763233185
190	0xbfc0a8d3c0000000	-0.13015219569206238
191	0xbfb96e2940000000	-0.09933717548847198
192	0xbfbd873b20000000	-0.11534471064805984
193	0xbfb98b22c0000000	-0.09977929294109344
194	0xbfb4f2bb80000000	-0.08182880282402039
195	0xbf96b79600000000	-0.022184699773788452
196	0x3fc2544260000000	0.14319638907909393
197	0xbfc165a9a0000000	-0.13591499626636505
198	0xbfa54c81e0000000	-0.0415993295609951
199	0xbfc2413f60000000	-0.14261619746685028
200	0xbfb1b04100000000	-0.0690956711769104
201	0xbfc22a3540000000	-0.14191308617591858
202	0x3f9c272620000000	0.02749309130012989
203	0xbf401515a0000000	-0.0004907947150059044
204	0xbfb4347b60000000	-0.07892581075429916
205	0x3fb8e31e60000000	0.09721555560827255
206	0x3f8c3a1b60000000	0.013782705180346966
207	0x3f897c0a40000000	0.012443618848919868
208	0x3fbc87d360000000	0.1114475354552269
209	0x3fbe526980000000	0.1184450089931488
210	0x3fa8745fa0000000	0.04776285961270332
211	0xbfac6cd920000000	-0.05551794543862343
212	0xbfc22b8ee0000000	-0.14195428788661957
213	0x3fbb3817e0000000	0.10632466524839401
214	0x3faa6790a0000000	0.05157138779759407
215	0xbfa162c1c0000000	-0.033956579864025116
216	0xbfb623b2e0000000	-0.0864822193980217
217	0x3fb3ac3e80000000	0.07684698700904846
218	0xbfbfb0aaa0000000	-0.1237894669175148
219	0xbfb8b0b6a0000000	-0.0964464321732521
220	0xbfaf19bb80000000	-0.06074319779872894
221	0x3fbc16fb20000000	0.10972566157579422
222	0xbfbfa30960000000	-0.12358149141073227
223	0xbfb7fce2c0000000	-0.09370248019695282
224	0x3f97226300000000	0.02259211242198944
225	0xbf820c6d00000000	-0.008812762796878815
226	0xbfb1d52f60000000	-0.06965919584035873
227	0xbfbb7e8e60000000	-0.1073998436331749
228	0xbfb4d40780000000	-0.08136031031608582
229	0x3fba68e9e0000000	0.10316335409879684
230	0x3f9e222ce0000000	0.029427243396639824
231	0x3f8c088240000000	0.01368810422718525
232	0x3fc0276640000000	0.12620237469673157
233	0xbfad1ebfc0000000	-0.05687522143125534
234	0x3faddbb880000000	0.05831696093082428
235	0x3fb67265c0000000	0.0876830667257309
236	0xbfb8865d20000000	-0.09580022841691971
237	0x3fa6b7d220000000	0.044371191412210464
238	0xbfa9851c60000000	-0.049843680113554
239	0xbf8b179520000000	-0.013228573836386204
240	0x3fc3543e15a0fe82	0.15100837761018587
241	0x3f820a7a1481c23b	0.008809045553989417
242	0x3fcb105e43871210	0.21143701836821593
243	0x3fa2e79dc0000000	0.03692334145307541
244	0xbfa714ece0000000	-0.045081522315740585
245	0x3fafbb34a0000000	0.0619751401245594
246	0x3fcccea7ed86dd4c	0.22505663965214706
247	0x3fc64671531ee546	0.17402473982455485
248	0x3fb6b194b00d0400	0.08864716814152018
249	0xbf5eefc79f1b0797	-0.0018882226399203666
250	0x3fcd920521fa0177	0.231018678274278
251	0xbf767fac90388cc5	-0.005492853236805211
252	0x3fbf8f6d2876a7d2	0.12328226316336036
253	0x3fba65b0a152cc22	0.10311416567383039
254	0x3fa0872339a65652	0.03228101805431706
255	0x3fc4b91688f887a2	0.1618984383395033

encoder.3.bias f8 [8]
0	0x3f93c0bd80000000	0.019289933145046234
1	0x3fc1bebeafba8049	0.13863357143873348
2	0x3fb90f19a69b77f0	0.09788666074334151
3	0xbfa258a1c0000000	-0.03583245724439621
4	0xbfb1a77360000000	-0.06896134465932846
5	0x3f96db2de41761a8	0.022320477530088617
6	0x3fbd781c048abc99	0.11511397467505659
7	0xbf9e2ef540000000	-0.02947600558400154

decoder.0.weight f8 [8, 16, 3]
0	0x3fbe59f420000000	0.11856008321046829
1	0x3fac17f920000000	0.054870400577783585
2	0xbfb60d21e0000000	-0.08613788336515427
3	0xbfb6ae7780000000	-0.08859965205192566
4	0x3fbf95c3c0000000	0.12337897717952728
5	0xbfbe1b4500000000	-0.117603600025177
6	0x3fc18b8200000000	0.1370699405670166
7	0x3fb35a35c0000000	0.07559524476528168
8	0x3fb6c718c0000000	0.08897547423839569
9	0x3fa1896620000000	0.03425139561295509
10	0xbfba0dd700000000	-0.10177367925643921
11	0x3fb1109400000000	0.06665921211242676
12	0xbfaf8520e0000000	-0.061562564224004745
13	0xbfba2596e0000000	-0.10213606804609299
14	0xbfba59c020000000	-0.10293198376893997
15	0x3fa53e7980000000	0.041492268443107605
16	0xbf93fbbbe0000000	-0.01951497606933117
17	0x3f9a8f2800000000	0.02593672275543213
18	0xbfbf0d8480000000	-0.12130001187324524
19	0x3fc1f9e8c0000000	0.14043912291526794
20	0xbfbc2e0d20000000	-0.11007768660783768
21	0xbfbc6a2aa0000000	-0.11099497228860855
22	0x3fbe5d8940000000	0.11861474812030792
23	0x3fc0c151c0000000	0.13089963793754578
24	0x3fc224bb00000000	0.141745924949646
25	0xbfbecd0940000000	-0.12031610310077667
26	0xbfbfb03920000000	-0.1237827017903328
27	0x3fb74491e0000000	0.09089004248380661
28	0x3fb77dfb40000000	0.09176607429981232
29	0x3fae287fc0000000	0.05890273302793503
30	0x3fc10c46e0000000	0.1331871598958969
31	0x3fa2ac0fa0000000	0.03646897152066231
32	0x3fb1396b40000000	0.06728239357471466
33	0xbfc18b0900000000	-0.13705551624298096
34	0x3fc13f37e0000000	0.13474176824092865
35	0xbfac3ffac0000000	-0.055175624787807465
36	0xbf92db9060000000	-0.018415695056319237
37	0x3f90aaeba0000000	0.01627700962126255
38	0xbfbc572ba0000000	-0.11070511490106583
39	0xbfbec0cda0000000	-0.12012944370508194
40	0x3fa26f4520000000	0.0360051728785038
41	0x3f8ab69d60000000	0.013043622486293316
42	0xbfa787f400000000	-0.04595911502838135
43	0xbfc1d0b8e0000000	-0.1391821950674057
44	0x3f9a2370a0000000	0.025525817647576332
45	0x3fb8109100000000	0.09400278329849243
46	0xbfaf55ace0000000	-0.06120052561163902
47	0xbfbf6139c0000000	-0.12257729470729828
48	0x3fc716711d54d777	0.18037237102697265
49	0x3fb7cb9daf832c7f	0.09295068297358176
50	0x3f7d2cddb42ee805	0.007122865706088892
51	0x3fca333ec0292e3c	0.2046888769422014
52	0x3fb9dc02da2df4b5	0.1010133536019165
53	0x3fbff40cfa626b3a	0.12481766808415964
54	0x3fc7a2a0edd43a41	0.1846505318903429
55	0x3fb88fe3db2dfbcb	0.09594558812203428
56	0xbf8e9e9a948970a6	-0.014950950296388332
57	0xbf626e9c80000000	-0.0022500092163681984
58	0xbf90169760000000	-0.01571117900311947
59	0xbfb4c990e0000000	-0.08120065182447433
60	0xbf9739fd94d71057	-0.022682153901556337
61	0x3fc60788e5b34f12	0.17210494247284963
62	0x3f6f1c6148bea0c3	0.003797712333796084
63	0xbfbe3700b99f73ac	-0.11802677661712718
64	0x3fb8b266353bbbd7	0.09647215652124373
65	0xbfa1d0eb00000000	-0.03479704260826111
66	0x3fc86967890de503	0.19071668808081918
67	0x3fcfa543e44366a5	0.24723099370640003
68	0x3fc1fa3eeb52de70	0.1404493950883423
69	0xbfad87da00000000	-0.05767709016799927
70	0x3fad68ff2424805d	0.05744168583100937
71	0x3f926ea85d7fb3e9	0.01800025053664803
72	0xbfb1ac2600000000	-0.06903302669525146
73	0xbfad2b9ce0000000	-0.05697336420416832
74	0xbfbaca1180000000	-0.10464581847190857
75	0x3fc7431338b34eeb	0.1817344691140684
76	0x3fb00ebd836ab5cb	0.06272491892260416
77	0x3f724d5e4d209dab	0.004468315472002808
78	0x3f92a4165f999538	0.018204068741757257
79	0x3f91cd7610aab928	0.01738533474661455
80	0xbfc1f1ffe0000000	-0.1401977390050888
81	0x3fcb3ede4b43b93d	0.2128560893538153
82	0x3faf3e8e68d4c1b2	0.06102414159466053
83	0x3fc3b9fec61b3035	0.15411362336306103
84	0x3fc91b91b682a707	0.19615384494436958
85	0x3fcb5e42d34fd870	0.21381411855663002
86	0x3fc70c53c45b21ca	0.18006369674391315
87	0x3fcceac4420f0823	0.22591450906298957
88	0x3fbc0c47b684fd23	0.10956237989465882
89	0x3fcc795b148eafc3	0.22245348457124522
90	0x3fab85be476d8337	0.05375475522919831
91	0x3fca2973bf224794	0.20439001877508345
92	0x3fae6e8c99f0da35	0.059437173644642995
93	0x3faf60eeb1b522a1	0.06128641051561102
94	0xbfa822779d31ff01	-0.04713796419036776
95	0xbf8b49deaead80a2	-0.013324489312879276
96	0x3fab366c43cb9616	0.05314958884791225
97	0x3fc7771b80a8b1b9	0.18332237035919066
98	0xbf83bc56877c9c5c	-0.009636569986083802
99	0x3fcff4be7383a7e5	0.24965649261804326
100	0x3fb140d4004cccc1	0.06739544875454141
101	0x3fbc9d2b27017251	0.11177320196424857
102	0x3fd0d397cc7d9ec6	0.2629146096210032
103	0x3f8194e33c8dc7b1	0.008584761891800104
104	0x3fcc67e0de04fba0	0.22192011681360402
105	0x3fbcd1e640000000	0.11257781088352203
106	0xbfad3bb3c0000000	-0.05709611624479294
107	0xbfbd1df7e0000000	-0.1137385293841362
108	0x3f873040f8881979	0.011322505554755878
109	0x3fcf34c5620db6a7	0.24379794395229235
110	0x3fc693857d5d482e	0.17637699719722505
111	0x3fb3b58d791881be	0.07698902327002252
112	0xbfa6674e6d32267a	-0.043756914929940785
113	0xbfc0b17e40000000	-0.1304166615009308
114	0x3fc18f82f7419ce5	0.13719212601720368
115	0xbf76552a80ad4abc	-0.005452314401582722
116	0x3fb7bd57392d4eef	0.09273286004946234
117	0x3fbbf017a0000000	0.10913226753473282
118	0xbfb273047652de8c	-0.07206752671015176
119	0xbfbb1deef0d4431c	-0.10592549686067482
120	0xbf718af480000000	-0.0042829085141420364
121	0xbfba0e32e0000000	-0.10177915543317795
122	0x3fa1892600000000	0.03424948453903198
123	0x3fc38d8ad5bd6bc8	0.15275702892799203
124	0x3fcaeff3da2a5182	0.21044777062037318
125	0x3fc00d040d567216	0.12539721156362366
126	0x3fbb6cdc057b6b9f	0.107129813517004
127	0xbfbb02fb354f442f	-0.10551424075608005
128	0xbfbbc76d60000000	-0.10851176828145981
129	0x3fc55e0f42995831	0.16693297149567024
130	0x3fc67ad8d509e725	0.17562399294166045
131	0xbfa42ec81b5d1515	-0.03941941579845768
132	0xbf966ae964cd6963	-0.021892210748185714
133	0x3fc49ee0fd19dd6e	0.16109859808396315
134	0x3fc700272d0f25cd	0.17969217014460384
135	0xbfa75d8e87f16d1d	-0.045635656447041685
136	0x3fb6273134e8d732	0.08653552571999226
137	0x3fc35ba3d8dcf08b	0.15123413170829667
138	0xbf8494fecafe377c	-0.010049810953002718
139	0x3fced04d4edaa0b6	0.24073187208455743
140	0x3fc265db5a1c7987	0.14373342418634769
141	0xbfb816b7830a55a6	-0.09409663151958245
142	0xbfa4e931d37f70b9	-0.0408416338611643
143	0xbfad90d1d152b291	-0.05774551086628777
144	0x3f88e6f500000000	0.012159265577793121
145	0xbfac293140000000	-0.055001772940158844
146	0x3fc0f224e0000000	0.13238964974880219
147	0x3f9a7a6980000000	0.0258575901389122
148	0xbfb0d03d20000000	-0.0656774714589119
149	0xbf97892680000000	-0.022984124720096588
150	0xbfac772ba0000000	-0.05559669807553291
151	0x3fbe52b040000000	0.11844922602176666
152	0xbfbe16ec20000000	-0.11753726750612259
153	0x3fb0e49920000000	0.06598813086748123
154	0x3fba6ece80000000	0.10325327515602112
155	0xbfa3070ba0000000	-0.03716312721371651
156	0xbfa9d87600000000	-0.05047959089279175
157	0xbfc14a86e0000000	-0.13508687913417816
158	0x3fb38568a0000000	0.07625440508127213
159	0xbfc07d7f60000000	-0.12882988154888153
160	0xbfc231a220000000	-0.14213968813419342
161	0x3fb086c300000000	0.0645563006401062
162	0x3f60cf91a0000000	0.0020521015394479036
163	0xbf967e84c0000000	-0.021967004984617233
164	0xbf83ee6560000000	-0.009732048027217388
165	0xbfc1708c80000000	-0.13624721765518188
166	0xbfc0126840000000	-0.12556174397468567
167	0xbfbd07aba0000000	-0.11339829117059708
168	0x3faa7fd040000000	0.05175638943910599
169	0xbfc1bd3520000000	-0.13858665525913239
170	0xbfb1b66a60000000	-0.06918969005346298
171	0x3f8c1d5da0000000	0.01372788567095995
172	0x3fb63fd2c0000000	0.08691136538982391
173	0x3fb130fc80000000	0.06715372204780579
174	0x3f99599a20000000	0.024755867198109627
175	0xbfa09183e0000000	-0.03236019238829613
176	0xbfa41753c0000000	-0.03924047201871872
177	0xbfa227a640000000	-0.035458751022815704
178	0x3f9c239a80000000	0.027479566633701324
179	0x3f76898d20000000	0.005502272862941027
180	0x3fb0d78a40000000	0.0657888799905777
181	0xbfa74418a0000000	-0.0454414077103138
182	0xbfbc88d860000000	-0.11146309226751328
183	0xbf9dbbf3e0000000	-0.029037294909358025
184	0x3f726330e0000000	0.004489127080887556
185	0x3f85b3e9e0000000	0.010597064159810543
186	0x3f21860300000000	0.00013369356747716665
187	0xbfbfd86860000000	-0.12439586967229843
188	0x3fbd29e220000000	0.11392033845186234
189	0xbfc048bec0000000	-0.1272200047969818
190	0xbfa4edab20000000	-0.040875766426324844
191	0x3fb5f3ab00000000	0.08574932813644409
192	0x3f7adabe80000000	0.0065562669187784195
193	0xbfb93f9580000000	-0.09862646460533142
194	0x3fba5db1e0000000	0.10299216955900192
195	0xbf60e463c0000000	-0.0020620296709239483
196	0x3f92d6cd00000000	0.01839752495288849
197	0x3f952033c0000000	0.02063065394759178
198	0xbfba6749e0000000	-0.10313855856657028
199	0xbfa54fa3c0000000	-0.041623227298259735
200	0xbfb4f51e20000000	-0.08186519891023636
201	0xbfb0a44ee0000000	-0.06500714272260666
202	0x3f63c740e0000000	0.0024143473710864782
203	0x3f36e6fde0000000	0.00034946153755299747
204	0xbfb4b608c0000000	-0.08090262115001678
205	0x3f9e4e58e0000000	0.029595745727419853
206	0xbfc14d05a0000000	-0.13516302406787872
207	0x3fb520a380000000	0.08252927660942078
208	0xbfbc6554e0000000	-0.11092119663953781
209	0xbf607343e0000000	-0.0020080877002328634
210	0x3fa65ce880000000	0.04367758333683014
211	0xbf9a506900000000	-0.025697365403175354
212	0x3f92b07040000000	0.01825118437409401
213	0xbf90f37da0000000	-0.016553843393921852
214	0x3fbe985600000000	0.11951196193695068
215	0xbf9dc156a0000000	-0.029057839885354042
216	0x3fb4f9e3c0000000	0.0819380134344101
217	0x3fadc89060000000	0.058170806616544724
218	0xbfbd0fdf40000000	-0.1135234385728836
219	0xbfa9482440000000	-0.049378521740436554
220	0x3f7c82f3c0000000	0.006960823200643063
221	0x3fb4392aa0000000	0.07899729162454605
222	0xbfa9a2cc00000000	-0.05007016658782959
223	0x3fb6c0d580000000	0.08887991309165955
224	0xbf97f3d340000000	-0.023391056805849075
225	0xbf9cd9fbc0000000	-0.028175290673971176
226	0xbfb4782aa0000000	-0.07995859533548355
227	0xbfa782eda0000000	-0.045920778065919876
228	0x3fafa52fe0000000	0.06180715188384056
229	0x3f55e1ab40000000	0.0013355419505387545
230	0xbfb778cf20000000	-0.0916871502995491
231	0x3fa6e2f7e0000000	0.04470038041472435
232	0x3fc23ccc80000000	0.14248043298721313
233	0x3fb47d5580000000	0.0800374448299408
234	0xbf9aa086c0000000	-0.02600298449397087
235	0xbfa52f79a0000000	-0.04137783125042915
236	0xbf81453680000000	-0.008432794362306595
237	0x3fb4974ee0000000	0.08043377846479416
238	0x3f7c8964a0000000	0.006966965738683939
239	0x3fc0395080000000	0.12674909830093384
240	0x3fb33944190cdd79	0.07509255992487408
241	0x3fcbdf54fea80ab5	0.21775305208583054
242	0x3fbdd5e5efbf8448	0.11654507735467334
243	0x3fc21eb5aaa03baa	0.14156218367903978
244	0x3fc1496a9aa3ede7	0.1350529913978413
245	0x3fd3fe990c137616	0.31241441897677313
246	0x3fb4ca4e69c784ee	0.08121194918159677
247	0x3fd3c6b025fffcdd	0.30900195799763513
248	0x3fb45993158937b9	0.07949179912358674
249	0xbfb55e7580000000	-0.08347257971763611
250	0x3fb1894620000000	0.06850088387727737
251	0x3fb22dc4e0000000	0.07101088017225266
252	0x3fc03d33a3e02362	0.12686772824988696
253	0x3fd964179c1fad21	0.39673414465387863
254	0x3fd7a8514d3c696d	0.3696482900865224
255	0x3fa9be37ed4e4f15	0.05027937671471087

decoder.0.bias f8 [16]
0	0x3fc13aeb195638f6	0.13461054551266444
1	0x3fc41982bce44140	0.15702852462028183
2	0x3fca2f06855c990f	0.2045601035289981
3	0xbf95b8e820000000	-0.021213175728917122
4	0x3f86bba6214e30de	0.011100099460030707
5	0xbfc0a217f3113d07	-0.12994670265695893
6	0x3fc481a029215eaa	0.16020586021726518
7	0xbfc16388bf0ef561	-0.13585004166626916
8	0xbfa5502e60000000	-0.04162735864520073
9	0x3fcaab1e2fb1f3fb	0.20834710434783674
10	0xbfc0e47cae00dac4	-0.1319728707910227
11	0x3f9b36d47c009405	0.026576347416398267
12	0x3fc2bf6fbd4c4b67	0.1464671778017774
13	0xbfa74f8e170d8394	-0.04552883178144565
14	0x3fa7266cd9647692	0.045215035950815566
15	0x3fba0d53e88bf1b4	0.10176586558731665

decoder.2.weight f8 [16, 6, 3]
0	0xbfc7525c6698860c	-0.18220095643577883
1	0xbfce5ec114ed61a7	-0.2372666694816534
2	0xbfc7b5d5da907035	-0.1852366749961917
3	0x3fb3b776c47c0ddc	0.07701818749415373
4	0xbfd2b8147f84912f	-0.2924853558818254
5	0xbfb5dba329181881	-0.0853826499297572
6	0x3fbfb557bd07ec21	0.12386082043660497
7	0x3f85252df452df9a	0.010324820536297175
8	0x3fbe68236d95639a	0.11877652573947586
9	0xbfc60a534d1cc9a0	-0.17219010606056617
10	0xbfba0bfab818ecd6	-0.10174529070438906
11	0xbfc5b00e66ec8ff6	-0.16943531060780942
12	0x3fa9986bebc7215c	0.049991009265400094
13	0x3fb1980c6309084d	0.06872632425168597
14	0xbfd152a10e24ebcc	-0.2706682813765695
15	0xbfb845e5239b0539	-0.09481651419902883
16	0xbfc9b1c9d89b240b	-0.20073817326036222
17	0xbfca3a2e789407c9	-0.20490055930718956
18	0x3fbb4ee5f558d681	0.10667264213483386
19	0xbfbb751a80526051	-0.1072556079183198
20	0x3fae1be5b1931360	0.05880658905656477
21	0xbfd31ea50cc5f24a	-0.2987454056490476
22	0x3fb753e9774d8933	0.09112414515178528
23	0xbfcb74ee66b3c50b	-0.21450595869786357
24	0xbfaea673327dd938	-0.05986366263725745
25	0x3fb1dd29290dcccb	0.06978089573185568
26	0x3fbe8e0011f6befb	0.11935425222941014
27	0xbfcf73e363cbe30d	-0.2457241284644386
28	0xbf8ccecd32dc8f33	-0.014066317667647965
29	0xbfaed4655073e765	-0.06021420104111889
30	0x3f96ddb58fea6b07	0.02233012858287522
31	0xbfc5c5b063289021	-0.17009548989983705
32	0xbfc9579afe639ff2	-0.19798600598664923
33	0xbfc6057007a992ad	-0.1720409428991351
34	0xbfd1df1bb6f311e1	-0.27924244753037725
35	0x3f854437e039c776	0.010384022264790831
36	0xbfd487c4bedc6d7b	-0.32078665388845423
37	0x3f99d634ae449508	0.025231192718952605
38	0xbfb227997f1e9ad8	-0.07091674188141484
39	0xbfa5244670af3d99	-0.04129238248389839
40	0xbfc51347efc66c34	-0.1646509094979095
41	0xbfb5f4df63acb37c	-0.08576770957433938
42	0xbface01a6b41d4ed	-0.056397271721758326
43	0xbfd120218f100d48	-0.2675861260506349
44	0x3fad16bb017ff17b	0.05681404488857119
45	0xbfd417d4ad0c4a9b	-0.3139545144960409
46	0x3fa47f86c4bfdfc7	0.04003544952132603
47	0xbfd23adf57c51dc5	-0.2848432881478085
48	0xbfd1593007b71425	-0.2710685801833413
49	0xbfd484e6254e7415	-0.3206115116425406
50	0xbf74ea1f9f7e8c92	-0.00510609009498632
51	0xbfb13f892425d82e	-0.06737572796359423
52	0xbfba44fa1115a337	-0.10261500279524403
53	0xbfd182a33d9fd236	-0.2735984899329965
54	0x3fb34bf280000000	0.07537761330604553
55	0xbf920e2e20000000	-0.017632218077778816
56	0x3fcd001840000000	0.2265653908252716
57	0xbfc831db20000000	-0.18902148306369781
58	0x3fbfe371e0000000	0.1245642825961113
59	0x3fabf14e40000000	0.05457539111375809
60	0xbfc8cfe7c0000000	-0.1938447654247284
61	0xbfa8c9fc20000000	-0.04841602221131325
62	0xbfb0cf4b20000000	-0.06566304713487625
63	0xbfcd62f100000000	-0.22958195209503174
64	0xbfb9084f60000000	-0.09778305143117905
65	0xbfb43386e0000000	-0.07891123741865158
66	0x3f79f22da0000000	0.00633447477594018
67	0xbf9a2308e0000000	-0.02552427165210247
68	0xbf64768aa0000000	-0.002497931243851781
69	0xbfa04761c0000000	-0.03179460018873215
70	0xbfc13895e0000000	-0.13453935086727142
71	0xbfcadda100000000	-0.20988857746124268
72	0xbfc75970d5244500	-0.18241701514538278
73	0xbfd68be13d51e91f	-0.35228758800771404
74	0x3f9c2f0e5b29a415	0.027523254694106287
75	0xbfc53e005d789d2f	-0.1659546333696453
76	0xbfd77ad2c8deb4ab	-0.366871544038825
77	0x3f965e5901dab33d	0.02184428285424932
78	0xbfc508375de32049	-0.164313240855565
79	0xbfcdac1b77b2e8d8	-0.23181479782744563
80	0xbfd1e0f57350b882	-0.2793553949476363
81	0xbfc9506bb3258c0b	-0.19776674506565003
82	0xbfd6d77eebb3580c	-0.35690281884797126
83	0xbfc440b3794d471c	-0.1582245199484128
84	0xbfd5e4536af10203	-0.3420609039640398
85	0xbfd08d7e9b69b793	-0.2586361425118124
86	0x3f89334eb37801a7	0.012304892398788804
87	0xbfd031c1d64165bf	-0.2530369369829621
88	0xbfa80ee409d45e2c	-0.04698860759725351
89	0xbfb2b7c11594ac6b	-0.07311636711954043
90	0xbfbc2da3e0000000	-0.11007141321897507
91	0x3fb0d14351647bb8	0.0656930993759336
92	0xbf98d503c7ca5255	-0.024250086850388836
93	0x3fa80f23c0000000	0.04699050635099411
94	0x3fb7b3343090de74	0.09257818399134427
95	0x3fc94fe2231f739d	0.19775034632666869
96	0x3fb30a6420000000	0.07437730580568314
97	0x3fb5f47a2f4a1ef0	0.08576167730836537
98	0xbfc90880fc4f1508	-0.1955720169045565
99	0xbfb1ae2d00000000	-0.06906396150588989
100	0xbfb1ee8ed9b63175	-0.07004635634638652
101	0x3fb5a3377ddd03a0	0.08452174017749181
102	0x3fa0407820000000	0.03174186125397682
103	0x3fb36eddac4d9b9c	0.075910429540825
104	0x3fad5f9883df7eba	0.05736996278551261
105	0x3fb11ab9c0000000	0.06681405007839203
106	0xbfcaf48b4c1f42cd	-0.2105878946008687
107	0xbfc627c17525f994	-0.17308824749120488
108	0x3fb39d3cf0057ab0	0.07661801204583685
109	0xbfce61fbbed84f99	-0.23736521547891412
110	0xbfd4bf637784d02b	-0.3241814295936389
111	0xbfd1b89e09d67cd5	-0.27689314804770265
112	0xbfd1199351edd04f	-0.2671860027396677
113	0x3fb3fce10051eb68	0.07807737596332986
114	0xbfc772dd7c0d250d	-0.18319290692515047
115	0xbfd0938c03295418	-0.2590055495141441
116	0xbfd0de550eee7d42	-0.26357008417285865
117	0xbf9f2661304b6c4d	-0.030419844219846493
118	0xbfc072e13eaf96a8	-0.12850585518679236
119	0xbfb85b535ff47cf9	-0.0951435193314757
120	0xbfd181b9e2214f39	-0.2735428531934648
121	0xbf93abf8727139e5	-0.01921070288181594
122	0xbfbf0ddac5b11567	-0.12130515409906693
123	0xbfad03060ee52c3e	-0.056663693731558315
124	0xbfc468a24afaa740	-0.15944317494477822
125	0xbfce1f9146c75fd9	-0.2353383632278099
126	0x3fc1500be3d12ca6	0.1352553236377833
127	0x3fc4b7a219787631	0.16185404056243294
128	0x3fcdaabbe0000000	0.23177288472652435
129	0x3fc20d2d28dc1590	0.14102711196043716
130	0x3fc3569d30e23151	0.15108075034039328
131	0x3fc4a98e00000000	0.1614243984222412
132	0xbfa4d0fe8c131fd0	-0.04065700015922824
133	0x3fb771e916c12900	0.09158188634424747
134	0x3fa398e860000000	0.03827596828341484
135	0x3fc79108109c3a69	0.18411351023719938
136	0xbfc2890caddc08a9	-0.14480741967424152
137	0x3fa6150620000000	0.043129149824380875
138	0x3fcbb1f1f5dcec84	0.21636795525578034
139	0xbfc1c6411c4d8e52	-0.13886274225216028
140	0x3f9516e860000000	0.02059519849717617
141	0xbfc55e1ddb2e66c9	-0.16693471147737274
142	0xbfa76f679c9f5813	-0.04577182566542617
143	0xbfb5d8a980000000	-0.08533725142478943
144	0x3fcc8f5100000000	0.2231236696243286
145	0x3fc7f0bd00000000	0.1870342493057251
146	0x3fc0bac680000000	0.13069993257522583
147	0xbf91940340000000	-0.01716618612408638
148	0xbf72c86a20000000	-0.004585661459714174
149	0x3fcdfc31a0000000	0.23425884544849396
150	0x3f95e996a0000000	0.02139888145029545
151	0x3fbc1ff200000000	0.10986244678497314
152	0x3fa3d37ae0000000	0.03872283920645714
153	0xbfb5617cc0000000	-0.08351878821849823
154	0xbfc00d2420000000	-0.12540103495121002
155	0xbf4f5f8e00000000	-0.0009574359282851219
156	0x3fb3a27700000000	0.07669776678085327
157	0x3fb1bedbe0000000	0.06931852549314499
158	0x3fb1d97300000000	0.06972426176071167
159	0xbfcc045ce0000000	-0.21888314187526703
160	0x3fa7479d20000000	0.04546824470162392
161	0xbfc35cfde0000000	-0.1512753814458847
162	0xbfcdedb369affb00	-0.23381655369299637
163	0xbfd2965b320bffff	-0.29042701613798266
164	0x3fa282ee77ce6a57	0.03615517818908092
165	0x3faa1489f01239fe	0.05093794875675782
166	0xbfb318be10d47a4a	-0.07459628973854496
167	0xbfc09046af9e1f56	-0.12940295767861681
168	0xbfb47ea81bdf2494	-0.08005762749157191
169	0x3fc2305c2225ca09	0.1421008269058606
170	0xbfd15be4303e44ca	-0.271233603584801
171	0xbfd2242b81ba1846	-0.2834576384415225
172	0xbfb43b25f5f81794	-0.07902753119569034
173	0xbfba99f57d54f42b	-0.10391172704562794
174	0xbfba8fe62c5dc753	-0.10375822623407531
175	0xbfb5dfe2e47a65d6	-0.08544748380736364
176	0xbfca09d9461e56bf	-0.20342555927043368
177	0xbfcc304fdf12432f	-0.22022436515956076
178	0x3fa798b6e3d477e6	0.046086993514322036
179	0xbfcccac51c18aaed	-0.2249380480946778
180	0xbfbb35a660000000	-0.106287382543087
181	0x3fc8759bdb3b2663	0.19108913616792042
182	0xbfbc1a98cb02ab27	-0.10978083568867857
183	0x3fc1cb5980000000	0.1390182375907898
184	0xbfc4819ec1a6ee8d	-0.16020569282214972
185	0xbfcadab43883a929	-0.2097993160198908
186	0x3fcde21460000000	0.2334619015455246
187	0x3fbafca39f32ea1a	0.10541746746722716
188	0xbfcdedb7fb1f098f	-0.2338170982530525
189	0xbfce07fb40000000	-0.23461857438087463
190	0x3fb2f7c6452dc6b7	0.07409323872505068
191	0xbfc4fb1e4b369971	-0.16391352341197377
192	0xbfae539460000000	-0.059231411665678024
193	0x3fc0a3f1cc0170c1	0.1300031896706795
194	0xbfc5584f7cd233ec	-0.16675752253323084
195	0x3fce10f260000000	0.23489217460155487
196	0x3fcb106768f78b4d	0.21143810868587778
197	0x3fccf5ccb41f61e4	0.2262512092118093
198	0xbfc55f9b4b49ea9c	-0.16698018242080515
199	0x3fb6a0256f5b01df	0.0883811375488288
200	0xbf906987221035c8	-0.01602755685239801
201	0xbfc16225a53347d6	-0.13580771032735467
202	0xbfcc2bdfe47e8f58	-0.2200889459319295
203	0xbfd2d739603bad86	-0.2943862380768326
204	0xbfd189ad3432083a	-0.2740281114312243
205	0xbfcee609aebf7ab6	-0.24139519722571884
206	0xbfd2f470e96c6f75	-0.29616949839850487
207	0x3fb5dcfd4639fa0a	0.08540327991975274
208	0xbfc60b53cd42a7fa	-0.17222068331221846
209	0xbfccc7b81499c610	-0.2248449421490908
210	0xbfa4078ee6bbc302	-0.03912016455240598
211	0xbfcbe815792397fb	-0.21802013792984085
212	0xbfcec0042c498592	-0.24023487245999015
213	0xbfd442024cc1c80e	-0.31652886863514673
214	0xbfd4b357ea11cdff	-0.3234462533793873
215	0x3fb7c01fbc927712	0.0927753291493583
216	0xbfb637ba5ae2c398	-0.08678784102336434
217	0x3fbaefdea39a0437	0.10522262090854971
218	0x3fb58617dcb2c001	0.08407735002651863
219	0xbfd1faa7d7d6e357	-0.28092380598132166
220	0xbfcd5223be649037	-0.22906920238995251
221	0xbfcaaf7a9e13d639	-0.20848019331576653
222	0xbfd162f91ab6a266	-0.2716658364175032
223	0x3fb73588f1be0a75	0.09066062833702822
224	0xbfc8397d7d2e88aa	-0.18925446140662433
225	0xbfc20f042dafc476	-0.14108326178351022
226	0xbfae46026909a88d	-0.0591278794498332
227	0x3fb4ba396995931e	0.08096655681363216
228	0xbf97b79178ce3b91	-0.023161194799793675
229	0x3fb16dac919f4fb6	0.06807974391205004
230	0xbfc8d7368cc96d98	-0.19406778215748655
231	0xbfc17097216dae53	-0.13624848491905314
232	0xbfb1cc94c6be9be1	-0.06952791073000199
233	0x3f93c12ad525cefe	0.019291562327864213
234	0xbfc949ce6cd892a9	-0.19756489100213528
235	0xbf9b9967eb7f8b96	-0.02695238470904434
236	0xbfd2b05f269182c5	-0.29201487318463776
237	0xbfbb8393d8f3118e	-0.10747646376245809
238	0xbfc08f1961ce8542	-0.1293670394489173
239	0xbfcd82e1290c0183	-0.23055662636035032
240	0xbfc29af2823b631a	-0.14535361632331317
241	0xbfcd0002d86dd94a	-0.22656283920123094
242	0xbfd23ee03f4f5cbe	-0.2850876444112592
243	0xbfc171fc8b95bbf1	-0.13629109206837556
244	0xbfc0f470076213e3	-0.13245964394096096
245	0xbfd3a24d96d81221	-0.30678119402753806
246	0xbfb02068a29255d8	-0.06299451798471212
247	0xbfd5d10892e30168	-0.3408833918038199
248	0x3fb6829ddc48cf4b	0.08793055179631641
249	0xbf9363ff3d88e326	-0.01893614590719319
250	0xbfd32dd1206737fc	-0.299671441692112
251	0xbf67bc393e1d390d	-0.0028973691959556292
252	0xbfbbee26287fff69	-0.10910261620301544
253	0xbfd67a20e948de1b	-0.3512041357202819
254	0xbfc053f355d20c55	-0.12756196680502066
255	0xbfb36990ecfb3707	-0.07582956109692073

decoder.2.bias f8 [6]
0	0xbf98b02d751fffcf	-0.024109564088575838
1	0xbfa40d27fff23461	-0.03916287421552834
2	0xbfcdc0ef90d96e39	-0.2324504334709319
3	0x3fc0f57f66a92c7f	0.13249199402557463
4	0x3fab6a9d699d8506	0.05354778208016779
5	0xbfcaf8fc233370a0	-0.21072341650768056
