auto_encoder.pth (torch, 14524 bytes, 8 tensors)

encoder.0.weight f8 [16, 6, 3]
0.05433661490678787 -0.04882965236902237 -0.14531539380550385 0.20717087388038635 -0.1328626573085785 -0.12300754338502884 0.11515266448259354 -0.1482282131910324
-0.15913908183574677 0.2086888551712036 -0.2278243452310562 -0.22848208248615265 -0.08230138570070267 -0.19277966022491455 0.09744281321763992 0.22528937458992004
0.10195016115903854 0.04564354941248894 -0.025760626093273026 0.2445304111680792 0.14084939144046182 -0.08294742987032504 -0.2578599380402602 -0.13133860545514037
0.10371998056940941 -0.34361800318852476 0.2764726158545198 0.02549811213001149 0.04284065293098789 0.0181658398620938 0.3473443749304454 -0.39937000890566976
-0.023137766046126863 -0.06663659566958711 -0.2327982076009743 0.16628390645895452 0.12094371265281272 -0.11647693525156824 0.25157172818124074 -0.13539342961505257
0.05987336726085173 0.011680432069956306 0.0006884345815395351 -0.35181130639430436 -0.011829829127949883 0.2850906992145802 -0.0858653528083323 0.3115985669574175
-0.27585169971365714 0.14819698361429137 0.058847200097012504 -0.054324625104058874 0.2969461416703051 -0.15970877934299071 -0.02413893902109046 0.2488266227287928
-0.0036168292708395012 0.004600946589826225 -0.24706412637407976 0.2682574602775742 0.23768601023936792 -0.021091259408110047 0.20893404769317264 -0.2877758025661891
0.34635825922294317 -0.11290986685668748 0.2577578001453853 -0.1438016932238677 -0.3359656715753816 0.11538935917996047 -0.3188421587625084 -0.1958298771421371
0.022227348759770393 0.13263340294361115 -0.15787114202976227 -0.19780482351779938 0.23150581121444702 0.1877438724040985 -0.00808289460837841 -0.11732561886310577
-0.10558299720287323 -0.09497758746147156 0.06235095113515854 0.20662914216518402 0.03470570966601372 -0.19366474449634552 0.02065192721784115 -0.010918393731117249
0.22378815710544586 -0.18797455728054047 -0.07309453174846377 0.3477300505609843 -0.3226943943246858 -0.23452840163706792 0.07699553259526015 -0.40548549324066907
-0.1556898052546111 0.047147291594389365 -0.1747859671817532 0.020202009957434257 -0.11529751276656972 0.3252738679396948 -0.21619323124588755 -0.31452832256932023
0.32726580092313046 -0.39337131526197566 0.1656949382379744 -0.13790462216482702 -0.3566626264487568 -0.10687801856582743 0.09061462757189047 0.060290126759258066
-0.1925081676717994 0.14624980465539214 0.02001493560188157 -0.36260709869211494 0.3367025502340751 0.1912129343741524 -0.042059307150859565 -0.29362434713578095
0.06777960273350962 -0.11264347599801823 0.26425350469804093 0.040268632603515306 -0.3222335649826107 -0.04823743896589953 -0.1641450573471027 0.2774960105312198
-0.27859137842441434 0.234687601827342 0.1253347471417569 -0.2484673955321609 -0.1650382475800138 0.2141256577159857 -0.37481376801921146 -0.04828639000419333
0.039851158993740074 -0.20977833715481703 0.19021921106228643 -0.2197764676662372 0.2907113181799577 0.2593349056259807 0.14729840979086511 -0.19428656911704778
0.2073606245051352 -0.2604462584942562 -0.08939718705877314 -0.35799131383599153 -0.3171803552742773 0.19251490770165547 -0.2679070478116391 0.14862200889836422
-0.24663122888886324 0.184082803931347 -0.10709171312032269 0.31375660030932934 -0.21485061109100215 0.13906235345309642 -0.28590418029004205 -0.3181202007248849
-0.03354661624909428 -0.04896209692659065 0.012216481278435378 -0.18889878951819908 0.10655893622153037 -0.38253523765604397 0.03330274045186595 -0.018414757703264544
0.2599288411923622 -0.16392768826596105 0.243179246432641 0.18559012684280388 -0.07970524072738903 0.33083292874070885 -0.1456129492366397 -0.1225259742690553
-0.1323800610895716 -0.021783438775265025 0.28661489007002733 -0.28660944468054983 -0.13296782970428467 0.2286139726638794 0.03241005539894104 -0.18781989812850952
-0.20308107137680054 0.07627568393945694 -0.15132050216197968 0.13643145561218262 0.10339560359716415 -0.04106541723012924 -0.05758737400174141 -0.07567387819290161
0.152480810880661 0.10011694580316544 -0.0951138585805893 -0.13689209520816803 -0.1432613879442215 0.11285099387168884 0.2617547716420724 0.21977791026408947
-0.15158832715920867 -0.11326865878255127 -0.1697952914574245 0.2517849760521476 0.0862359759132603 -0.24204807114098834 -0.3161345699281921 0.22527546670627077
-0.2995438825541975 -0.29787701770289504 0.036533539836548536 -0.3667148598244681 0.19400293867011686 0.08376995082961801 -0.3244675209266835 -0.3070716309538493
-0.054014697670936584 -0.20665757358074188 0.23548857867717743 0.21027421951293945 0.007431332487612963 0.14905183017253876 -0.20861861109733582 0.10467302054166794
-0.1144181564450264 -0.19222359359264374 -0.21509355306625366 -0.20966292917728424 0.206350639462471 -0.0020942487753927708 -0.1418200433254242 -0.07707717269659042
-0.13618166744709015 0.11436837166547775 -0.2722047563707692 0.35257802218764206 -0.22287089196520157 -0.061906651242060795 -0.19789398650432863 0.15904355603632037
0.12900300622876917 -0.1781758644828539 0.27344965179048863 -0.2679038762815487 0.05026673984987381 0.2699364787003148 0.17964050381641714 -0.20596509526915113
0.32160657967334155 0.31089654817705825 -0.3449400170742509 0.11682300382116752 0.01978781273405558 -0.2998766082153574 0.2387030895264979 0.024147446608906668
00000000: 0000 0040 02d2 ab3f 0000 0040 3300 a9bf
00000010: 0000 00e0 b199 c2bf 0000 0040 9384 ca3f
00000020: 0000 00c0 a401 c1bf 0000 0020 6c7d bfbf
00000030: 0000 0020 a57a bd3f 0000 0060 24f9 c2bf
00000040: 0000 0060 ab5e c4bf 0000 0000 51b6 ca3f
00000050: 0000 0020 5929 cdbf 0000 00a0 e63e cdbf
00000060: 0000 0020 b411 b5bf 0000 0000 01ad c8bf
00000070: 0000 0020 03f2 b83f 0000 0040 48d6 cc3f
00000080: 0000 00e0 6719 ba3f 0000 0060 975e a73f
00000090: c55f 615a fe60 9abf 1d13 6cc3 c54c cf3f
000000a0: 08fb f254 5a07 c23f 838e 94f2 0a3c b5bf
000000b0: 5c37 35f8 c680 d0bf d6e7 9013 b4cf c0bf
000000c0: 35c4 7c84 648d ba3f 08bd 805d d6fd d5bf
000000d0: 476c d532 bab1 d13f b822 d556 2d1c 9a3f
000000e0: 3a46 8ec6 35ef a53f 6fc1 72e0 109a 923f
000000f0: 1fa7 b1e6 e33a d63f 7832 d039 478f d9bf
00000100: aae8 e131 6db1 97bf 6f1e 1e8f 180f b1bf
00000110: 5a57 1be8 54cc cdbf 90d1 0b82 ca48 c53f
00000120: bb2a 80ca 2af6 be3f c2cf a4b3 6ed1 bdbf
00000130: 8ebe 484e c019 d03f 621c 2568 9254 c1bf
00000140: 97d1 92d4 b8a7 ae3f ceea f20d e9eb 873f
00000150: 4fd3 ae01 028f 463f 92e6 d491 1384 d6bf
00000160: de45 c6c9 3c3a 88bf 264e 610f ed3e d23f
00000170: 98d9 2b92 45fb b5bf 3801 a41d 3bf1 d33f
00000180: 213c 34e3 8da7 d1bf 119f fe66 1ef8 c23f
00000190: d173 c15f 3821 ae3f 2ef8 60f0 6fd0 abbf
000001a0: 126e c963 2a01 d33f cec3 1458 5671 c4bf
000001b0: 8875 9fc6 e0b7 98bf 1245 7fff 8cd9 cf3f
000001c0: f6fe de6d 0aa1 6dbf f1a4 2432 71d8 723f
000001d0: 564f 651b cc9f cfbf 7b36 b356 212b d13f
000001e0: 6aef 58c4 7e6c ce3f b8a0 8e75 f298 95bf
000001f0: 6e79 eed2 59be ca3f 1b86 2633 eb6a d2bf
00000200: 52f8 03d5 bb2a d63f 6191 8b39 a9e7 bcbf
00000210: 1074 7a92 1a7f d03f 88c2 c008 1868 c2bf
00000220: 1cad ff28 7680 d5bf e5fc fb33 288a bd3f
00000230: 1525 1ef1 e867 d4bf d5dc f312 f410 c9bf
00000240: 0000 0020 c4c2 963f 0000 00a0 21fa c03f
00000250: 0000 0020 1f35 c4bf 0000 0020 ab51 c9bf
00000260: 0000 0080 fba1 cd3f 0000 00c0 fd07 c83f
00000270: 0000 00c0 c38d 80bf 0000 0040 0d09 bebf
00000280: 0000 00c0 7c07 bbbf 0000 0080 7350 b8bf
00000290: 0000 00c0 76ec af3f 0000 00e0 d272 ca3f
000002a0: 0000 0060 f2c4 a13f 0000 00a0 01ca c8bf
000002b0: 0000 0060 c725 953f 0000 0000 625c 86bf
000002c0: 0000 0020 17a5 cc3f 0000 00e0 8c0f c8bf
000002d0: 2547 60bf 52b6 b2bf 13bc bf8a 3541 d63f
000002e0: 0b88 8e63 06a7 d4bf 89d6 81d3 0605 cebf
000002f0: 684b 6fae fab5 b33f 8c26 1e6d 79f3 d9bf
00000300: 1dd0 f1be a4ed c3bf 825a fc96 b023 a83f
00000310: bc34 6cf6 625f c6bf fe94 52f0 d5af 943f
00000320: c67e a446 2384 bdbf a6d7 427c 49d1 d43f
00000330: d5a8 e844 38ac cbbf 4776 c666 3b21 d4bf
00000340: 151a 0442 ecf1 d43f 2e05 8fe1 fe2c d9bf
00000350: b723 6ce2 7d35 c53f 4024 15d1 dba6 c1bf
00000360: 4e62 137b 8fd3 d6bf 56c9 669a 5b5c bbbf
00000370: a3e2 f52d 8532 b73f 53c9 67f5 58de ae3f
00000380: 667f 2e8e 1ba4 c8bf 3f49 0548 50b8 c23f
00000390: 94d3 5d97 cb7e 943f 6686 8b67 f434 d7bf
000003a0: b10c 6fda 888c d53f 5fc6 da59 aa79 c83f
000003b0: 0c25 6929 cc88 a5bf 617b 10c6 bdca d2bf
000003c0: 2388 1309 015a b13f 85ed 84ed 33d6 bcbf
000003d0: 9303 2288 87e9 d03f de68 2c18 179e a43f
000003e0: 0086 d187 799f d4bf 8548 9add 93b2 a8bf
000003f0: 838c 8d8a b402 c5bf c321 80a0 7ec2 d13f
00000400: 65f2 d1ee 70d4 d1bf 6603 504b 3e0a ce3f
00000410: fe5c 0310 f80a c03f 2c6a f794 c7cd cfbf
00000420: efff f829 f91f c5bf 7df4 8f34 7868 cb3f
00000430: 31ea eee2 f2fc d7bf f1df d163 feb8 a8bf
00000440: 46ef 2b01 5f67 a43f 229e be3c 04da cabf
00000450: 37ae 4a65 1a59 c83f 2e48 87a2 a221 ccbf
00000460: ed3c 0aa5 039b d23f 46fd 976e f198 d03f
00000470: 36fc 669e acda c23f 2473 34de 61de c8bf
00000480: 0225 5dfe ca8a ca3f 104c a6c8 26ab d0bf
00000490: 5496 c5ea bbe2 b6bf b75e 4b66 54e9 d6bf
000004a0: 338c 35d5 ae4c d4bf c818 4918 54a4 c83f
000004b0: 6e02 2e9a 6325 d1bf fd96 d7c5 0b06 c33f
000004c0: a0fe 1fb3 9c91 cfbf 1310 527b 0690 c73f
000004d0: 153f 86cd 5c6a bbbf c5e4 4e90 9614 d43f
000004e0: 05ab 148e 3980 cbbf aac9 1792 cbcc c13f
000004f0: b2aa 080c 414c d2bf 8cdc 93d4 145c d4bf
00000500: 41d6 5ca7 052d a1bf f829 165a 8f11 a9bf
00000510: 1b2e 815c f404 893f 1909 9ee5 d52d c8bf
00000520: 8a03 2b4a 7247 bb3f 0f38 d313 757b d8bf
00000530: fb43 378a 0e0d a13f 0bab 6578 51db 92bf
00000540: fd55 0d94 aca2 d03f 886e 011e 95fb c4bf
00000550: 403f 3f5f 7f20 cf3f f50a a0d2 6ac1 c73f
00000560: 0f73 3e0a 9067 b4bf 4966 58e0 5d2c d53f
00000570: 8c38 6cf3 71a3 c2bf c768 65bc dc5d bfbf
00000580: 31d7 8270 d4f1 c0bf e566 89d4 654e 96bf
00000590: 0b6f d9fa e557 d23f f42b e823 cf57 d2bf
000005a0: 0000 0000 1705 c1bf 0000 0000 3943 cd3f
000005b0: 0000 0000 0d98 a03f 0000 0080 7b0a c8bf
000005c0: 0000 0080 8ffe c9bf 0000 00a0 cd86 b33f
000005d0: 0000 0060 785e c3bf 0000 0000 9676 c13f
000005e0: 0000 0060 2278 ba3f 0000 00c0 8606 a5bf
000005f0: 0000 00a0 177c adbf 0000 0000 5d5f b3bf
00000600: 0000 00c0 7d84 c33f 0000 00a0 43a1 b93f
00000610: 0000 00c0 6159 b8bf 0000 0020 ae85 c1bf
00000620: 0000 00a0 6356 c2bf 0000 0080 cde3 bc3f
00000630: da93 f115 97c0 d03f 9dd6 7bbc ae21 cc3f
00000640: c854 cd0d 3f67 c3bf dc01 22c1 2cff bcbf
00000650: ce86 e923 dabb c5bf d528 71bb 3e1d d03f
00000660: a23d 4998 8f13 b63f 7322 ce62 6efb cebf
00000670: c880 be7d 8c3b d4bf dd1a 0c95 d3d5 cc3f
00000680: 8e60 d21a ba2b d3bf 83e4 50c4 6a10 d3bf
00000690: a534 9c2d 86b4 a23f e9cf 799a 4178 d7bf
000006a0: fc40 759a 16d5 c83f 8763 338f f271 b53f
000006b0: a2a2 bf6b 13c4 d4bf 7979 1ec5 0fa7 d3bf
000006c0: 0000 0080 d0a7 abbf 0000 0060 c173 cabf
000006d0: 0000 0060 7d24 ce3f 0000 0000 44ea ca3f
000006e0: 0000 0020 5170 7e3f 0000 0060 2114 c33f
000006f0: 0000 00c0 03b4 cabf 0000 00e0 d9cb ba3f
00000700: 0000 0020 824a bdbf 0000 0060 c89a c8bf
00000710: 0000 0080 2f88 cbbf 0000 0020 3cd6 cabf
00000720: 0000 00a0 b269 ca3f 0000 0040 f527 61bf
00000730: 0000 00c0 2827 c2bf 0000 0060 54bb b3bf
00000740: 0000 00a0 666e c1bf 0000 00e0 3e47 bd3f
00000750: 0366 9b7f cd6b d1bf ed64 a568 a390 d63f
00000760: 1f46 1c8c 0887 ccbf 88a3 fa84 3ab2 afbf
00000770: 633a 0e14 9754 c9bf 9863 e80b 8a5b c43f
00000780: b54b 6ba6 2b83 c03f 27f8 717b 77ce c6bf
00000790: 32bc e2f7 3280 d13f d974 c64c 5625 d1bf
000007a0: aba7 76e7 8fbc a93f e6f9 00a7 a346 d13f
000007b0: 43d8 76c4 75fe c63f 2e36 2672 105d cabf
000007c0: e306 78c3 3395 d43f 3406 b7a2 bae5 d33f
000007d0: 0499 1a4b 7f13 d6bf 0118 d5c4 1ce8 bd3f
000007e0: 7764 35a2 4143 943f 0fb4 47a8 2d31 d3bf
000007f0: 5138 7ca5 d28d ce3f 415f deb5 1bba 983f

encoder.0.bias f8 [16]
-0.2263704091310501 0.20146747245927224 0.16932276875093671 0.24526778742872946 -0.18001486361026764 0.21030189067247815 0.22560782021278358 0.2634466684458448
0.19175169232291492 0.3075040987941155 -0.1586904674768448 0.23686771885489397 -0.12130607664585114 0.32664607627659353 0.17481779928531638 0.3545120211903658
00000000: 0000 00a0 b4f9 ccbf 31ce b5a6 afc9 c93f
00000010: da70 2055 5eac c53f e063 e252 ef64 cf3f
00000020: 0000 0020 ba0a c7bf 5bd5 5c1f 2ceb ca3f
00000030: 9093 c490 b7e0 cc3f 85c3 4d6a 4fdc d03f
00000040: ad62 bdc7 518b c83f 3b3a edab 25ae d33f
00000050: 0000 0020 f84f c4bf bfdd fa70 ae51 ce3f
00000060: 0000 0040 ea0d bfbf 5561 bef1 c4e7 d43f
00000070: 4835 58fd 6d60 c63f 734b 4330 53b0 d63f

encoder.3.weight f8 [8, 16, 3]
0.07315962761640549 0.004119327291846275 0.0072211213409900665 -0.050815925002098083 0.016401000320911407 0.0015794250648468733 -0.04563713073730469 -0.07014025002717972
0.032855406403541565 -0.022491352632641792 0.029024511575698853 -0.08981333673000336 0.017001450061798096 -0.0609927736222744 0.048900753259658813 -0.08609338849782944
0.06728470325469971 -0.009459206834435463 0.1026783213019371 0.10905703902244568 0.11969859898090363 -0.06369727104902267 -0.03412563353776932 -0.1304919719696045
0.05146976560354233 -0.005494771059602499 -0.08843149244785309 0.052918318659067154 -0.10233741253614426 0.026544159278273582 -0.12674841284751892 -0.065742127597332
0.10565466433763504 0.052902285009622574 -0.09048925340175629 -0.07431149482727051 -0.12719272077083588 0.03409517928957939 0.08158125728368759 -0.003722462337464094
-0.14031700789928436 0.04602835327386856 0.01937125064432621 0.024113966152071953 -0.002399291843175888 -0.10071437060832977 -0.1063046008348465 -0.12564736604690552
0.0008720020414330065 0.1014992743730545 0.03540293127298355 0.06145104945474272 0.29028926744927896 0.010499091871693603 0.25601844945834584 0.2591752989541949
0.23508075636362935 0.03971133703939341 0.22061181334452412 0.24796813936362389 0.14019827544689178 0.04492492601275444 -0.020602263510227203 0.25897232620940663
0.20355950645520707 0.1585553293454378 0.1338090645835624 0.28833003135012414 0.09728397820694305 0.20628865322346074 0.02086165328372337 0.21552746474610107
0.14328519180875587 0.03359106029487506 0.16564251491231702 0.16944780323412728 0.16718733271100825 0.13320132020667144 0.011766409501433372 0.05525350198149681
-0.11886332929134369 0.13440900027392993 0.17160046361454934 0.2320095287567674 -0.1382674276828766 -0.11780844628810883 0.023566681891679764 0.17353818875432922
0.2664625195373667 0.10569481797778908 0.01899776387769409 0.11680567514825167 0.29658467879491934 0.11276610781956965 0.19240133371870868 0.20562137668754416
0.10199037939310074 -0.10648573189973831 0.0808347761631012 0.12320399806201476 0.07191114121489829 0.07187500674434254 0.2752803476512761 0.058407320573397925
0.1710662956057423 0.23160719068098776 0.26637811633276437 0.12528453375444695 -0.033521637320518494 -0.1371045708656311 0.12378036230802536 0.11420630415400647
0.10847115915811728 0.20073281103575397 0.25444922943228154 0.21637967220010218 0.2116261317422407 0.012080260968946316 0.28334262674424926 0.08980826543779047
0.03308106905180171 0.28355452432178446 0.14192560189725506 0.24524721340773567 0.08648703678085022 0.2878529361624124 -0.03747661039233208 -0.14371256530284882
-0.11751320213079453 0.282375312252107 0.22755380128927905 0.1165253710704353 -0.07382174581289291 -0.10647547990083694 0.034954190254211426 0.1021822511020679
0.1542115428877996 0.2601194684707259 0.08720750463260343 0.08169600192056052 0.28320543457985886 0.18792725718322037 0.27573137185938756 0.05496409218995091
0.015480940230190754 0.078668974339962 -0.031760960817337036 0.2006781622671456 0.11149797906952286 0.14322165435159423 0.09757660549909351 0.25580221692472005
0.1964975230639681 0.12623173336806348 0.17736358220647333 0.11254839330390679 0.03726096451282501 -0.1203489825129509 0.13096992671489716 0.09590581407642547
0.15364956770332677 0.20109975884376996 0.06662568227703225 0.22241987888678844 0.21375940895933637 0.17150998997284497 0.25272728053797694 0.036752639413227706
0.1296781773363493 0.1990443749053179 0.2544386320318942 0.11331689081253732 0.003449388476115931 -0.026131655534891225 -0.09748552739620209 -0.02101459726691246
-0.008145792409777641 0.20610077979748714 0.06562749608976802 0.2055247397812166 0.07771947234869003 0.09359851479530334 -0.01933564990758896 0.2060750323917859
0.1679183646213003 0.09263184963703351 -0.00014272994195656675 0.17799562890635015 0.00901003850062722 0.19799304637114296 0.17750617903463428 0.17617905649035365
0.13382311165332794 0.1250111609697342 -0.06464426219463348 0.07963245617539999 0.007997140850921283 0.025700149965924002 0.07686249782464447 0.006895881512790274
0.013463038598102908 0.08929422798172935 0.0927368600807569 0.036032051625988416 -0.01786545105278492 -0.07825371623039246 -0.06645753979682922 0.14185506055494193
0.01287380769984701 0.20576927215904514 0.12081386671615683 0.03790724458541638 0.2721714484969349 0.17356100522348153 0.08603054134349165 0.21042483641866483
0.2728393821505089 0.15588099673915579 0.04082948956150671 0.2709674871821965 0.13066559246809423 0.06746869172526887 -0.05878576263785362 -0.001521663274616003
-0.0514138825237751 0.1557432586330204 0.023054038139399553 0.25482204920735574 -0.006144397892057896 -0.08057735115289688 0.12321951985359192 0.07437544552978664
0.21009414837137988 0.255129291326898 0.011406051183618876 0.06726295939620863 0.21557420718873765 0.014129857569916296 0.08211487853734434 0.17266111605416665
0.0972156748175621 0.028255678713321686 0.02712339535355568 -0.01865112967789173 -0.0547807402908802 -0.040626753121614456 0.05466263368725777 0.02507886476814747
-0.038601718842983246 0.05285343527793884 -0.0036424354184418917 0.032454583793878555 0.09196150302886963 -0.054791852831840515 0.12136560678482056 -0.13239410519599915
00000000: 0000 00e0 96ba b23f 0000 0080 6ddf 703f
00000010: 0000 0000 e593 7d3f 0000 0080 8b04 aabf
00000020: 0000 0080 6ccb 903f 0000 00c0 96e0 593f
00000030: 0000 0000 c05d a7bf 0000 0020 b6f4 b1bf
00000040: 0000 0080 6cd2 a03f 0000 0020 f907 97bf
00000050: 0000 0000 9ab8 9d3f 0000 00c0 01fe b6bf
00000060: 0000 0000 d468 913f 0000 00e0 713a afbf
00000070: 0000 0000 8509 a93f 0000 0060 370a b6bf
00000080: 0000 0000 9239 b13f 0000 0040 595f 83bf
00000090: 0000 0060 2049 ba3f 0000 0080 29eb bb3f
000000a0: 0000 0040 91a4 be3f 0000 00e0 764e b0bf
000000b0: 0000 0040 ea78 a1bf 0000 0000 f6b3 c0bf
000000c0: 0000 00c0 3e5a aa3f 0000 0060 af81 76bf
000000d0: 0000 0040 72a3 b6bf 0000 0020 1c18 ab3f
000000e0: 0000 00e0 c832 babf 0000 0060 642e 9b3f
000000f0: 0000 00c0 4a39 c0bf 0000 00e0 79d4 b0bf
00000100: 0000 0020 2f0c bb3f 0000 0020 0216 ab3f
00000110: 0000 00c0 4d2a b7bf 0000 0000 1406 b3bf
00000120: 0000 00e0 d947 c0bf 0000 0060 ec74 a13f
00000130: 0000 0060 82e2 b43f 0000 00c0 917e 6ebf
00000140: 0000 0060 e8f5 c1bf 0000 0040 0791 a73f
00000150: 0000 00a0 0ed6 933f 0000 00e0 54b1 983f
00000160: 0000 0000 aea7 63bf 0000 00c0 6ac8 b9bf
00000170: 0000 0040 c736 bbbf 0000 0080 3615 c0bf
00000180: 0000 0020 e292 4c3f 0000 0040 dbfb b93f
00000190: 0000 0040 5520 a23f 280e 6d0f 8376 af3f
000001a0: ccc3 846f 1994 d23f f51f d041 8c80 853f
000001b0: 8a28 e634 9b62 d03f 541d 3cfe 5396 d03f
000001c0: fc17 4050 2017 ce3f 8bb0 ba5b 0b55 a43f
000001d0: c286 b605 023d cc3f 5e24 8284 6bbd cf3f
000001e0: 0000 0060 04f2 c13f 0000 0060 6600 a73f
000001f0: 0000 0080 c218 95bf 49dc e8a9 0093 d03f
00000200: 05ec 81e7 3c0e ca3f c094 1281 8a4b c43f
00000210: 72ba 25ca a720 c13f ba9e c6cd ff73 d23f
00000220: 43d7 d250 9ae7 b83f 1ab9 90a5 aa67 ca3f
00000230: 4357 60da c15c 953f c4b5 3c6a 6796 cb3f
00000240: b8eb 684e 2b57 c23f 6614 cff2 d832 a13f
00000250: 7613 3020 c633 c53f e682 a232 77b0 c53f
00000260: df4d 26ff 6466 c53f bd2c 09a9 bd0c c13f
00000270: 0000 00c0 fc18 883f 0000 00e0 2f4a ac3f
00000280: 0000 00c0 d36d bebf 7e77 3b6a 5034 c13f
00000290: 86f9 9905 01f7 c53f b072 2ffd 7cb2 cd3f
000002a0: 0000 0040 bfb2 c1bf 0000 00c0 b128 bebf
000002b0: 0000 0040 dd21 983f 1f49 a7d6 7f36 c63f
000002c0: c174 c1cf b80d d13f 353f 92ca d00e bb3f
000002d0: f111 355a 2674 933f 97ba bf0a fae6 bd3f
000002e0: 54ce fa4d 3efb d23f b1a8 2e59 3dde bc3f
000002f0: 57aa 035e 9ba0 c83f c2a1 1d20 cd51 ca3f
00000300: 0000 00a0 0a1c ba3f 0000 0020 a642 bbbf
00000310: 0000 0080 96b1 b43f 50ad 6916 4c8a bf3f
00000320: 316c bcbf c468 b23f 0fe2 5d83 6666 b23f
00000330: 0f33 9976 319e d13f 0062 6b77 90e7 ad3f
00000340: 418a 8918 80e5 c53f bf23 bfee 4da5 cd3f
00000350: 513c 81cc 560c d13f 2dc1 95d7 5209 c03f
00000360: 0000 0080 bf29 a1bf 0000 0080 a48c c1bf
00000370: 0000 00e0 11b0 bf3f 11a7 56d5 9f3c bd3f
00000380: ecb0 2411 c4c4 bb3f aefc 50dd 9cb1 c93f
00000390: f4db b96b e548 d03f 922f cf3f 54b2 cb3f
000003a0: b6ec 67a9 9016 cb3f 7d66 4f2e 89bd 883f
000003b0: 6a79 db1c 4922 d23f 7c3e f7aa acfd b63f
000003c0: fb6e 637b 00f0 a03f db12 26e0 c125 d23f
000003d0: da91 4e3d 9e2a c23f d7bb 82bc 4264 cf3f
000003e0: 776f 80b2 0324 b63f 3f02 b8b8 2e6c d23f
000003f0: 0000 0060 2230 a3bf 0000 0060 2c65 c2bf
00000400: 0000 0060 5815 bebf 8284 d4e6 6f12 d23f
00000410: 8818 4fa3 7b20 cd3f 53db e651 9bd4 bd3f
00000420: 0000 0060 fbe5 b2bf 0000 0020 fa41 bbbf
00000430: 0000 0000 84e5 a13f f70c b7b2 9d28 ba3f
00000440: dc34 af2e 34bd c33f 739e 8820 cca5 d03f
00000450: 7ae0 5c24 3b53 b63f 7b77 7678 07ea b43f
00000460: 3f7a e4af 0920 d23f 3580 d017 000e c83f
00000470: 9681 2732 95a5 d13f 9001 d2e4 4024 ac3f
00000480: 0000 00a0 78b4 8f3f 0000 0060 a623 b43f
00000490: 0000 0000 f942 a0bf 07b9 fa6f d2af c93f
000004a0: 2877 acad 218b bc3f 4e72 c250 1655 c23f
000004b0: 372a 79c9 c7fa b83f f0e6 fb42 105f d03f
000004c0: 0102 a7b1 d426 c93f b440 4487 5c28 c03f
000004d0: cd02 8a90 d9b3 c63f ea26 75b4 f8cf bc3f
000004e0: 0000 0080 de13 a33f 0000 00e0 30cf bebf
000004f0: 0000 0060 9fc3 c03f 5d5a f48e 488d b83f
00000500: 2248 2afe c9aa c33f 58d6 bb0b a3bd c93f
00000510: 381b 7476 610e b13f da46 e62c 4178 cc3f
00000520: 66a8 58e3 775c cb3f b171 ef12 0af4 c53f
00000530: 9fed 2d0b af2c d03f d09a a4f0 3dd1 a23f
00000540: 9e0e 5565 4b99 c03f b8e6 553c 497a c93f
00000550: 269f daf8 b848 d03f e4ce 1ff4 5502 bd3f
00000560: 9497 4656 e441 6c3f 9299 a6b7 41c2 9abf
00000570: 0000 00c0 cff4 b8bf 0000 00c0 d984 95bf
00000580: 0000 00c0 bdae 80bf de84 74a6 8261 ca3f
00000590: 1f86 6cad f6cc b03f ca8a f079 a24e ca3f
000005a0: 0000 0060 6ce5 b33f 0000 0080 12f6 b73f
000005b0: 0000 0080 b9cc 93bf cf8a 52aa aa60 ca3f
000005c0: f91f 3956 597e c53f ff50 c28c b8b6 b73f
000005d0: 9c46 a0dd 38b5 22bf bdea 7d8e 8fc8 c63f
000005e0: 4931 91e5 da73 823f a6ee 7f0d d657 c93f
000005f0: 9c55 e5c0 85b8 c63f d2df ee0a 098d c63f
00000600: 0000 00a0 1d21 c13f 0000 00a0 5d00 c03f
00000610: 0000 00c0 868c b0bf 0c37 f9ea ca62 b43f
00000620: 3b67 5413 ce60 803f 4d7b 6cde 2351 9a3f
00000630: a61a 72ba 42ad b33f 5f41 3119 db3e 7c3f
00000640: 6e7d de73 8292 8b3f 4731 e78c fcdb b63f
00000650: 6a3a 2e55 9abd b73f 7dcc ae06 cb72 a23f
00000660: 0000 0020 524b 92bf 0000 0080 6f08 b4bf
00000670: 0000 0080 5c03 b1bf 7d83 ed7e 4e28 c23f
00000680: 35df 5d38 955d 8a3f efef 38c3 a556 ca3f
00000690: 8bfe 7256 a8ed be3f 6f3a 8d0f 9468 a33f
000006a0: 11c1 8ccb 416b d13f c1da a53c 3f37 c63f
000006b0: 7108 87f9 1806 b63f a497 5777 33ef ca3f
000006c0: 116d d94f 3376 d13f dc01 8893 e8f3 c33f
000006d0: 2612 c254 9ae7 a43f 6f84 ee03 8857 d13f
000006e0: 7274 2e6f a6b9 c03f 7cc4 76d0 a045 b13f
000006f0: 0000 00e0 2a19 aebf 0000 0080 51ee 58bf
00000700: 0000 00a0 eb52 aabf 8c5d 3325 65ef c33f
00000710: 42d8 654f 7a9b 973f 864c e923 014f d03f
00000720: 0000 0040 de2a 79bf 0000 00a0 b7a0 b4bf
00000730: 0000 0080 508b bf3f 5c05 2dea 440a b33f
00000740: a103 2b74 5de4 ca3f 320b a0ce 0954 d03f
00000750: 632d 7b46 0e5c 873f a0c1 d632 2538 b13f
00000760: 084e de84 ef97 cb3f 9b88 4761 1df0 8c3f
00000770: 5839 d50d 7b05 b53f 372b 5f6b c219 c63f
00000780: 0000 0060 20e3 b83f 0000 0080 0eef 9c3f
00000790: 0000 0040 3cc6 9b3f 0000 0020 4819 93bf
000007a0: 0000 00a0 380c acbf 0000 00a0 07cd a4bf
000007b0: 0000 00a0 bdfc ab3f 0000 0020 46ae 993f
000007c0: 0000 00c0 9ac3 a3bf 0000 0000 9b0f ab3f
000007d0: 0000 00a0 bdd6 6dbf 0000 0020 e39d a03f
000007e0: 0000 0000 ca8a b73f 0000 0080 ad0d acbf
000007f0: 0000 0000 d111 bf3f 0000 0040 4af2 c0bf

encoder.3.bias f8 [8]
-0.09045471996068954 0.06371168290380184 0.27090306176377493 0.2142191008107854 0.20259457901559913 -0.019124561920762062 -0.052431825548410416 0.22642852821884266
00000000: 0000 0060 0a28 b7bf 53e8 71aa 684f b03f
00000010: fd58 aacb 7956 d13f bf96 1410 886b cb3f
00000020: 7604 9c81 9eee c93f 0000 00a0 6395 93bf
00000030: 0000 0020 58d8 aabf 6d69 ca29 9cfb cc3f

decoder.0.weight f8 [8, 16, 3]
-0.018446769565343857 0.13564813137054443 0.0336117297410965 0.06903372704982758 -0.07900258898735046 0.10127326846122742 0.13755585253238678 -0.11019653081893921
-0.1041344478726387 -0.015975451096892357 -0.07561984658241272 0.10242550820112228 -0.001743143773637712 -0.13363511860370636 -0.1213269755244255 0.01887286826968193
0.12124906480312347 0.12380849570035934 -0.09289615601301193 -0.0037367437034845352 0.07333821058273315 0.07364514470100403 0.04471667483448982 -0.0011100006522610784
-0.1143505796790123 -0.1250348687171936 0.07490181177854538 0.13463333249092102 0.12985605001449585 0.024922320619225502 0.11269818246364594 0.0766405463218689
0.013323139399290085 0.12537693977355957 -0.1263764500617981 -0.12597164511680603 -0.028109613806009293 -0.01517628412693739 0.08205650001764297 -0.09032357484102249
0.014480148442089558 0.09647440910339355 0.0028029363602399826 0.016131410375237465 0.023185664787888527 0.06330873817205429 -0.023237042129039764 -0.028980066999793053
0.059354408246819756 0.105321044232858 0.0342409608785909 0.029260836001209347 -0.020841173962942064 -0.15993911551625004 0.2334831830313488 0.26740871426458623
0.07893872498185135 -0.10120787913223066 -0.0590077333203105 -0.01737907901406288 -0.05861026048660278 0.035879652947187424 -0.09556718915700912 -0.15522927905769734
-0.006183101253810442 0.005836827818007516 0.1426604932842343 0.19179462522406374 0.2226812794810469 -0.12348491698503494 0.10264969617128372 0.06099189817905426
0.22471038591000547 0.08467468001003196 -0.04077682036587102 -0.11573271453380585 0.08812824636697769 -0.056620754301548004 0.25968371675004476 0.07582378520687598
0.20580562077814 0.18743425803519742 0.1944161926971142 0.19782013643516028 0.23407973950887917 0.18845357756092962 0.10247179846532219 -0.058285247534513474
0.054674696002418324 0.104942708348394 0.26758779071915745 0.16015011901661208 0.18212003242751965 0.05159789670010442 -0.08807206360430508 0.03361936144773346
0.1942724844618467 0.2014277550163275 0.21436013463206194 0.06827778001100508 -0.07136135473714385 -0.030579924656872485 0.10948228704396788 0.16975182787385176
0.021050810119970603 0.05994437615120165 0.11521679684935388 -0.04398879408836365 -0.05794893205165863 -0.14201496541500092 0.023752717301249504 -0.13489015232168303
-0.04545071501132682 -0.011998245266423178 0.11366886187297248 0.006625782142581014 0.15009817128082736 -0.02280963584780693 -0.11539027839899063 -0.013910187408328056
0.08066583949877909 0.19342574513046146 0.024023556296181737 0.10649766027927399 -0.0036538776475936174 -0.07967647910118103 0.18593553060111662 0.2520504610475915
0.008179264496037342 0.06693417136468481 0.19950173815585162 0.028541984385788435 0.2455355547647966 0.26604177352011543 0.14831466365385215 0.04313981533050537
-0.03977258614941926 -0.022222819892147683 0.2089657099084924 0.1000319369478813 0.16992172694541385 -0.04028096843374115 -0.012643660582141615 0.045439561672337196
0.1958010986034225 0.18306189862101202 0.09182522904176299 0.06943491970935885 0.03943232755956194 -0.08424484058743618 0.06795308017407174 0.21281269113096124
0.012546031786659063 -0.010982129574882888 -0.07846765338023463 -0.14012275636196136 -0.005113288294523954 -0.1305963397026062 -0.054392047226428986 -0.0026082226296949666
-0.09265296764220866 -0.13704230546750829 0.04796302549898432 0.19973724189498315 0.06410214482179456 -0.12819445133209229 0.07061571627855301 -0.14135058224201202
0.20688308068296332 0.12280421166022092 0.04638034282882397 0.08167669922113419 0.0331462137401104 0.0014363196678459644 0.27170720752053173 0.18735517506759725
0.1050778284898172 -0.03198789933825927 0.11797480472370914 0.1338982575374478 0.029692756418053908 0.016857132915817457 0.2852688527878899 -0.14009161293506622
0.05088205052156006 -0.07636192417122077 0.02460971853674068 0.1457921665333322 0.2247923672447298 0.01974489987169204 0.11329348657875422 0.046899340169952376
0.237968772621358 0.22396836433496956 0.04867164625101139 0.04142605326629321 -0.17167501178071493 0.014232324036209564 0.07668951446323201 0.18242656906560864
0.004483370911544188 -0.1235002341120558 0.06468454150692324 -0.11149711161851883 0.06826148927211761 -0.10960671305656433 -0.13784997165203094 -0.10408203511082043
-0.017172129925551855 0.032618387900994944 0.23905706476138022 0.16651878152349808 0.048476831551709815 0.08464406430721283 0.03998376801609993 0.009277352131903172
0.1406510880756373 0.15963207304290924 0.09537794099584856 -0.12608493864536285 -0.08698152750730515 -0.054226212203502655 -0.0015751586120228086 0.24176464357165883
0.23342345481446442 0.20139113063006933 0.12654280569608395 0.21178422049880166 0.21773043095604122 0.1958553268436943 0.11909456305151869 0.013693868182599545
-0.0438842159154371 0.03312248592773675 0.03034928292379562 0.07031703504499336 -0.0003592334984479526 -0.011575983101257613 -0.0883085375603944 0.041513304525605844
0.07303204387426376 -0.05063457041978836 -0.02384917624294758 0.00044449238339439034 -0.0359952449798584 -0.13855914771556854 0.01408863440155983 0.004994719289243221
0.02954319678246975 -0.1413695365190506 -0.010739533230662346 0.067652627825737 -0.04435974732041359 0.017987100407481194 -0.01816706173121929 -0.11142657697200775
00000000: 0000 00c0 b5e3 92bf 0000 0000 eb5c c13f
00000010: 0000 0080 8e35 a13f 0000 00c0 31ac b13f
00000020: 0000 0080 8339 b4bf 0000 0080 0bed b93f
00000030: 0000 0020 6e9b c13f 0000 0000 d735 bcbf
00000040: 0000 0020 8ea8 babf 0000 0060 de5b 90bf
00000050: 0000 0080 d25b b3bf 0000 00e0 8e38 ba3f
00000060: 0000 0060 468f 5cbf 0000 00a0 f41a c1bf
00000070: 0000 00e0 480f bfbf 0000 00c0 6853 933f
00000080: 0000 00c0 2d0a bf3f 0000 00e0 e9b1 bf3f
00000090: 0000 00e0 0ac8 b7bf 0000 0000 859c 6ebf
000000a0: 0000 0000 4bc6 b23f 0000 0080 68da b23f
000000b0: 0000 00a0 1ae5 a63f 0000 0020 ae2f 52bf
000000c0: 0000 0060 1446 bdbf 0000 0080 2401 c0bf
000000d0: 0000 00e0 c32c b33f 0000 0040 aa3b c13f
000000e0: 0000 0080 1f9f c03f 0000 00a0 3c85 993f
000000f0: 0000 00c0 c9d9 bc3f 0000 0000 b79e b33f
00000100: 0000 0080 2949 8b3f 0000 0000 5a0c c03f
00000110: 0000 0080 1a2d c0bf 0000 00c0 d61f c0bf
00000120: 0000 0040 c4c8 9cbf 0000 0060 be14 8fbf
00000130: 0000 00a0 a701 b53f 0000 0020 721f b7bf
00000140: 0000 00a0 c4a7 8d3f 0000 0000 8cb2 b83f
00000150: 0000 0000 2ff6 663f 0000 00a0 c084 903f
00000160: 0000 00a0 fbbd 973f 0000 0060 0035 b03f
00000170: 0000 0080 73cb 97bf 0000 0060 f3ac 9dbf
00000180: b848 9674 b363 ae3f ad89 8fe8 51f6 ba3f
00000190: b777 50fe 0788 a13f e71a b776 8df6 9d3f
000001a0: 6407 5382 6357 95bf b329 3f8b e278 c4bf
000001b0: 5e8f a4e5 c6e2 cd3f b8a2 9b70 391d d13f
000001c0: 7d5b 2f0a 5435 b43f 836f f872 c2e8 b9bf
000001d0: ffc5 a4f9 4236 aebf 0000 0040 d2cb 91bf
000001e0: 0000 0000 2a02 aebf 0000 0060 d15e a23f
000001f0: 0000 0060 1777 b8bf a49c 7792 8dde c3bf
00000200: c17e c49a 7353 79bf 659c 7389 5be8 773f
00000210: 4623 8bf4 b242 c23f 2b66 71ed b98c c83f
00000220: 61b9 66f6 d180 cc3f 0000 0020 b59c bfbf
00000230: 0000 0020 4047 ba3f 0000 0080 543a af3f
00000240: a80a 4757 4fc3 cc3f ff3d 7165 3dad b53f
00000250: 4c04 d00b b3e0 a4bf 0000 00c0 a8a0 bdbf
00000260: 0000 00a0 928f b63f 0000 0040 65fd acbf
00000270: dcb0 af73 a89e d03f 33f3 b805 3069 b33f
00000280: 879c 49ad d657 ca3f 24a2 3484 d8fd c73f
00000290: 5035 b93a a1e2 c83f c458 3d94 2b52 c93f
000002a0: 1865 ec2c 53f6 cd3f 3c1d 3830 3f1f c83f
000002b0: 99bd 2b7f 973b ba3f 0000 0060 90d7 adbf
000002c0: ca8d 7f5e 52fe ab3f 5e5d 4f7c 86dd ba3f
000002d0: afa6 7c8a 2820 d13f d63c d091 cc7f c43f
000002e0: 0180 9c8f b54f c73f 7419 bd1d 0a6b aa3f
000002f0: 3029 df08 e48b b6bf ce5f dc93 8e36 a13f
00000300: ca5d a3b7 ebdd c83f 41a2 267a 62c8 c93f
00000310: 5cca e723 2770 cb3f f3d4 3010 a77a b13f
00000320: 6d56 cbdc bc44 b2bf 31fb 4201 5850 9fbf
00000330: 375a 58fa 0707 bc3f dbc3 938a 6dba c53f
00000340: ab0c 14f4 578e 953f 930c 4c7e 07b1 ae3f
00000350: 44f8 6a16 d97e bd3f 0000 0000 b385 a6bf
00000360: 0000 0080 7bab adbf 0000 00e0 8b2d c2bf
00000370: 0000 00e0 a152 983f 4915 639c 1444 c1bf
00000380: c25f 1bed 5045 a7bf 9fb9 3a38 8992 88bf
00000390: b465 510c 6719 bd3f f10d ced9 a223 7b3f
000003a0: 7897 6bb8 6a36 c33f 0000 00c0 685b 97bf
000003b0: 0000 00a0 378a bdbf 0000 00c0 f17c 8cbf
000003c0: 5c38 8d36 84a6 b43f f616 c5c0 2cc2 c83f
000003d0: 8dbb 8092 a199 983f 0000 0040 6e43 bb3f
000003e0: 0000 00a0 bcee 6dbf 0000 0080 ad65 b4bf
000003f0: 6250 8c47 bccc c73f 3b08 c941 9821 d03f
00000400: 4063 204c 4ac0 803f b705 ff0c 9922 b13f
00000410: ddf0 6fe0 4589 c93f d4e6 ff25 1c3a 9d3f
00000420: 9029 dc84 b56d cf3f 07e1 2813 d406 d13f
00000430: 688c f492 f9fb c23f 0000 0000 6c16 a63f
00000440: b104 9489 125d a4bf 7d8d a532 94c1 96bf
00000450: 4c6d 056d 63bf ca3f b326 bf69 b19b b93f
00000460: 6821 0ec2 febf c53f ebf3 2504 b59f a4bf
00000470: 01be 9d65 ebe4 89bf 0f8f a7ae da43 a73f
00000480: 9be3 82a9 0210 c93f ea46 dc81 926e c73f
00000490: e49c aeb3 db81 b73f 0d22 5aa5 7cc6 b13f
000004a0: 5005 8c5a 7930 a43f 8705 2ee3 1191 b5bf
000004b0: 2f96 0281 5f65 b13f ac65 4a3e 723d cb3f
000004c0: 1408 bfe1 bbb1 893f 8a9c ea7a cc7d 86bf
000004d0: 5fdd 0fc5 7416 b4bf 0000 00e0 8aef c1bf
000004e0: 0000 00e0 abf1 74bf 0000 0080 61b7 c0bf
000004f0: 0000 0040 46d9 abbf 18b3 a5dc d65d 65bf
00000500: d98f e6d9 1ab8 b7bf c060 132e 9a8a c1bf
00000510: 6ce6 de13 9c8e a83f 86b8 dd6c fd90 c93f
00000520: b9f1 9c87 ff68 b03f 0000 0000 ad68 c0bf
00000530: 0000 0020 df13 b23f 0000 00a0 c617 c2bf
00000540: ef84 d010 257b ca3f 2747 e4c8 1870 bf3f
00000550: f00e 410f 2abf a73f 0000 00a0 c3e8 b43f
00000560: 0000 0060 8af8 a03f 0000 0080 5c88 573f
00000570: c3d7 98a0 a663 d13f 686a d31e 41fb c73f
00000580: 9a01 e66c 61e6 ba3f ac16 0dcb b760 a0bf
00000590: 3852 0ac8 9833 be3f 45af 8efe 9323 c13f
000005a0: 9f7b f926 c767 9e3f 9ba0 4f0a ff42 913f
000005b0: b7a6 524a d841 d23f 0000 00a0 85ee c1bf
000005c0: 1415 e34d 360d aa3f 3f9b f97e 748c b3bf
000005d0: 87c3 1d41 4a33 993f e206 a355 51a9 c23f
000005e0: c76f da0c ffc5 cc3f 02cb d8cc 0138 943f
000005f0: dd9f b44b cd00 bd3f f5c4 77b8 3003 a83f
00000600: 1162 f0bf c275 ce3f a322 14d0 feaa cc3f
00000610: 70f9 c771 7deb a83f 8d50 f6af cb35 a53f
00000620: 2abd 9160 72f9 c5bf c6b4 4032 d625 8d3f
00000630: bfd1 908c eca1 b33f 8975 07fa c059 c73f
00000640: 2002 0eb7 275d 723f 7843 8f1a b69d bfbf
00000650: ae38 5486 2a8f b03f 0000 0020 138b bcbf
00000660: 0000 00c0 9579 b13f 0000 0080 2f0f bcbf
00000670: 0000 0060 11a5 c1bf dcef e6c8 1ea5 babf
00000680: 454c bb21 9295 91bf 64e7 907a 5bb3 a03f
00000690: a491 8301 6c99 ce3f b816 68c8 7c50 c53f
000006a0: d4af 418c f4d1 a83f 0000 00c0 3bab b53f
000006b0: 0000 00a0 c078 a43f 0000 0020 0100 833f
000006c0: 3841 b7d7 da00 c23f 4f55 8ee2 d26e c43f
000006d0: cc44 5651 b06a b83f 0000 0020 8d23 c0bf
000006e0: 0000 00e0 6b44 b6bf 0000 00c0 89c3 abbf
000006f0: 65ad 60ae b1ce 59bf 5c14 bcd2 24f2 ce3f
00000700: 1e13 46dc d1e0 cd3f b95b e13f 2fc7 c93f
00000710: 261f 01fe 8d32 c03f 51f4 6cce be1b cb3f
00000720: 666c 263c 97de cb3f 6341 c58f c911 c93f
00000730: fa0b 7035 fb7c be3f 0000 00e0 870b 8c3f
00000740: 1db6 55f0 fd77 a6bf 77c9 a433 6ef5 a03f
00000750: ee81 75e6 e113 9f3f e3b3 de15 4c00 b23f
00000760: 2f53 a120 f08a 37bf 792b b626 26b5 87bf
00000770: 1b8c c768 639b b6bf 8d9e 925a 3b41 a53f
00000780: 0000 0060 3ab2 b23f 0000 0040 c6ec a9bf
00000790: 0000 0020 eb6b 98bf 0000 0040 5821 3d3f
000007a0: 0000 0000 f86d a2bf 0000 0060 4ebc c1bf
000007b0: 0000 0080 80da 8c3f 0000 00c0 5775 743f
000007c0: 0000 0060 9240 9e3f 0000 00a0 6518 c2bf
000007d0: 0000 00c0 9bfe 85bf 0000 00c0 ae51 b13f
000007e0: 0000 0020 52b6 a6bf 0000 00e0 356b 923f
000007f0: 0000 00e0 629a 92bf 0000 00c0 7386 bcbf

decoder.0.bias f8 [16]
0.15607817587091927 0.11066730688253536 0.2481507628937824 -0.03250459713980861 0.013104102574288845 0.12705701261405578 0.1650734200043071 -0.1376456767320633
-0.04402310545412032 -0.09824558347463608 0.20749643136440535 -0.016257421370557624 0.20808401632380655 -0.10659348633623558 0.07046132876177494 -0.02632069720340923
00000000: 5612 7ea2 5efa c33f a900 cc4f b154 bc3f
00000010: 7699 8d79 67c3 cf3f c5c9 5e4b 71a4 a0bf
00000020: 0000 00e0 52d6 8a3f 70d1 f378 6743 c03f
00000030: 57be 2d36 2021 c53f 0000 00a0 5f9e c1bf
00000040: 8a3a 634c 328a a6bf 0000 0060 9f26 b9bf
00000050: 1d98 5f39 3e8f ca3f 1d54 6a14 c9a5 90bf
00000060: 9b2d 773e 7fa2 ca3f 8adf c7f1 b549 bbbf
00000070: 7a1e aaee c009 b23f 5e47 c916 d0f3 9abf

decoder.2.weight f8 [16, 6, 3]
-0.08752042261943896 -0.20904701406992512 -0.20915740268119143 0.022800139364302873 -0.08098008625589953 -0.2568006120682658 -0.037359181926570686 -0.09039909254111676
-0.06091461474029591 -0.16876649688761675 -0.304699548337813 -0.08691523552423663 -0.2470918973606743 -0.0029621166047471897 -0.09274495367642097 -0.0759279709895048
-0.02893137515149449 -0.13521550208877597 0.16003917643201612 0.21253142529736932 -0.24292279848611725 -0.15562445826832658 0.006708598526813734 0.21648684248078848
-0.2504229928737581 -0.04318135200518441 0.18932203337288742 -0.06744337406676434 0.11508669084918183 0.19683104605785137 -0.1826233796703739 0.1061147544526214
-0.08635000010537443 -0.0206317237403858 0.2153383399102539 0.21587079271863344 0.0752999464772176 -0.2635532082968003 -0.10332898423515484 -0.2745733138716413
-0.27843238516005075 -0.3368592453781012 0.11520818297703225 -0.28876083171303873 -0.0007008756388654725 -0.0756962889397886 -0.11212624375172027 -0.15308973220701586
-0.256398297526076 -0.26669947313209585 -0.20810972187663965 -0.07376710910101061 0.0718938692524291 -0.05624419670280697 0.03715601563453674 0.09444768515707787
-0.038530173396285214 -0.0013538410421460867 -0.016700032583149813 0.07715890439490862 0.10994356870651245 0.1944604876045236 -0.06609238708759095 0.11534510552883148
-0.05503448309328628 0.015861139677606665 0.17218920588493347 0.1481952532099415 0.20951831046951205 0.04893704131245613 -0.21533794684209434 0.20996616684685135
0.1854822188615799 0.07421427965164185 -0.2061384618282318 -0.1595921367406845 0.09101797640323639 0.13512256741523743 -0.08226870745420456 -0.10498159378767014
0.20196433365345 0.04711272940039635 0.20284181833267212 0.18125011026859283 0.08977587521076202 0.10644108057022095 -0.2035568654537201 -0.10686235129833221
-0.06521011143922806 -0.17332841455936432 0.14350636376923984 0.11145243036967485 -0.07497479672133511 -0.15098174821055574 0.17436047110748637 0.05240258719776296
-0.08532049845570387 -0.06302120496672463 -0.23528642897579105 0.0749650299401309 0.003130539823574841 0.10824958881530207 0.06035904954911401 0.043195613154486674
-0.12129044570835208 -0.007398758565031198 0.007896759973857422 0.21324613498704995 0.09118783026855527 -0.13842433807869414 -0.18796168225048185 -0.15341202222881528
-0.2649406511887875 0.032669535568060834 -0.3209027825006381 -0.19600257398999768 -0.3179137012038723 -0.12447576396266918 -0.2754316571823617 -0.15260572191934987
-0.2174702951592997 0.00592289753354812 -0.1113030059261437 -0.06669640523230161 -0.1997016907663623 -0.26873047918555426 -0.05073525384068489 -0.12078769505023956
-0.056959331035614014 -0.2150125354528427 -0.0969269648194313 -0.013758613727986813 -0.20615507662296295 0.1068093553185463 -0.06739463657140732 -0.0411812923848629
-0.03921126574277878 0.056642524898052216 -0.1375032216310501 -0.006570609286427498 -0.18431255221366882 0.1106528714299202 0.20949503779411316 0.05676725506782532
-0.2705405739161775 -0.34878686186527963 -0.14738471889697172 -0.008050595452004235 0.04963877675234114 -0.22871648786080928 -0.20830106747052035 0.01189847569194591
-0.10265584446580694 -0.20561603526339023 -0.326221491168981 -0.026573419818098742 -0.1744368691473718 -0.33282393672523414 -0.20876521205717385 -0.26157057407854206
0.07057835954122535 -0.35452363719375035 0.22474683821201324 0.03170069679617882 -0.016133954748511314 -0.16650843620300293 -0.04002034291625023 -0.16309021413326263
0.12837070226669312 -0.13843604922294617 -0.11541234701871872 -0.17769251763820648 -0.11375942826271057 0.21822589635849 0.20845474302768707 0.18932442367076874
0.05456108972430229 0.20291630923748016 0.05945197865366936 -0.22787480056285858 -0.34743782608197915 0.02757268196360527 0.007209774200727164 -0.18408061941685253
-0.019867827065926234 -0.2282244180679614 0.02734496263341311 -0.23349687360887417 -0.061882549838140115 -0.25887791655592207 -0.24314219374338758 -0.18395282448607417
-0.16166505872377188 0.01732002775600923 -0.14638298016275608 0.02237318338845355 0.06800507119544526 -0.15078307438688543 -0.17786519495585978 -0.058717082136960565
-0.219604836151059 -0.21578360002548394 0.012285241902407835 -0.1855398208563206 0.05657030628653143 -0.083966948615215 -0.19681539006302365 -0.12006916882075973
-0.19170069141902898 -0.24941362533755787 0.11920772263662324 -0.21383576507360447 -0.29327252831368406 -0.159599891926717 -0.0683254070967544 -0.078336264716349
-0.00494256820754861 -0.13222655822261695 0.05432875235493015 0.008482628463685266 -0.08040253533040247 -0.2110856322557605 -0.3126007419816901 -0.11905637256539049
-0.272615460452079 -0.23337454519433762 -0.15548604261188106 0.09547210364969562 -0.2897250143484703 0.09522421482939723 -0.028982367580802755 -0.3851797840014656
-0.222432003707498 -0.038873104644609024 0.052509895367905145 0.22827569898262492 -0.17353293299674988 0.07622879564718224 0.18914660224878938 0.1302720606327057
-0.23424414304101862 0.04420105248123266 -0.08284586668014526 0.028585895098728418 0.01985770977329462 0.12164384126663208 -0.2275536894033427 -0.12056870255334476
-0.08307840675115585 0.045495892844942994 0.19041451735626688 -0.06429743766784668 -0.18750430715155636 -0.2241229553107376 -0.18206606599019032 -0.10714874893638554
00000000: 5af1 e108 bd67 b6bf 2dde 6074 0dc2 cabf
00000010: d4b2 1d76 abc5 cabf 73db a773 eb58 973f
00000020: 3caa 1866 1cbb b4bf 5543 9bd5 6b6f d0bf
00000030: 4aed 2821 be20 a3bf 475b 0d1a 6524 b7bf
00000040: bfe6 504c 3330 afbf 767a 65fc 239a c5bf
00000050: 54e1 cd88 3280 d3bf b0c9 19ae 1340 b6bf
00000060: cda5 2211 b5a0 cfbf ceee 373e 0244 68bf
00000070: 76c5 e81e 22be b7bf 3a66 40f8 0370 b3bf
00000080: a778 6ab8 2fa0 9dbf f016 b1d7 bd4e c1bf
00000090: 2759 6dea 297c c43f c721 83d0 3a34 cb3f
000000a0: 9eaf 7921 1818 cfbf d72e 5c93 80eb c3bf
000000b0: 9700 65b4 797a 7b3f b211 3c42 d7b5 cb3f
000000c0: 75ca 2329 ee06 d0bf d793 51bd dd1b a6bf
000000d0: c3d7 df52 b43b c83f 8eda f20d f843 b1bf
000000e0: ecef 6645 5276 bd3f e3f5 d37c c231 c93f
000000f0: e4a9 95f1 3360 c7bf 9740 ff27 562a bb3f
00000100: 6951 769a 081b b6bf 2077 e68a 7b20 95bf
00000110: 05a7 beeb 3490 cb3f 19ae 7175 a7a1 cb3f
00000120: 789c 8277 db46 b33f 2200 9946 0ede d0bf
00000130: f3d5 04b0 c473 babf f8b6 dbf2 9b92 d1bf
00000140: 6c38 1a11 d6d1 d1bf 8c44 9014 1a8f d5bf
00000150: 2631 1e92 487e bd3f 4fb0 24b6 0e7b d2bf
00000160: cd5c 47f9 5ef7 46bf 15ca 6cfd d460 b3bf
00000170: cddc ef35 4eb4 bcbf 2d5d 97c0 7198 c3bf
00000180: 06f9 a767 d468 d0bf 3a9e bdaa 9a11 d1bf
00000190: 1f4c b8e0 56a3 cabf 62fb 1bb9 66e2 b2bf
000001a0: 6eda 38f9 a267 b23f 4b50 db12 0acc acbf
000001b0: 0000 0000 1d06 a33f ddbb ee36 b92d b83f
000001c0: d6e1 4a15 3aba a3bf 0000 00c0 6b2e 56bf
000001d0: 29a5 2537 d019 91bf a3a8 f89a afc0 b33f
000001e0: 0000 0000 4325 bc3f 0c15 50cd 14e4 c83f
000001f0: 5347 0e41 6eeb b0bf 0000 00c0 4187 bd3f
00000200: 7e6b 13d2 7a2d acbf 313b c510 e73d 903f
00000210: 0000 00c0 4b0a c63f 07c5 fae2 0ff8 c23f
00000220: f39a b0f9 7ed1 ca3f 0000 00a0 460e a93f
00000230: 7e25 a39f 3190 cbbf 99d5 efdd 2be0 ca3f
00000240: 0000 00a0 e1bd c73f 0000 0000 b5ff b23f
00000250: 0000 00c0 be62 cabf 0000 00e0 836d c4bf
00000260: 0000 0040 f44c b73f 0000 0040 b24b c13f
00000270: 0000 00e0 8f0f b5bf 0000 00e0 12e0 babf
00000280: 0000 00a0 f7d9 c93f 0000 00e0 281f a83f
00000290: 0000 0080 b8f6 c93f 0000 0020 3433 c73f
000002a0: 0000 0040 8dfb b63f 0000 0000 b93f bb3f
000002b0: 0000 00c0 260e cabf 0000 00c0 545b bbbf
000002c0: 0000 0020 9cb1 b0bf 0000 0020 a02f c6bf
000002d0: db10 94a1 6a5e c23f 3d5a 7f7f 2588 bc3f
000002e0: f83f f15b 8c31 b3bf 27ba 6db3 5e53 c3bf
000002f0: 5e97 8fa4 7151 c63f e6f8 7a0c 83d4 aa3f
00000300: cfb0 8b6e 90d7 b5bf 4b5e 495e 2822 b0bf
00000310: 1a63 d29e dd1d cebf fabf ef7f e830 b33f
00000320: 4e90 27c5 37a5 693f 3d65 c4bb 3eb6 bb3f
00000330: 6584 a99f 61e7 ae3f 498b a843 bc1d a63f
00000340: 7d77 a201 e40c bfbf c5be 1521 294e 7ebf
00000350: 4419 a82e 2d2c 803f a546 e23b a64b cb3f
00000360: d9f0 cbec 1558 b73f 345c 8282 e3b7 c1bf
00000370: 0d5f 15df 200f c8bf 369b 2451 01a3 c3bf
00000380: 8027 0fa2 c9f4 d0bf be3f aeb5 0fba a03f
00000390: f447 02d3 ab89 d4bf 9d03 9cc2 9c16 c9bf
000003a0: 9abd 67b5 b258 d4bf 6c41 5dc7 a4dd bfbf
000003b0: a967 f819 aca0 d1bf edbc 6994 9588 c3bf
000003c0: afc3 c70e 11d6 cbbf f130 44b3 9b42 783f
000003d0: 4e37 6692 5a7e bcbf 92c6 3bff 0313 b1bf
000003e0: 3a12 6633 d38f c9bf 5495 e252 e132 d1bf
000003f0: 0000 00a0 f8f9 a9bf 0000 0040 f1eb bebf
00000400: 0000 0000 c629 adbf 0000 00e0 8785 cbbf
00000410: 0000 00a0 34d0 b8bf 0000 00e0 792d 8cbf
00000420: 0000 0020 4a63 cabf 0000 00a0 db57 bb3f
00000430: 0000 0060 c640 b1bf 0000 00e0 b615 a5bf
00000440: 0000 00c0 7f13 a4bf 0000 00c0 3f00 ad3f
00000450: 0000 00a0 b499 c1bf 0000 0080 c8e9 7abf
00000460: 0000 00c0 8d97 c7bf 0000 0020 bf53 bc3f
00000470: 0000 00c0 bbd0 ca3f 0000 0000 9910 ad3f
00000480: e481 4d69 8950 d1bf 1818 3f21 8652 d6bf
00000490: d9db cba1 80dd c2bf 71fe 6fa1 d47c 80bf
000004a0: 5a8d 87f5 406a a93f 2a86 b5f5 9446 cdbf
000004b0: c0fe 4000 9ca9 cabf 41d6 c05f 3a5e 883f
000004c0: bc51 b946 a747 babf 18a6 7e51 a051 cabf
000004d0: 1aae f41a d0e0 d4bf 5017 3f04 1036 9bbf
000004e0: 1d30 1a84 f253 c6bf 08e5 e3c4 fc4c d5bf
000004f0: 16fe 2987 d1b8 cabf a3d9 5081 92bd d0bf
00000500: b6ee 0862 6c11 b23f fcfd d9e8 83b0 d6bf
00000510: 0000 0020 81c4 cc3f 0000 00e0 123b a03f
00000520: 0000 0060 6b85 90bf 0000 0000 2650 c5bf
00000530: 0000 00e0 8b7d a4bf 0000 00e0 23e0 c4bf
00000540: 0000 0080 736e c03f 0000 00c0 45b8 c1bf
00000550: 0000 00e0 a98b bdbf 0000 00e0 a0be c6bf
00000560: 0000 0080 561f bdbf 0000 0080 d3ee cb3f
00000570: 0000 0020 a5ae ca3f 0000 0060 c83b c83f
00000580: 0000 0060 6eef ab3f 0000 0060 29f9 c93f
00000590: 0000 0060 7d70 ae3f 0000 0060 002b cdbf
000005a0: 8296 1add 6b3c d6bf 79d0 2f5d 033c 9c3f
000005b0: 456c 7506 ff87 7d3f d984 1c28 f48f c7bf
000005c0: b683 f64d 3b58 94bf 3a11 e02d 7536 cdbf
000005d0: db26 e260 5100 9c3f 6c26 efbd 39e3 cdbf
000005e0: ffec 7ecf 11af afbf 54ea 50ae 7491 d0bf
000005f0: eae8 338d 481f cfbf 8f56 9622 c48b c7bf
00000600: 43f0 0fce 70b1 c4bf 748a 1c63 57bc 913f
00000610: 18ba 3e70 adbc c2bf cbe0 d7eb fee8 963f
00000620: 7520 bfc4 c768 b13f d818 a41a dc4c c3bf
00000630: 764e b765 49c4 c6bf 4d55 fd56 2a10 aebf
00000640: 61f7 a7e2 021c ccbf 4db1 8f08 cc9e cbbf
00000650: 2ae8 8d41 0129 893f 1080 57d3 c4bf c7bf
00000660: 39c8 d97e c8f6 ac3f 7e4c 3fa2 db7e b5bf
00000670: 21c8 d527 3f31 c9bf 2bd3 5761 dabc bebf
00000680: ebf5 21f4 a589 c8bf b134 0022 c9ec cfbf
00000690: dea9 27b6 6584 be3f 1067 da68 f85e cbbf
000006a0: 5b0a 7b23 fac4 d2bf f19b 22ee c46d c4bf
000006b0: 0969 f71c c67d b1bf 1e2a 0c6f d80d b4bf
000006c0: 2e69 f48c a83e 74bf a748 9dc3 ccec c0bf
000006d0: ec9d 316d fad0 ab3f aa67 af1e 575f 813f
000006e0: bb72 c2b3 4295 b4bf 24d4 989f da04 cbbf
000006f0: 8011 e18a a601 d4bf 797a 8c7a 7a7a bebf
00000700: 6da4 c11d 8872 d1bf 0f0e aa93 37df cdbf
00000710: a551 0076 f7e6 c3bf 6913 db1a dc70 b83f
00000720: 8a6d 5dc9 da8a d2bf 17c3 7a38 9d60 b83f
00000730: 8248 aec3 8dad 9dbf 0277 d71b c9a6 d8bf
00000740: 46f4 c0e2 a678 ccbf 7000 49f2 2ce7 a3bf
00000750: 2ba0 a4b6 93e2 aa3f 890b cd5a 2338 cd3f
00000760: 0000 00c0 5336 c6bf fa6f 51f8 ba83 b33f
00000770: da6e 67b3 f435 c83f 0000 0040 c1ac c03f
00000780: 2503 d24a b6fb cdbf e51a b635 85a1 a63f
00000790: 0000 0000 6335 b5bf 59bf 4df2 9e45 9d3f
000007a0: 47f4 3258 9455 943f 0000 0000 0d24 bf3f
000007b0: de26 09b3 7a20 cdbf ba44 632a 97dd bebf
000007c0: 0000 0060 a044 b5bf a921 bed7 3c4b a73f
000007d0: 0349 5dbe 805f c83f 0000 0000 cc75 b0bf
000007e0: 029c 8921 2400 c8bf a1d6 ab9d 0fb0 ccbf
000007f0: cad2 91db f04d c7bf 0c35 7db4 196e bbbf

decoder.2.bias f8 [6]
0.02631209611399593 -0.10625215316294706 0.10471919384375993 -0.2418480015832069 -0.13554144779887745 0.10846575807487623
00000000: 30fe 31e1 8ef1 9a3f 94e5 f652 5733 bbbf
00000010: ff8a d288 e0ce ba3f ee8f b314 e0f4 cebf
00000020: d03a c612 6c59 c1bf 6fdd aa73 69c4 bb3f
