autoencoder_lstm.pth (torch, 10476 bytes, 8 tensors)

encoder.weight_ih_l0 f8 [32, 6]
-0.07532372039615598 -0.4025650380438349 0.6397171786969451 -0.3548980765561992 0.4175581271483772 -0.5881382152743122 0.35862455395093734 -0.2757884389880883
0.20072104144768257 -0.061315700424523924 0.3202855715570488 -0.31614755848702725 -0.4388313748374606 -0.5444402881209157 -0.15741168851930326 -0.2688748015575589
0.14113599988941525 0.08125954371828947 0.3783068470160828 -0.08926363383296593 0.01975031276109325 0.003991324760072033 0.1825158659503046 -0.3735075098596195
-0.41033871698803215 -0.23219718560127206 0.05886291763463082 -0.4800291799788219 0.29208932074196337 -0.45920227479083847 0.0030189106995918585 0.1108408984053497
-0.017617751287244503 -0.33718093435094587 0.4576897652118807 -0.32781999605102247 0.5022285595472524 -0.18406481499243324 0.10377561191536702 -0.34568082131587535
0.4313393233490839 -0.440823112509462 0.4325278368152712 -0.045790799837182254 0.08987259773399547 0.39541061786692905 0.45356614486495755 -0.04314726038251035
0.22822133561414315 -0.6804597758359803 0.30903515352326255 -0.4024616102396841 0.11342567505658704 -0.2950932744545889 0.1448652637963476 -0.35858193165911306
0.4529611690338575 -0.0992473512480085 -0.01508835967966511 -0.5918360509247307 -0.06858393885473865 0.042792836121540855 -0.3185377268064656 -0.1602620478024515
0.17444099406898889 -0.525580283352951 0.6689549353591943 -0.6018210219229533 0.6085741949523128 -0.4567105132167676 0.02956785729980369 0.018597297033056254
-0.4607762681833344 -0.1499843653313143 -0.18668588128944769 -0.11442769771688281 0.1732683115295083 -0.31515119036994027 0.2518560348944827 0.08732481733744077
0.12852874262534691 0.08193440620975652 0.03038835807448663 -0.19546181670669602 0.1932819030299265 -0.03370092296557281 0.5895135783258246 -0.24901761467252462
0.29020471051268243 0.14753816943285566 0.25829246927220273 -0.4955891011018908 0.419316647423561 0.474606090512911 0.24908105451837606 0.017847102010809596
0.04878098521909367 -0.2732040979693141 0.653604069856389 -0.20812073554741775 0.6842297427747884 -0.0033524075439464495 0.45216556333432567 -0.17680513044881974
0.6079243292576093 -0.24261685755902102 0.4490875398243154 -0.5698534983613399 0.5367833048010058 0.30275673191896346 0.20037465906019614 0.5369336238938632
-0.18221418592992192 0.23801649655655985 -0.4932937066984333 0.6506220429369687 -0.45595006995071496 0.34964148439459763 -0.3915640118651318 -0.22984232510140498
0.5621269214054804 0.1627050660070216 -0.15682743619251577 0.3373077389391075 -0.08351586311790991 0.046238091021618744 0.06136247807173622 -0.4336130590401076
0.2850524140186704 -0.250850812733938 0.6741385672400363 -0.22126001498032663 0.7201558719569019 -0.38096821232906053 0.09100138890009304 0.17286734812589022
0.6692803829007742 -0.32385996658844135 0.12985386911343963 -0.05914340245103083 0.31433416791647967 0.003556735972333461 0.528370904148581 -0.034918608492168116
0.5109552077016606 -0.24299441264526767 0.7214957023392795 -0.27122374894998813 0.0681181335334307 -0.1734769499332396 0.08087398069437482 -0.22503240003629696
0.009187676191991456 -0.34163820382339366 0.22728016277038685 -0.02085937524296075 -0.20566124188997087 -0.5328336376364065 -0.12104606359167569 -0.47743693290179534
0.415931100247608 -0.25144393695495093 0.5272192426896095 -0.5571175723721229 0.256886769544621 -0.02371331185935757 0.2736695083589445 -0.20477065167906094
-0.21913913640663296 -0.31862853469106284 0.2869245261553125 -0.5740492539964968 0.3181229006304434 -0.5353209626420822 -0.04004896009145181 0.0486566980675184
0.29861032906394164 -0.3288728900582248 0.07823810104550488 0.06807969499272633 0.7545768766604668 -0.13314736342119424 0.42639494252522986 0.2302350298397559
0.3919388226942686 -0.15983846238455457 0.06002913652679659 0.024947166193453853 0.1292809825218295 0.012524901923952976 0.5543883758370093 -0.07484355190495627
00000000: f8eb b653 6a48 b3bf 3252 3a26 a0c3 d9bf
00000010: 262b 2629 9078 e43f 3238 0e6c a6b6 d6bf
00000020: a700 12b9 45b9 da3f fa30 043c 07d2 e2bf
00000030: 5fc2 b066 b4f3 d63f 1566 848d 84a6 d1bf
00000040: 8984 5122 3ab1 c93f ddfc 1b80 c564 afbf
00000050: ddf6 cd0d 8f7f d43f b05e 1af8 c23b d4bf
00000060: d8ad d830 d015 dcbf 3355 030a 0e6c e1bf
00000070: f669 19f3 1026 c4bf 0920 daa7 3e35 d1bf
00000080: 271a e893 be10 c23f 1008 c2ea 6ccd b43f
00000090: 675d f2eb 2d36 d83f 9ce2 0844 fbd9 b6bf
000000a0: 9423 940d 6d39 943f 0bdf fe14 3559 703f
000000b0: 9afb a00d ae5c c73f e113 ea0a 8ce7 d7bf
000000c0: b4c1 6f52 fd42 dabf f6ba 302b a3b8 cdbf
000000d0: f231 60c4 4723 ae3f 8c9f 484f ccb8 debf
000000e0: de3e 0668 97b1 d23f e16d 1ef0 9163 ddbf
000000f0: 6565 2d57 1dbb 683f ffd1 b5b1 1160 bc3f
00000100: 1b5d 6e46 630a 92bf 6ecf 7757 5f94 d5bf
00000110: ef21 5303 ca4a dd3f 39e5 80b8 00fb d4bf
00000120: a6ec cba0 4112 e03f 2d4f 5e94 6f8f c7bf
00000130: 0284 4cdb 0991 ba3f 9dfd 9973 a21f d6bf
00000140: 61d6 d03f 109b db3f ed23 e324 7236 dcbf
00000150: 38cc 6e3c 89ae db3f 5f4a 8447 e471 a7bf
00000160: 88f6 12fc e301 b73f fdb1 0e56 684e d93f
00000170: 7d23 b14b 3a07 dd3f 6c7f 82d0 6517 a6bf
00000180: e028 5b52 5b36 cd3f 58b0 6e94 53c6 e5bf
00000190: 9597 6c61 3bc7 d33f 0cff 7757 eec1 d9bf
000001a0: 460f e50c 7709 bd3f 2854 c3e6 cee2 d2bf
000001b0: fd75 2ae9 f18a c23f b964 5aa1 01f3 d6bf
000001c0: 24ef d6d7 50fd dc3f 7d27 d33f 4668 b9bf
000001d0: e7dd fe5a a5e6 8ebf a618 6a28 52f0 e2bf
000001e0: 9e76 698e b78e b1bf 434b 4a4f f1e8 a53f
000001f0: cd42 cb0f ec62 d4bf 8afe 0c7f 7783 c4bf
00000200: 2ad4 4d1e 1554 c63f fc8b 0dbe 8dd1 e0bf
00000210: 73b2 3b2e 1468 e53f 4f8a e628 1e42 e3bf
00000220: 8f4f 1097 7079 e33f 5a58 80bb be3a ddbf
00000230: f938 7650 0947 9e3f a532 347a 2b0b 933f
00000240: c2b3 a7be 5b7d ddbf 1b31 010c b032 c3bf
00000250: caad 61ad 52e5 c7bf 9359 7333 224b bdbf
00000260: 85e7 b9f1 a72d c63f 9dcc fbe5 6f2b d4bf
00000270: ac02 4bc6 681e d03f 6eee 9752 eb5a b63f
00000280: b6ff 153d a173 c03f a58c 163b a7f9 b43f
00000290: ccac 6f30 201e 9f3f e39d 2f8f e404 c9bf
000002a0: eb09 361e 76bd c83f 70dc f653 3f41 a1bf
000002b0: 9fa2 6e94 4bdd e23f fdbd 9227 cfdf cfbf
000002c0: fd03 33c7 b692 d23f ef1a 50de 87e2 c23f
000002d0: c6f0 1423 dd87 d03f 6a25 5f59 bbb7 dfbf
000002e0: 4c90 d67d 15d6 da3f 4810 4f39 f25f de3f
000002f0: c5d4 9a53 e3e1 cf3f 55f5 dbbd 8246 923f
00000300: 7e86 5d40 d2f9 a83f 1e54 7a0a 2d7c d1bf
00000310: 221a 1215 53ea e43f 01d7 6544 b3a3 cabf
00000320: f761 05c6 35e5 e53f 8a9e 7318 8276 6bbf
00000330: 7e7e b9d4 47f0 dc3f 0477 85ee 8ca1 c6bf
00000340: 5855 13b9 1d74 e33f fe4e 56b6 110e cfbf
00000350: be89 25aa d9bd dc3f 0024 5f67 3d3c e2bf
00000360: 8217 652e 542d e13f 2417 8fc5 5d60 d33f
00000370: 2c2b ce77 e0a5 c93f a9e6 576c 8f2e e13f
00000380: f5d7 b760 cb52 c7bf cf38 4f16 5377 ce3f
00000390: ace9 65c4 1f92 dfbf 5612 8f51 e5d1 e43f
000003a0: de05 c333 492e ddbf 242e 33ad 8660 d63f
000003b0: 4015 5080 620f d9bf 7f08 c62a 796b cdbf
000003c0: 0b68 f498 f1fc e13f 1364 b204 85d3 c43f
000003d0: 22fc c7e2 eb12 c4bf 5498 db32 7396 d53f
000003e0: 07e4 c9ac 4b61 b5bf a8de 88e1 84ac a73f
000003f0: 2f0c 0a19 e76a af3f a687 ecfc 50c0 dbbf
00000400: 61c9 f67a 4c3e d23f 9581 3791 f00d d0bf
00000410: 8795 680b 8b92 e53f 6b61 2088 3f52 ccbf
00000420: e478 c253 840b e73f a435 317f c861 d8bf
00000430: 0a6b 37f5 dd4b b73f e89b 5f6b 8420 c63f
00000440: cb38 8db1 be6a e53f d7c8 3e27 1fba d4bf
00000450: fff6 8c34 0d9f c03f b749 9a46 0b48 aebf
00000460: a3dd cd0e 0d1e d43f 6d50 d015 0423 6d3f
00000470: 433c 2f19 6ae8 e03f 12cb fd12 dae0 a1bf
00000480: aa95 59bc be59 e03f 2009 b6df 701a cfbf
00000490: 630e b827 7e16 e73f aee0 e8da ba5b d1bf
000004a0: c367 caa3 3070 b13f 205b 4921 7e34 c6bf
000004b0: 32ff 2d3e 28b4 b43f db1f 5997 dccd ccbf
000004c0: c0ae 2a06 fdd0 823f 0515 1f7c 66dd d5bf
000004d0: 5f6e 1031 8417 cd3f d91c eff9 285c 95bf
000004e0: 1270 fc89 1b53 cabf 346d fb20 f90c e1bf
000004f0: 808f 6ff4 dffc bebf f8ce 2da3 538e debf
00000500: 3ffa 3c7a 9d9e da3f 9eef 7f4f a817 d0bf
00000510: 718f a5e3 fade e03f 90af 2b3b e8d3 e1bf
00000520: f607 7e34 d570 d03f c7c4 a96b 4d48 98bf
00000530: a519 141d cd83 d13f c432 12ba ec35 cabf
00000540: 24f1 1150 c00c ccbf 5783 04f0 6864 d4bf
00000550: a678 10b0 f85c d23f 2ca9 868a 9c5e e2bf
00000560: 1940 9427 205c d43f c126 6d6d 5921 e1bf
00000570: c8c6 a91b 4c81 a4bf 53d8 dcdd 87e9 a83f
00000580: 93f4 647f 6e1c d33f 3dd4 d5e0 400c d5bf
00000590: 70a5 4a85 6907 b43f 35f2 83bf ab6d b13f
000005a0: 8e62 f267 7e25 e83f f3a8 b809 f90a c1bf
000005b0: a5d7 5403 0e4a db3f 3e15 c769 5778 cd3f
000005c0: cc4b 6092 8615 d93f c8d3 4a34 9675 c4bf
000005d0: b821 6194 23bc ae3f 270d b7fb bf8b 993f
000005e0: 5887 f67b 478c c03f 511f 31e1 a7a6 893f
000005f0: 9314 f0b0 8cbd e13f 578e bf6f f228 b3bf

encoder.weight_hh_l0 f8 [32, 8]
-0.14591911849290648 0.4632493896566605 0.05558367495249813 0.02153717850300584 -0.23199154134780817 0.41641180472890527 0.34184630307049985 0.24423395922741534
0.3469366523644524 0.03250878659229989 -0.16973594075104087 -0.19518773458945643 0.28881697708667037 0.3721287015550354 -0.11292230217735459 0.3186972746057508
0.039481870088890855 0.20336187520459048 0.06506679120620563 0.18491460486812802 0.17892752226479766 -0.05716616237447633 0.2573653911910301 -0.08836855905793334
-0.23349677851029976 0.1504765407758939 -0.3968516152575823 -0.42539368785369375 -0.20833219084729043 0.4820428720127563 0.0786231467181649 -0.013325764775303695
-0.10598633859269256 0.09344094033806491 0.14250434697916523 0.19911733890263666 -0.40963906224161367 0.37109390235920975 -0.18191366591474314 0.24397701822904394
-0.04732727130770728 0.1268599610260601 -0.07447057797871103 0.0505345270417012 -0.2621648748552897 -0.08269284120117729 0.013297340950889351 0.29197745854554524
-0.0595034481379565 0.30665828852880017 0.02183601873207698 0.1359046050019098 -0.043585606580641686 -0.06238664923766715 0.16056893771526612 0.39993104741609087
0.4115872890768405 0.0658152828145442 -0.18146973646871398 -0.19340145788432297 -0.33490807999548716 0.26344344644881473 -0.13356363090002057 0.3513319346147849
0.49174327858122613 -0.1186474061868692 0.05900509651418256 -0.5009729459152459 0.09623589536249141 0.048965909042094885 0.14986868628909428 -0.22604571246182673
0.008332350189708336 0.24563439500049022 0.04190044341974481 -0.08575289217807723 0.061993789705893185 0.3710355120809344 0.04850570736918515 -0.093254295788874
0.11811803667532814 0.1394346025772893 -0.0455546395729745 0.16264244754043686 0.3238071985886087 -0.1177716137935659 -0.14715239352837944 -0.266076959229579
0.23049661575403763 0.27164949224131885 -0.24965578034378166 0.20097415211206576 -0.4183644786054755 0.14687200853403284 0.363527075738776 0.1823697636591204
-0.1814528002547345 0.13683198071309585 -0.16206707449017574 -0.19721808523199416 0.1364651827636763 0.5537466773777854 0.2189991964178274 -0.308520950018976
0.15620721837213855 0.24529101010457988 0.11020555477526554 0.10933662035063418 -0.3639931091704049 0.3132288607394734 0.28616252708739887 0.2054302618306901
0.4460263175448968 0.29338630383564557 -0.2719764798428862 -0.006512243969315237 -0.3245076903536549 0.37997616241933485 -0.017444795035102198 0.310329715974428
0.33774118775625306 0.31481924334251354 0.24192832460148223 -0.15438501788459538 -0.06321794568388735 -0.0037391686716068055 0.18557848258388748 -0.25013557157385047
0.22578768990474365 0.12260397847390309 -0.10986242303221545 -6.205136688453205e-05 0.163425065739375 0.06526882233714577 -0.030179565197083834 -0.13336485419938227
-0.1228562865588288 0.05291333361805934 -0.017960940818408176 0.057837698580733586 0.23338048323212565 0.01165213132910281 -0.47619773867748044 -0.032897988118522584
0.060997424963537196 -0.12373964565483375 -0.2674959681573607 -0.1352998712949943 0.18699242447391357 0.17844481580682953 0.03278782543774411 -0.005210043377175554
0.11154873788615081 -0.2454308066904296 -0.017085252571593115 -0.2074714978090382 0.22910187879648805 -0.2362673402712328 -0.10689945165528411 0.18407994973926375
-0.23153297551168084 -0.310900915413481 0.250081442339178 -0.221048329721668 -0.2439828112263783 -0.3082431571128685 -0.3133170339450442 0.16700502569805845
0.07118495334121613 -0.16320549097336484 -0.40269308421148153 0.24685052531878934 -0.27492407770025773 0.3454111898962417 -0.15816707124321908 -0.14550169993631126
0.09213164066271433 0.2975712028556265 -0.08566407222394784 -0.09545441086218133 -0.04983558686440425 0.30023329412087624 0.3866655869741028 -0.03847329082700114
-0.03972502379703684 0.35911099340294766 -0.12304058022000758 -0.17346252859619818 0.165136203214891 -0.17076394475469803 0.004260419182206097 0.07721416193184366
-0.1193236655492125 -0.004777348692435704 -0.22450381836614416 -0.4346846529382759 -0.10648302951187828 0.044576849317420196 -0.14663800131474025 -0.1954371746835643
0.053036166498469255 -0.1480740041316275 -0.3171992459050692 -0.11870526174986706 -0.06546464055456709 0.07151721858132679 0.06664057436891686 0.37194961308856034
-0.10946870248020014 0.04439450142303068 -0.2158658876352183 -0.04367374656053281 -0.30755149203022947 -0.1562628439564831 -0.1194891214988557 -0.22841505166650794
0.1727055114672044 0.23296921644792654 -0.44955920402768346 0.12014014715662508 -0.39589606252039944 -0.05289764520584114 0.4265539161518695 0.18839162596601625
-0.027743559488213436 0.18767147047248148 -0.4645644938995163 -0.13612366076363086 -0.4175187291107221 0.5944625811857268 0.41109897361435044 0.23434736945129825
0.21450926292800873 -0.005669286517204997 -0.4075681380929564 -0.06758898745539134 0.12708448924430785 0.2438923421947198 -0.025851865310764072 0.08521007426420142
0.49033795059738583 0.4547935895627917 -0.11827698023206146 -0.03805704965483406 -0.4287187694703284 -0.04637255706487419 0.6124624915420984 0.03657312922053793
0.18498726850419217 0.13346192620714684 -0.03420425856101333 -0.3086749273139552 -0.12980469489487392 0.21926079579684113 0.039739337694308145 0.08025580872360194
00000000: 27e3 e448 7aad c2bf 88e8 9dc4 e0a5 dd3f
00000010: 2b96 39a4 7675 ac3f 3d2b 4695 d70d 963f
00000020: bfcb 8419 e6b1 cdbf b6a7 beb2 7da6 da3f
00000030: 3390 fc50 cfe0 d53f 0528 baf1 0e43 cf3f
00000040: 4d19 ecc9 3534 d63f 983e 7ede fda4 a03f
00000050: 42a2 3d45 e8b9 c5bf 7a2e 5264 e9fb c8bf
00000060: 277a c733 fa7b d23f 903c c5e6 f4d0 d73f
00000070: 8b3c d7da 79e8 bcbf d062 f040 8965 d43f
00000080: 6627 a2b9 f736 a43f b8e3 a00d c307 ca3f
00000090: d94b 499c 37a8 b03f 3f0e 3b22 48ab c73f
000000a0: a7a5 3dd8 18e7 c63f 9c22 ac1b e244 adbf
000000b0: 046a 92b0 ac78 d03f 0402 2667 529f b6bf
000000c0: ea27 b6f1 38e3 cdbf 684d b9b6 d042 c33f
000000d0: 8c59 3951 0466 d9bf a169 5072 a639 dbbf
000000e0: 8252 3215 a1aa cabf 1424 a458 cad9 de3f
000000f0: f4f5 dc83 a520 b43f 4da2 3bdf 894a 8bbf
00000100: d711 14b2 eb21 bbbf 9e06 dcd6 beeb b73f
00000110: e31b e81a 953d c23f baa1 534d ad7c c93f
00000120: 4b7a dfc1 8637 dabf 412e 98a3 00c0 d73f
00000130: 314f e66e f248 c7bf b879 2291 a33a cf3f
00000140: 9c77 f3b4 473b a8bf 7fae e37b f23c c03f
00000150: c7ca eef8 8010 b3bf b905 ed59 a9df a93f
00000160: 2e75 ea2e 4fc7 d0bf 5a87 92a8 5b2b b5bf
00000170: dc09 10e4 a23b 8b3f f8d3 e738 c2af d23f
00000180: 11e6 8067 3c77 aebf 6ad3 1116 4aa0 d33f
00000190: 4403 5169 2e5c 963f bbf3 ed74 5265 c13f
000001a0: de2b ae45 da50 a6bf 7498 5d94 24f1 afbf
000001b0: a7c9 1ee0 858d c43f 1ca8 5364 7898 d93f
000001c0: 6e32 8236 7257 da3f 11f5 4337 45d9 b03f
000001d0: 1366 ac7b 663a c7bf 5d52 4e04 61c1 c8bf
000001e0: 11cb af4c 226f d5bf c5f6 b5e6 41dc d03f
000001f0: f946 53f1 9c18 c1bf 937f 4df0 387c d63f
00000200: 1030 e2cc b878 df3f c0ec 5329 ad5f bebf
00000210: 17c7 a67f ea35 ae3f 5260 5c6a f807 e0bf
00000220: 667e 4867 eaa2 b83f 84cf e843 0f12 a93f
00000230: b62f 27a9 e52e c33f 2958 36df 10ef ccbf
00000240: 7949 821c 8d10 813f 8861 a6a6 f270 cf3f
00000250: a9f5 5994 f973 a53f af37 71cb e6f3 b5bf
00000260: 2e0f af66 a6bd af3f d5b3 82bb 0bbf d73f
00000270: 92d6 a375 bdd5 a83f efed 9f76 83df b7bf
00000280: 6698 96d0 fb3c be3f 0a07 0039 fed8 c13f
00000290: a742 4b0e f052 a7bf 4754 90bc 77d1 c43f
000002a0: d96f 09d4 41b9 d43f 56f8 a3cd 4726 bebf
000002b0: f2c2 ddbe e3d5 c2bf fb0c 87a7 6707 d1bf
000002c0: 624a 40c1 e980 cd3f b0b1 498d b462 d13f
000002d0: 4cbd ea79 b8f4 cfbf c6d1 5461 85b9 c93f
000002e0: 7dca 5ace 7bc6 dabf 15fe acb4 b3cc c23f
000002f0: 378c 6011 0744 d73f 60fb 5875 e457 c73f
00000300: 5b4c 6e69 d839 c7bf cbd5 1ad9 b583 c13f
00000310: 2fcb 5828 9dbe c4bf dd25 2035 713e c9bf
00000320: 9a9e 81ec b077 c13f 6966 b3f3 4ab8 e13f
00000330: 2c80 3b69 2a08 cc3f 2f97 9da7 cebe d3bf
00000340: 075b 271f 99fe c33f f473 3321 b265 cf3f
00000350: cbe8 9865 6e36 bc3f 9840 a918 7cfd bb3f
00000360: bfcc f6c0 a94b d7bf 2685 4210 f10b d43f
00000370: 0497 cba1 7c50 d23f bbf4 15f0 894b ca3f
00000380: 5fae c0f7 b18b dc3f f260 0459 d7c6 d23f
00000390: a635 8d09 1068 d1bf dcd1 f22d 95ac 7abf
000003a0: f2a4 57e7 bbc4 d4bf ae70 b689 8751 d83f
000003b0: 3c0e a560 0cdd 91bf a793 452b 71dc d33f
000003c0: 2838 fb36 8d9d d53f 16af 939c ff25 d43f
000003d0: 1ed9 11e1 81f7 ce3f 5942 6765 e3c2 c3bf
000003e0: b58b 3b21 0d2f b0bf afb7 14e5 9aa1 6ebf
000003f0: 4e01 c524 09c1 c73f 0c76 dea0 3802 d0bf
00000400: 4579 fd6b 9ce6 cc3f a4a7 e76d f962 bf3f
00000410: 1591 fb99 f11f bcbf 8bc0 a25d 3244 10bf
00000420: 0040 59d0 1ceb c43f 0df0 6221 75b5 b03f
00000430: 96ab 1d56 64e7 9ebf 946f 9c7b 1912 c1bf
00000440: 04d0 e074 8273 bfbf d9e4 d2da 7417 ab3f
00000450: a68b ae55 5a64 92bf dba3 c21f e79c ad3f
00000460: 1bda 8063 69df cd3f c0c5 e597 12dd 873f
00000470: b721 8314 067a debf 2a81 254e 01d8 a0bf
00000480: 3d9b b7f2 0d3b af3f 285f 4ec3 66ad bfbf
00000490: df0d c368 a71e d1bf a3b8 2e95 8151 c1bf
000004a0: f68b db25 5eef c73f 52fa 039c 47d7 c63f
000004b0: 2894 ecdb 90c9 a03f f2bf a65e 2057 75bf
000004c0: 5f8f 2145 758e bc3f 1849 15d4 466a cfbf
000004d0: 64d3 27e4 cb7e 91bf f991 f810 6d8e cabf
000004e0: 8108 71da 3553 cd3f f2f6 c919 023e cebf
000004f0: fedc d130 c35d bbbf ff5e fd89 ee8f c73f
00000500: a055 e25e dfa2 cdbf cdd4 fff3 cce5 d3bf
00000510: d9ba 0b98 5501 d03f f4b7 7ec9 4f4b ccbf
00000520: 9b70 8029 d43a cfbf effe c081 41ba d3bf
00000530: 48b7 84e3 620d d4bf c105 d2b1 6b60 c53f
00000540: f25b 9156 2d39 b23f 860d 21e3 eae3 c4bf
00000550: 40e0 c036 b9c5 d9bf b74f 9f4a cc98 cf3f
00000560: a8c1 a628 5b98 d1bf 27b7 1189 371b d63f
00000570: e198 258f d13e c4bf 0993 5eb9 cc9f c2bf
00000580: 0bbc 926f f095 b73f 57c3 1f16 680b d33f
00000590: acdf a4a4 14ee b5bf e179 e944 b36f b8bf
000005a0: 1fe8 84cf 0c84 a9bf 4bd9 dab4 0537 d33f
000005b0: eeb6 a204 21bf d83f e230 be6b c5b2 a3bf
000005c0: 660a 159c d656 a4bf cf2e 13ad acfb d63f
000005d0: 3c34 2064 967f bfbf 3179 b327 0534 c6bf
000005e0: cdc6 18e0 2e23 c53f 3058 07cb 97db c5bf
000005f0: 7e91 e090 5f73 713f 840a 49ac 4ec4 b33f
00000600: b236 2ce9 fe8b bebf 5d60 54c6 6991 73bf
00000610: e3d7 da86 8abc ccbf 335a 1c94 dfd1 dbbf
00000620: 0920 55c9 7842 bbbf 8b3e f4db c6d2 a63f
00000630: d4b1 ffb5 08c5 c2bf 5622 d8d8 1504 c9bf
00000640: 3776 3b71 8e27 ab3f b709 91c6 16f4 c2bf
00000650: c099 de10 fe4c d4bf 282c 14d1 7763 bebf
00000660: 3dec 396a 4ac2 b0bf da5d e8d2 f34e b23f
00000670: 9d4b 804f 5b0f b13f 026a febf 05ce d73f
00000680: 1188 1611 2406 bcbf 7ee1 7747 e0ba a63f
00000690: 148e db4f 7ea1 cbbf 21b2 57c2 675c a6bf
000006a0: 16c6 0674 ecae d3bf fabf 2fbe 6b00 c4bf
000006b0: 27bb 10cd d696 bebf ce30 6954 b43c cdbf
000006c0: a598 cbd5 361b c63f f32d cf6e efd1 cd3f
000006d0: 508a baf7 93c5 dcbf d46d f932 81c1 be3f
000006e0: 76fa 4870 5c56 d9bf 5c95 6370 6615 abbf
000006f0: a597 f6cb a84c db3f 85a1 2e80 371d c83f
00000700: 4ebe b4c2 ce68 9cbf 2528 0966 9e05 c83f
00000710: 0399 0bb7 6cbb ddbf 1e86 9807 806c c1bf
00000720: ccdf bf79 a0b8 dabf 1d6e 1c64 d605 e33f
00000730: 78f0 c511 724f da3f d635 d937 18ff cd3f
00000740: 9f80 7b1e 0a75 cb3f 00c5 ed82 ad38 77bf
00000750: 150e 00ac 9815 dabf 19cf b00a 834d b1bf
00000760: 950b 91f6 4d44 c03f 0d4f bc40 dd37 cf3f
00000770: 5589 3350 e978 9abf 5d25 41d2 53d0 b53f
00000780: 7e6b 736d b261 df3f 9c91 6692 561b dd3f
00000790: 3862 f771 6647 bebf 64ad 4caf 367c a3bf
000007a0: 729c 83d9 2070 dbbf 0f12 0dd0 24be a7bf
000007b0: 5066 66f0 4a99 e33f 7445 d493 b6b9 a23f
000007c0: ae70 33ae a9ad c73f f911 29c8 4715 c13f
000007d0: f794 ce77 3883 a1bf be26 7a7b 54c1 d3bf
000007e0: 396a b8b3 709d c0bf e105 9fdd bc10 cc3f
000007f0: 8f04 86e7 b658 a43f b82a c809 a58b b43f

encoder.bias_ih_l0 f8 [32]
0.23238331611718543 -0.007415888614511641 -0.21947410660530345 0.2060196421960712 0.15330928072627772 0.05486329930495276 0.2980918096761481 0.16862481430493304
-0.1573663700213142 -0.18287819025713226 0.29649539110070894 -0.10561984642950165 0.3474103203527042 0.3895162788185773 0.10705334647509149 0.1895629356131276
0.08878529568531199 0.34017528393834295 -0.22921462893547812 -0.3625553914670146 0.2492050473305777 0.38755491287065297 0.12471458375546454 0.03976144228548308
0.1532163215993951 -0.1580393841076081 -0.12454409503809027 0.4150133329500389 -0.17615474251107538 0.09761060677917374 -0.16955809583647896 -0.05223001572263742
00000000: e4fe 6d8b bcbe cd3f bb27 1f71 1f60 7ebf
00000010: e923 183f ba17 ccbf 696a c804 da5e ca3f
00000020: 3942 7275 a39f c33f a8e6 87d8 0a17 ac3f
00000030: c6ed 70ab ef13 d33f dceb 5d77 7f95 c53f
00000040: f2aa 5dca 9424 c4bf 9c2c 2773 8d68 c7bf
00000050: 394e 0cce c7f9 d23f 0a27 39fa e609 bbbf
00000060: bd4b 0d7f f83b d63f 1c44 b2af d5ed d83f
00000070: 2ab2 091e d967 bb3f 56fe 7e28 9943 c83f
00000080: e687 5515 a2ba b63f 780d db8d 6ec5 d53f
00000090: ae75 85ab e756 cdbf 2db7 5587 1b34 d7bf
000000a0: 2438 2474 f3e5 cf3f d7bf 0b1f b3cd d83f
000000b0: 8a60 9082 4bed bf3f e310 849c 9c5b a43f
000000c0: 0fcd 3da9 979c c33f b46f 1c71 a23a c4bf
000000d0: 3038 192f 1fe2 bfbf fb28 1b15 948f da3f
000000e0: 4668 0f15 3d8c c6bf eef8 db3b 02fd b83f
000000f0: 0ce2 3166 14b4 c5bf 21ed cb82 e4bd aabf

encoder.bias_hh_l0 f8 [32]
0.25523374016847017 0.3040927222301016 -0.07076889979387467 0.36692632957495547 0.2883594061463715 0.028368781382551497 0.2676534014205702 0.11069793224655008
-0.23176521545550263 0.17629080118936277 0.3175090086162729 0.2549888356068988 0.21895545632758778 0.224009439066378 -0.007080231318745001 -0.2821366449370661
0.23406607409336264 0.20356884399026115 0.04947268798885657 0.11341004880627172 -0.29526773647336063 -0.16725441902326846 -0.07481294065621372 0.16275862470686936
0.08488245925000489 0.33833638526914733 0.06076741612085257 0.13216815828913153 0.2692036679665622 -0.06874490253178672 -0.16756977429373898 0.30958702382671294
00000000: 71ff b6e5 bf55 d03f 7583 3b52 4176 d33f
00000010: 9f47 301e e91d b2bf 4535 6492 b87b d73f
00000020: 2121 b902 7b74 d23f 7fcd 0fb1 b40c 9d3f
00000030: b7ed 70bb 3b21 d13f 76d7 bb1e b356 bc3f
00000040: e3aa 5d8a 7baa cdbf 63d3 d86c b290 c63f
00000050: 394e 0c4e 1152 d43f 48b6 71b1 bc51 d03f
00000060: 6a97 1a7e bb06 cc3f ee87 645f 57ac cc3f
00000070: e7dc 641f 2900 7dbf d380 c0db 860e d2bf
00000080: f7c3 aa8a e0f5 cd3f f61a b63b 8b0e ca3f
00000090: e829 eaf1 7b54 a93f b123 a9e2 7008 bd3f
000000a0: d3e3 eda5 aae5 d2bf 6580 e8c1 9768 c5bf
000000b0: 729f 6fdd f026 b3bf 3a04 214d 46d5 c43f
000000c0: 559a 7b5a dbba b53f 32c8 71a7 4da7 d53f
000000d0: 708f cd21 e81c af3f cc51 b6de e2ea c03f
000000e0: d14b 7805 a23a d13f fc06 2414 4499 b1bf
000000f0: 08e2 3126 ed72 c5bf 5582 a617 46d0 d33f

decoder.weight_ih_l0 f8 [24, 8]
-0.11217065779785221 0.04991232235032406 0.08772604172168282 -0.10367652597175085 -0.14296138722244553 0.4529010052141067 0.20283895770710136 -0.290110274765531
0.14889790533182654 -0.013249140716780695 -0.009618505603046437 -0.21866935990979472 0.25109681673288026 -0.271518235521012 -0.16762664818528605 0.06264533635598352
-0.26354230617567875 -0.0701920924757185 -0.347954251789352 -0.1631460600482563 -0.3488587872509994 0.06025187119055279 0.0652277706664108 0.3197878783697967
0.040579923535357165 0.0666063392720013 -0.38054420660186683 -0.021567647891664425 -0.28464697739541256 0.2527374155364479 0.6057630577504285 0.2037744959537965
-0.35550829012731394 0.22905334094410604 -0.21825014560050585 0.4514343388723971 -0.07492941814307955 -0.4191904514616941 -0.04955531049870833 -0.2080682567265943
-0.12063774500092946 -0.3018424178650325 0.12176075628847324 0.31388200302375635 0.20930718600908005 0.382784173015596 0.011494876835574989 0.03599897250493466
-0.31398060640624753 0.35272120288924635 0.23994734065902412 -0.018327785018712083 -0.11009717170770163 -0.2262239240848916 0.37589414305827357 0.033325426491299485
0.08391690167871055 -0.30927288042499473 -0.3128233906530452 -0.1672720004168633 0.09283409374151814 0.41178964911751764 -0.24064365585933098 0.06147584904190027
0.28547565607934966 -0.24282828870990084 0.34903548262289985 -0.18714806253252741 0.2363299251857869 0.11974718060750457 0.02521046980968802 0.27424553577144867
0.14192774314848294 0.08681061326622419 -0.3198194994117549 -0.2663427155908825 0.003045035710690459 -0.16343537969665103 0.38045600173359645 0.3165682220869939
0.3487209657667326 -0.31308309713467825 0.28470041432692195 0.12250017596855867 -0.07072650724742979 0.3243841960580237 -0.4171707189390446 0.26147329929992286
0.40465775849752805 -0.23861194301368005 0.13955000563827386 -0.356575044028624 -0.16212003088687424 -0.25000531283412586 0.06376653857156056 -0.17881442425823535
-0.1631268270510584 0.3156549199672359 0.032166342947075106 0.07113630677674178 -0.11263006762010282 -0.23739941664472347 0.46377342131216387 0.4703622256336599
-0.2436688375330953 0.25067095806968004 0.04689383282259978 0.2005805243328141 0.5017072075504723 0.10401696335731496 0.3103416803875552 -0.34823882969401204
0.47608830504389726 0.24920139995079776 0.30047881301751106 -0.4677045804949921 0.20886138693051393 0.06870579078116015 0.4098601018098682 0.053877753322447736
0.04541459009142251 -0.27596481523765676 0.01543790105672644 -0.025756399087255834 0.3926017002497641 -0.2946036442659409 -0.18599389122217164 0.3085846163597399
-0.08353458524144 -0.21788576725882156 -0.06702909972959892 0.12968153251932088 -0.33180815941125247 0.4224871596182679 0.291497912496615 -0.2460093908523263
0.17216076873267838 -0.3721588576701513 0.10924885400426816 -0.02107638936214272 0.2846636307164167 -0.22107174576752464 0.14963226446790268 0.04605643764603335
0.1766624445888257 -0.053275736679121374 -0.2717591434309283 -0.30861298940861437 -0.07882433075553551 -0.14708641836130004 -0.20237768487172106 -0.2341452491293647
0.1794070991101628 -0.41544741583983186 -0.36172257749670045 -0.04201581169762732 0.3666619591343668 0.4460572324885681 -0.2285514998835505 -0.2930288280776379
-0.005699120366005098 0.14574915414937778 0.18737634470271822 0.35774079714218227 0.10325668924885575 -0.008157981505211749 0.27403919602307525 -0.21910956458683623
0.1156367827266003 0.387789838437447 -0.10275940480137481 0.204997934217846 0.08953060936344055 0.603511009833718 0.23955169659959488 -0.1282577420494798
0.2498928603223883 -0.0374259791115481 0.13911560717338398 0.22735250290643172 0.028088055367208153 -0.35174119707022516 -0.4873158822280033 -0.21560996377818883
-0.26534420447426776 0.3353364405085208 -0.1221724080271328 -0.04489649996174914 -0.20910384393299583 -0.1315445299983345 0.4521616777063497 0.12911337467043857
00000000: 6a05 d05a 37b7 bcbf 71f8 52a0 1b8e a93f
00000010: b5c0 33c0 3675 b63f 4b5c 6978 8b8a babf
00000020: 7708 5b09 8f4c c2bf 5816 6e7f 54fc dc3f
00000030: 0c76 da80 a0f6 c93f 767f 96af 2a91 d2bf
00000040: abea eb28 160f c33f 6720 a190 5d22 8bbf
00000050: 7b06 03f8 ddb2 83bf c393 b98a 5bfd cbbf
00000060: d5d5 ff61 f811 d03f d124 7505 8e60 d1bf
00000070: 5c6b f23d ca74 c5bf ac57 e556 8609 b03f
00000080: f0c3 888c e0dd d0bf 14fb 9ee5 1bf8 b1bf
00000090: 661f fce8 e144 d6bf 1d73 3058 f8e1 c4bf
000000a0: b093 8ace b353 d6bf 958c 9250 55d9 ae3f
000000b0: fe9f cd65 c4b2 b03f 285a d093 6777 d43f
000000c0: b8c5 ea48 e4c6 a43f 9e28 e1f0 1c0d b13f
000000d0: e262 8216 d65a d8bf 7ea7 6259 d415 96bf
000000e0: 1863 b4f4 a737 d2bf 4418 8d8d d92c d03f
000000f0: b437 4535 6962 e33f 44b2 f05d 4815 ca3f
00000100: b56f e3d7 a5c0 d6bf 197e 32b0 9e51 cd3f
00000110: d5c7 d9ea 9eef cbbf 97e4 6fda 4ce4 dc3f
00000120: 52ce 6e08 932e b3bf 6eb3 f42f 04d4 dabf
00000130: 82c2 de4b 505f a9bf 76fc fc0a fba1 cabf
00000140: ad32 7181 1de2 bebf 08a8 51dc 6251 d3bf
00000150: def9 3182 b62b bf3f 788f 728a a416 d43f
00000160: 6007 5def 93ca ca3f 26d1 2130 897f d83f
00000170: a28a a440 a08a 873f 0f54 3213 756e a23f
00000180: 0bf5 051d 4218 d4bf 4cf7 c0f3 fb92 d63f
00000190: 5443 722e 98b6 ce3f 93cf 0dd5 84c4 92bf
000001a0: 69de dd07 542f bcbf 093a c2d1 e7f4 ccbf
000001b0: e35d cc4e a60e d83f 678e cfc1 0710 a13f
000001c0: 76ad 4afc 937b b53f b9c3 bd7a 20cb d3bf
000001d0: 96d5 1166 4c05 d4bf b8d8 a93d 2b69 c5bf
000001e0: add8 92a4 f9c3 b73f 9fa0 f2f8 c25a da3f
000001f0: 27ee f34b 69cd cebf 5df1 4132 c379 af3f
00000200: 8c8e aaaf 3b45 d23f e5bd 4653 ff14 cfbf
00000210: 5492 c0eb 9856 d63f c621 0bbc 77f4 c7bf
00000220: 399a de19 0f40 ce3f 1158 7f50 c0a7 be3f
00000230: 87ca 65fd c5d0 993f 7997 cd25 3d8d d13f
00000240: 9ae1 9b33 b02a c23f 3894 ec68 3839 b63f
00000250: 582e a634 ec77 d4bf 2267 3f51 c20b d1bf
00000260: cfb6 5c19 e7f1 683f 093a 6755 73eb c4bf
00000270: 57d0 4021 6459 d83f 9941 345c a742 d43f
00000280: 2273 d9bd 7151 d63f e7ec c7af 8d09 d4bf
00000290: 1e46 2c16 8838 d23f 5009 8ae9 2b5c bf3f
000002a0: 5888 96e3 211b b2bf 4624 5aee b5c2 d43f
000002b0: cd49 acd0 ecb2 dabf 0b4e 5181 fabb d03f
000002c0: 7e73 b4a7 e9e5 d93f fce1 d60d d68a cebf
000002d0: 86be 2f4b c6dc c13f 850d 2b22 20d2 d6bf
000002e0: e1c2 5763 59c0 c4bf 76b9 9c48 1600 d0bf
000002f0: 2875 befd 0053 b03f 1400 1f1c 64e3 c6bf
00000300: f06b a401 57e1 c4bf 6d2b 85b1 b033 d43f
00000310: e1ad fa5d 1b78 a03f 7911 2a2f fd35 b23f
00000320: 0d80 f9f8 52d5 bcbf 6e0e 4aa5 1a63 cebf
00000330: a58b 52b7 76ae dd3f b0b3 172a 6a1a de3f
00000340: 4f26 215c 8a30 cfbf 41d7 bd33 fe0a d03f
00000350: 57dd b6ec 7702 a83f 02ab 1c64 9fac c93f
00000360: ae18 1346 fc0d e03f 6351 d90f dba0 ba3f
00000370: 3d6a f659 a3dc d33f 09eb 2e84 8b49 d6bf
00000380: abfb 0a15 3b78 de3f d6fa 73db d4e5 cf3f
00000390: 5f45 c37c 0b3b d33f c295 5a31 dfee ddbf
000003a0: dcc2 214d f8bb ca3f 426e 73e4 b396 b13f
000003b0: f059 4ddd 253b da3f e4f4 0069 dd95 ab3f
000003c0: 4866 68c6 9440 a73f fbb6 1254 68a9 d1bf
000003d0: e49b 4201 e89d 8f3f ca4e f8ae e25f 9abf
000003e0: 934f bbe1 6220 d93f 86e5 593e c9da d2bf
000003f0: 860a 07d8 a5ce c7bf 2015 d4b0 d9bf d33f
00000400: a268 b2c7 8562 b5bf 1bfc 514a aee3 cbbf
00000410: 180d 38af d128 b1bf 0367 888a 6799 c03f
00000420: fbe7 4d4a 583c d5bf ca95 6295 070a db3f
00000430: 639d 41dc e6a7 d23f 9b1c 1c58 3c7d cfbf
00000440: a437 ae33 5d09 c63f 8b0a a762 73d1 d7bf
00000450: 3de5 129f bbf7 bb3f 5cd7 1c8c 0c95 95bf
00000460: 8b68 12ce ed37 d23f 0811 1237 144c ccbf
00000470: d074 2869 2627 c33f 0982 eb9a b594 a73f
00000480: a35f f8fe df9c c63f 760d 6a15 f546 abbf
00000490: 1730 5b76 8064 d1bf ea5e 28b2 50c0 d3bf
000004a0: 675f b9d2 d42d b4bf 5e16 464e bad3 c2bf
000004b0: 156c fb10 83e7 c9bf 571f c3b5 78f8 cdbf
000004c0: b797 acd3 cff6 c63f b958 0fc2 b096 dabf
000004d0: 8eae 2474 7626 d7bf eaf9 4fb2 1883 a5bf
000004e0: 59d7 cab8 6377 d73f d8b0 6ba2 338c dc3f
000004f0: f0cd b9f0 2c41 cdbf fd3b 58fc fbc0 d2bf
00000500: 2a48 68f9 f557 77bf f6e0 3e85 e8a7 c23f
00000510: bb66 45b4 f2fb c73f d1eb 0aa8 39e5 d63f
00000520: 1ec5 6ac7 076f ba3f 844b 21be 21b5 80bf
00000530: 8070 2fb2 db89 d13f da14 123f c80b ccbf
00000540: 0281 0648 5f9a bd3f 5dd6 7378 8cd1 d83f
00000550: d973 faba 704e babf 664a 9b4f 5f3d ca3f
00000560: 45f9 345f 7aeb b63f 4860 4052 f64f e33f
00000570: 8d5c 4c47 a1a9 ce3f 53d9 c7eb bf6a c0bf
00000580: bb55 4b3f 7dfc cf3f 0019 9c78 7f29 a3bf
00000590: 8320 964b 8ace c13f 9ccc 5206 e319 cd3f
000005a0: 2072 d77c 1dc3 9c3f f9a3 8482 ed82 d6bf
000005b0: 0167 3ff4 2e30 dfbf 8b3d 8f77 1b99 cbbf
000005c0: 849b 1942 66fb d0bf 8b08 49f9 2676 d53f
000005d0: f839 f3e0 b046 bfbf 9dc6 148e acfc a6bf
000005e0: 537e 942d eac3 cabf b2bf 277f 73d6 c0bf
000005f0: 7b35 9088 37f0 dc3f f3c5 d77c c986 c03f

decoder.weight_hh_l0 f8 [24, 6]
-0.045946833056000023 0.2698406859749652 -0.25490519918960797 0.09764691842838591 0.019921917422001837 -0.3420253423490614 0.2809516838043611 0.34283177199428916
0.341017215493996 -0.052438538738838095 0.38352168380188745 0.06108731188425344 -0.2555017127509459 0.21082778249189055 -0.28186521580652074 0.05629396187005328
0.17262485999941485 -0.040346005274960704 0.2856423642436849 -0.35854618799150006 -0.3235138394749461 0.13151143370001814 -0.004786066693629736 0.27486320723145996
-0.10484743929176904 0.06600137244061156 -0.0127946315164018 -0.3891312774826938 0.026492315855123415 -0.4369927327956957 -0.06840772449810455 0.4887422998242837
-0.11195202825088094 0.45288465787726867 -0.19432201858229706 0.34017383359540965 0.252828618723884 -0.019993185912861734 -0.028618599291546785 0.24098017478436917
0.03707189719403687 0.10171579029832804 0.16789256863862576 -0.37566311208914993 -0.19503267019994067 -0.06201924900993824 -0.2827374275117098 -0.17883514787023116
-0.33015753287002825 0.3705756507036466 -0.25932573143802334 0.20840776156405516 -0.28925979861438267 0.18850090904421035 0.1727733092486765 0.38981650349488006
0.23101989270654563 -0.052642900096659014 -0.342416108349824 -0.12069752403046119 -0.2182914075363363 0.07927216013009047 -0.24449668892607107 -0.21237541798007156
0.36027447157182274 -0.13496198367167433 0.07831698777461642 0.16523224990190233 -0.452741237612484 0.1267984930397353 0.057590568268843845 0.36418860873654285
0.38228706109860927 -0.0872256939480114 -0.30508489271199 0.30297490380837666 0.25158233522862117 0.2634635882515676 0.17542319455159058 -0.012101875174463908
0.22640578473213566 -0.015940691160665117 -0.3754218024075482 0.23244675798683842 -0.29700098512448553 0.22667518457681793 0.11286538435889831 0.2781273530773996
-0.04187199170379676 0.24269454830145296 0.587131973538001 0.1418936545127876 0.13071654077111897 -0.13245080226266012 0.17842938916636372 0.4036520434288344
0.23259974574164205 0.32520673190754307 0.34918164601414703 -0.15714431133054746 -0.3330759304708176 0.3326973459776118 0.24578482562929288 -0.11066836962279568
-0.29439144593459204 -0.09233397106129737 -0.23346374520334442 -0.21093720518923012 0.22453848321003628 0.3017023921439699 -0.3343006450644946 -0.2094892615511644
-0.23785276500681404 -0.25395372057632554 0.10950232574798913 -0.08034892255967703 0.247304884186138 0.02724682722225837 -0.05295887178711643 0.18260175131114553
0.2596315843755841 -0.17927041756249884 0.1467976386839496 0.2981102457215786 -0.36983429438652093 -0.4100079179433992 0.13226613816750635 0.38001644969652654
-0.025943435680143234 -0.2924389566827923 -0.2289362348418237 -0.07116773134172356 0.39932259674707055 -0.1973538079377553 -0.06710504486628807 0.06778808273568096
-0.1860062674257484 0.20880873119365323 0.05517826531910226 0.0703421240644523 0.05728659902785472 -0.08864471934580366 -0.17804254449048892 -0.03430713099225346
00000000: 031c a9e2 5786 a7bf b121 59de 1145 d13f
00000010: 0262 86e5 5d50 d0bf 4081 3471 63ff b83f
00000020: 5156 343f 6966 943f 0db7 f242 bee3 d5bf
00000030: 0889 6cc5 1cfb d13f 5eb1 2fac f4f0 d53f
00000040: 52dc fade 39d3 d53f 92de dd61 39d9 aabf
00000050: f619 4f88 9e8b d83f a2a1 7c0d d646 af3f
00000060: 4e96 15db 235a d0bf 1208 729f 67fc ca3f
00000070: 1d37 f166 140a d2bf 9c67 63ea 8fd2 ac3f
00000080: c647 1648 9218 c63f 2343 5c4a 3ba8 a4bf
00000090: fbd6 31e9 f647 d23f 7eda e1b5 6bf2 d6bf
000000a0: 574a 1664 73b4 d4bf cb54 65dd 5dd5 c03f
000000b0: 3951 cffe 8d9a 73bf dab2 7bd9 5b97 d13f
000000c0: 9cd6 d322 48d7 babf 79a0 1f48 77e5 b03f
000000d0: fa24 6b5f 1234 8abf 44e3 a8df 86e7 d8bf
000000e0: d3b0 c538 cd20 9b3f 989e fc5d b0f7 dbbf
000000f0: f35c 832b 2b83 b1bf 2db2 7ac8 8d47 df3f
00000100: 6af3 0e5c e3a8 bcbf 675a 9cee 0ffc dc3f
00000110: dd11 5a3d 8bdf c8bf a0d2 8f78 68c5 d53f
00000120: 255d 3a16 582e d03f 4aea 8dfe 1779 94bf
00000130: e9de 0eb0 314e 9dbf 1074 d738 70d8 ce3f
00000140: b91e 1974 16fb a23f db6f d1c8 0b0a ba3f
00000150: b3ac c5f1 807d c53f 8222 2f4b dd0a d8bf
00000160: ad84 149e d4f6 c8bf 7cb9 70ac fcc0 afbf
00000170: 5426 21b9 5e18 d2bf 052e bdf3 11e4 c6bf
00000180: b61b 8d0f 4d21 d5bf 48d4 1def 82b7 d73f
00000190: dd67 e2f3 ca98 d0bf 3039 1304 1bad ca3f
000001a0: 1a2a c687 3b83 d2bf 4c3a ce3b cc20 c83f
000001b0: 1821 6c90 6f1d c63f aee6 7ceb c0f2 d83f
000001c0: 9734 f351 0f92 cd3f f940 909c 02f4 aabf
000001d0: 0b1c bf40 25ea d5bf e843 6b6e 08e6 bebf
000001e0: 4ae5 2e0c f9f0 cbbf 9cf4 3d27 2e4b b43f
000001f0: 2e79 75e1 aa4b cfbf 3d70 5921 1e2f cbbf
00000200: ad04 3fa8 bc0e d73f 3c5c 092d 6f46 c1bf
00000210: e394 3605 950c b43f a05d c992 5426 c53f
00000220: e127 4662 b6f9 dcbf e3d4 64da ee3a c03f
00000230: 88a4 8bce 827c ad3f 2759 06bd dd4e d73f
00000240: 0b8f 4626 6477 d83f 51ab e04e 6c54 b6bf
00000250: 18e8 2cc9 8286 d3bf 0468 d7d9 f063 d33f
00000260: 26ba 83cb ec19 d03f f78b ce61 96dc d03f
00000270: eb8a c769 4474 c63f f5bb c130 dec8 88bf
00000280: d75d 8660 ddfa cc3f e5bf d7ac c152 90bf
00000290: 48ee e22a e906 d8bf 6bae cebb d0c0 cd3f
000002a0: 1d53 7f6b 1002 d3bf bd3d 4944 b103 cd3f
000002b0: 2404 acee bee4 bc3f 5dca 65ab d6cc d13f
000002c0: f3ed f8e5 3e70 a5bf 53a5 ef6d 9d10 cf3f
000002d0: 4a03 19fe c8c9 e23f 6138 d23e 9229 c23f
000002e0: 1d40 d4d1 51bb c03f fb06 06dc 25f4 c0bf
000002f0: 67b1 8e33 c6d6 c63f f762 5f61 6fd5 d93f
00000300: 9a56 8216 d4c5 cd3f 0fd8 7ee5 2fd0 d43f
00000310: 24a1 7ff9 fd58 d63f f664 f506 4e1d c4bf
00000320: 5e3e 1db5 1d51 d5bf 5626 1ccf e94a d53f
00000330: ee26 f78d e075 cf3f af46 3b24 c354 bcbf
00000340: e9b7 2038 4fd7 d2bf 10a1 04fa 32a3 b7bf
00000350: f39a 39d7 23e2 cdbf b510 e686 fdff cabf
00000360: 7e4f 0a51 adbd cc3f 4888 d88c 174f d33f
00000370: 795b 6588 2e65 d5bf 43db 9c4b 8bd0 cabf
00000380: 0fd5 7b9b f571 cebf 6ba9 241b c740 d0bf
00000390: e86d ec2b 5808 bc3f 65a3 a93a bf91 b4bf
000003a0: 563a dcba afa7 cf3f c581 5b9f 97e6 9b3f
000003b0: 6eaa b7dc 6c1d abbf d86e 0983 7e5f c73f
000003c0: 10b7 f9ca cd9d d03f f81c 4942 55f2 c6bf
000003d0: 0188 a3d8 43ca c23f 5282 fefe 3c14 d33f
000003e0: f813 d575 5dab d7bf b6bf aad9 913d dabf
000003f0: a119 e6c8 18ee c03f ffde d883 3052 d83f
00000400: e01a 2b7f ea90 9abf 60da c1e2 51b7 d2bf
00000410: cdeb c154 c84d cdbf dda9 a466 0c38 b2bf
00000420: 1747 655d 808e d93f 7ab7 6abb e342 c9bf
00000430: f6e9 18d5 cb2d b1bf d285 684e 8f5a b13f
00000440: 4be9 b8a9 0dcf c7bf 9649 cc97 3eba ca3f
00000450: 6ab9 fd59 5340 ac3f c953 6302 f101 b23f
00000460: 31bc a54a ab54 ad3f b9a6 8d9a 6bb1 b6bf
00000470: 270f f11c 19ca c6bf ef3b 434b b490 a1bf

decoder.bias_ih_l0 f8 [24]
0.31639229282088494 -0.04081449400583909 0.2790357378362711 -0.00036324001021117996 -0.31553705300651486 -0.20302778659103565 0.10097068140378253 -0.10012862648000513
-0.29316769915338386 -0.18862563045887906 -0.046306547482872676 -0.25173735681699033 -0.040612162577292193 0.1343132918255052 -0.2854514094279872 0.09459416928526405
-0.05481238194477176 0.00021611753308050234 -0.10240495915031525 0.2604666372024553 -0.19715548529279897 -0.16165649503416307 -0.32557469833174263 0.426753220606666
00000000: 69d1 9775 c53f d43f 896d ea29 a3e5 a4bf
00000010: 4802 1bb6 b8db d13f 0192 e6f6 27ce 37bf
00000020: 73b5 d552 c231 d4bf e63b cb83 d0fc c9bf
00000030: c1ec 7bee 36d9 b93f 6b01 2098 07a2 b9bf
00000040: d5de 0674 42c3 d2bf e50e 0179 e224 c8bf
00000050: f228 0fe6 7db5 a7bf 1d78 ad00 771c d0bf
00000060: 64b9 2d0c 1ecb a4bf cf81 e78d 2d31 c13f
00000070: a8c7 05fd d544 d2bf 8df5 78cf 5237 b83f
00000080: 6dc0 bc57 5e10 acbf 9932 2d79 b353 2c3f
00000090: aab2 7f1e 3637 babf fff3 1e42 7cab d03f
000000a0: 56a0 c714 643c c9bf aac9 adf7 28b1 c4bf
000000b0: 875a 6f42 37d6 d4bf b0f8 7dbd ec4f db3f

decoder.bias_hh_l0 f8 [24]
-0.131405869877859 0.3932718567182591 0.15191677781334487 0.4237804841332928 0.2538484457556159 0.4661308509326156 -0.20008322259316338 0.3703426960564645
0.2638921551156432 0.2580808284673199 0.34195987157765473 0.14468960400892983 -0.1913602068296878 0.011328983076069415 -0.12081433555351163 0.06338379147287808
-0.0003921752489762882 0.08801701030150866 -0.03689130360698794 -0.1889094541585904 -0.18119684829366872 0.0542398990696038 0.11791232001504605 0.08546503585956687
00000000: ed5c d054 e8d1 c0bf 1bb2 c2b8 5d2b d93f
00000010: 9304 364c 0272 c33f 4746 022e 381f db3f
00000020: 8d4a 2a8d 0d3f d03f 0f62 1a7e 16d5 dd3f
00000030: d509 c2b8 539c c9bf baff f7d9 b1b3 d73f
00000040: 1f21 f9eb 9be3 d03f 6b78 7f73 6584 d03f
00000050: d21a 3ea8 abe2 d53f c80f a55e 3085 c23f
00000060: 586e 0bc3 7d7e c8bf 7020 785e a633 873f
00000070: 111e 1734 b0ed bebf 6ff5 788f eb39 b03f
00000080: b018 60de 9bb3 39bf b896 bc64 4888 b63f
00000090: 5765 ffbc 6ae3 a2bf fc17 c25b 2f2e c8bf
000000a0: 56a0 c754 7531 c7bf 20da 4801 55c5 ab3f
000000b0: 8196 4276 802f be3f f7e2 f75d 09e1 b53f
