lstm_with_validation_lr_0.1.pth (torch, 42806 bytes, 16 tensors)

encoder.weight_ih_l0 f8 [64, 6]
00000000: c2c6 9060 a4f2 c6bf 5509 6e15 fb02 de3f
00000010: 4d2f eda3 6ec7 e0bf c000 d239 8f43 e13f
00000020: 7204 bb26 a692 e4bf 22ff 544f e2fe cf3f
00000030: a519 f31a d363 e1bf 371f 128b 7975 e73f
00000040: 694f 5c29 4623 f2bf cc72 3745 937b ec3f
00000050: 490b 85a3 3673 eebf 4426 2ab7 54fa e33f
00000060: b35e 0a16 12be d3bf e88f d3d0 abaa a33f
00000070: 1bb6 f26f db06 d2bf 044e e3e8 41f9 dbbf
00000080: 707e 5ff7 e0c9 cbbf 5b4d f2dc 3588 7dbf
00000090: 4f5a 6d6a 0e39 d7bf 4067 d33f f87f b73f
000000a0: 3e95 f632 5f44 e1bf da80 ce05 bce3 c7bf
000000b0: ad0a d453 daa9 debf 8ff5 eb30 8ab6 ca3f
000000c0: 506f ee98 4d9e ca3f 3ec4 3d93 aa45 e2bf
000000d0: eaa9 4dc7 1a6f e73f 03ea f901 0c08 debf
000000e0: ea42 16b7 eb13 e43f e81c 2e43 98c1 dabf
000000f0: ba51 d4b2 9fb3 d8bf 3026 58e1 48f4 e23f
00000100: ebaf 776a 972f debf 8f6b c996 8426 d63f
00000110: a7fc 9625 76e1 d4bf c6c9 8e17 3c37 db3f
00000120: a6a2 128f a490 cbbf b0e0 d9cd 4192 c63f
00000130: 8d7a ad0e a870 c03f ab3d f923 3b65 cfbf
00000140: 0cb4 30dd d20d b6bf bb0b 0da1 5add b7bf
00000150: fabf 234d bde0 e2bf 559e 8d37 4ee3 d23f
00000160: 21b6 a529 5114 e2bf 1d54 a7c3 4a89 e33f
00000170: 117f 16e8 2764 e0bf 90e8 96ff aac2 e53f
00000180: 209e b572 190b d1bf 08a9 392a ebfd ba3f
00000190: 5a59 18c9 8a40 d7bf 3c1f 3e46 4396 d63f
000001a0: 1e20 5895 3862 d2bf eb0b c55a 991b b7bf
000001b0: 5682 22a2 7d05 d5bf 8e4b 89b9 f020 e83f
000001c0: 0ea2 3c99 167c 91bf 1311 a5bd 9e35 e23f
000001d0: fbfd aad9 a1b9 dcbf 08e4 b4ef 2b0b e43f
000001e0: ed4a 0df8 d01d cebf 1b74 93be b562 e7bf
000001f0: 839d d4e9 c861 db3f f759 1d23 a73b e4bf
00000200: 9fcc 284e a1df d63f f0ad d44d 7be6 e0bf
00000210: 0baf 9817 a7bc c53f acd7 2324 69dc 8dbf
00000220: 96d5 cec8 7e43 9cbf efd7 5e34 2bb7 d03f
00000230: 45f4 de21 3f65 c93f aa82 390d 62cf ce3f
00000240: 3aa1 1f2a 2b3d c6bf 9c50 9cae 025d ec3f
00000250: 9e2e d60a fe35 c6bf f89e ad42 c6d0 ec3f
00000260: 9b0c 6307 5010 dfbf 981d 7002 7de7 e83f
00000270: 60dc aefd 1ca4 f1bf 70a9 e7ef defe ec3f
00000280: 6073 7690 d0c9 f2bf 3897 2fae af01 eb3f
00000290: 4dbd 5329 b114 f1bf 7ed2 1daf b50f d73f
000002a0: cbb4 567d 9b1f a6bf 2c8a 3c77 356d c5bf
000002b0: ffdb 502e 6b6a b23f 3246 78e6 8bd1 d9bf
000002c0: 1570 9a44 5c0d ca3f f598 1ac2 efac d3bf
000002d0: a688 6724 5822 cbbf 4f7b f747 9863 bfbf
000002e0: 2bc7 9ff2 4bc0 ccbf f5cd c45c c101 d8bf
000002f0: d8f0 aa6d f197 d0bf 5200 c744 98bf c0bf
00000300: 1ee8 23d9 5b1e b4bf 8f5a 48ca 26a3 e83f
00000310: 3204 4fe7 973f ddbf c74b ab65 96f6 e53f
00000320: 41a4 f5fa 5398 e2bf 5c80 9377 1fa6 e63f
00000330: 7042 783b bbd9 ddbf cfe2 97a1 2823 e43f
00000340: 25ce 7493 c603 ecbf 4309 cbfd e0a6 e83f
00000350: 5514 e7e3 aa65 eabf 84dd f15b c493 e93f
00000360: 192a 7291 5c62 dbbf 1160 2d53 30a7 5bbf
00000370: 80c7 1b0f 7d5f d2bf ea38 67c2 5dfc d3bf
00000380: 2846 d82d 49b0 d6bf ea35 8ed3 6dab b93f
00000390: f6b3 8dfb 26f9 bbbf a6bc c177 dd6e d53f
000003a0: 1d69 8a8b 9514 dabf eb4e b987 f8c8 c33f
000003b0: fc16 e9a4 e026 9abf 1af0 9677 37a0 ac3f
000003c0: 3ffc d2b7 571e e33f 52bc b334 6866 d5bf
000003d0: f0e4 b704 2b32 e63f f933 e7af 5937 b0bf
000003e0: 4cd9 1ec6 8c9d d63f a1b1 b9db 0e54 9c3f
000003f0: e5c2 9e8f 6c5b d5bf f07e b2ce 5471 e43f
00000400: 2991 6a1a 1f03 c3bf e6cd 17c2 0e33 e93f
00000410: 9925 c76d 0501 e0bf 613f b882 f7b4 e73f
00000420: bd6d 3188 8ef9 d9bf 5886 42a4 6c21 c93f
00000430: 513b 75dc a858 a8bf 0449 007d 6b95 9c3f
00000440: 63ee d600 6b4c d5bf 397a aaff d753 b93f
00000450: d98d 0590 fc55 e3bf a47c 71c7 7606 e93f
00000460: 45f3 db80 387f e6bf 53c5 a5e9 55f3 e43f
00000470: e6af 93c5 840d ecbf ee5c 538e 7951 e73f
00000480: 24b4 9e40 3bad d0bf 99a8 ffec f942 d83f
00000490: e3fe da89 db69 d9bf 53ef cc55 388e d83f
000004a0: 2eef 012f 1881 d1bf 992d cfba 5efd c33f
000004b0: 8703 5348 e4ad d2bf 502f a941 0c0f df3f
000004c0: 0655 1b6f 374f c4bf bc42 cb68 24d2 ee3f
000004d0: 6ed7 b766 42d2 dabf 4460 961a a193 e03f
000004e0: 6ebb dee1 bdf3 c4bf 44ce d14a 3f8e e3bf
000004f0: 4abf 42c7 3729 c03f 7bcd 54fd 5c85 e3bf
00000500: 0633 208a 62c7 cc3f 6b3d 661f 29ed d9bf
00000510: d1a3 76ee 9b4b 9dbf 11fe 0889 df57 e13f
00000520: d6c7 ae2e a7d7 b23f b13d 8e82 20d5 d43f
00000530: 1635 b22f f1de b4bf 4bfb 1781 7f94 dc3f
00000540: 8e7e 2448 b4ae bdbf 7e6d 511c 63d6 f13f
00000550: 6dc1 c57f f45b e3bf 1287 be76 0d03 ee3f
00000560: 5fce ceed 1b78 dabf f830 8dfc 9d8a e83f
00000570: 1ded 4386 4f0d ebbf aa1c 2fd9 4f57 f13f
00000580: b9ce 313e 8416 f5bf 3fae a4ab 891e ec3f
00000590: 0b5f 31d7 0e45 eabf 3a89 a2d9 91a7 e73f
000005a0: 2b41 7257 d1ff a53f a58c 6560 9cf5 bdbf
000005b0: c165 02f0 b332 a7bf 0f5b 56bb ada8 c4bf
000005c0: d92a ec6e 6bc0 c0bf f552 92cf 6c53 b23f
000005d0: 75ab 98b9 e01b 9cbf effe df67 8bb4 c53f
000005e0: c62d bd6a cbc2 d2bf 6f39 66ab 9cfe a43f
000005f0: 4d72 d9b7 9d3a d3bf 3960 0171 9f4e be3f
00000600: 9490 afae 0fde dcbf c24a 98e0 f3e9 f23f
00000610: b8ae 72e6 d4f9 eabf 4717 7716 8031 f63f
00000620: a3d0 52e8 3d34 eebf 6fa8 2903 d43d f43f
00000630: 9bfe d328 1c0f d2bf a689 8da4 d705 cbbf
00000640: 55a6 f62b 9d25 b33f 11d7 01a2 cef8 d2bf
00000650: e0b7 4bf7 dfcf c03f d72c df3e 6201 cabf
00000660: 2473 5f46 a9c4 e3bf c647 111b 96a5 eb3f
00000670: 50e7 ca5f 7764 eebf a466 e788 3144 efbf
00000680: e596 a8de 279b ebbf 74d0 ea0b 7b8f e1bf
00000690: 3bb1 ef06 6520 e43f 9493 9c7d 4103 7b3f
000006a0: 9da3 4b32 306e e83f 1ed1 f497 8c97 893f
000006b0: 33da 0d90 eec0 d33f d278 ec6c d985 c73f
000006c0: 283f 93fe 2cf6 d7bf 3242 3893 c5f9 cabf
000006d0: fb60 f1cc d5ca d6bf 1e75 4fc2 d530 f6bf
000006e0: 1484 adb5 c979 cebf caa0 e293 7a8e f4bf
000006f0: bda9 ad02 d704 b6bf 822c 9feb 022d c53f
00000700: a41b 1dd4 578a c7bf 91f9 0efb 966a d43f
00000710: 0ac1 a34a e9c4 b8bf 9b95 8b36 5223 c73f
00000720: afc1 e210 227a d6bf d5bf c37d cf29 edbf
00000730: 0fc7 ae43 7693 d73f 4a19 4d49 db8f eebf
00000740: 9b1a a2ca 8f53 e33f 74a7 50c5 d017 f3bf
00000750: eaed 21e2 43b6 d73f 4499 acb6 32e5 e9bf
00000760: 4a8d e68c bf09 e63f 48de 7ec0 4ca6 ecbf
00000770: f758 8e63 5837 e33f 8149 6dc9 212d e9bf
00000780: c80b 4098 6d37 da3f 5765 294e 5452 f5bf
00000790: 16d4 9f98 79c0 dc3f 99da 812b d273 f5bf
000007a0: 3311 7a10 1a67 e43f 1107 ba46 d3aa f3bf
000007b0: 14b0 10a0 2ef8 b8bf 3679 ce85 3b24 efbf
000007c0: 8c74 65c3 1d82 d73f 894e e7c4 a941 eabf
000007d0: d432 c221 9e5e e23f 016e c9b9 02d9 f0bf
000007e0: cb71 df6b 4e0d e43f 7195 7ca0 f0aa e13f
000007f0: 77fc d345 55eb d23f 686a 2516 d803 eb3f
-0.17927984919656664 0.46893193333393884 -0.524344749611808 0.539497006349869 -0.6429014927345078 0.2499659430850381 -0.5434356237754413 0.7330901828981727
-1.1336118331573408 0.8900848724257115 -0.9515641397232254 0.6243079736170292 -0.308475991748746 0.038411492578035056 -0.28166852886610777 -0.43708846800765877
-0.21709835127602473 -0.0072099784876117025 -0.3628574408843734 0.09179641302344255 -0.539596175706414 -0.18663740428474435 -0.47911699472767105 0.2086956728816571
0.20795602767327148 -0.5710041881376424 0.732312573685076 -0.469241144113454 0.6274317336957129 -0.41806608734664374 -0.38596336807065834 0.5923199082619188
-0.47165475270480667 0.34610094762108984 -0.32626107855680647 0.4252462606483757 -0.2153516481969479 0.1763384108669519 0.1284380027454585 -0.2452768254902201
-0.08614843273308298 -0.09322134429844102 -0.5899340159066917 0.29512362885586657 -0.564980107633975 0.6105092831954867 -0.512226060196527 0.680013179014411
-0.2663024540147223 0.10543699055566347 -0.36331433904833477 0.3529213129008786 -0.28724493584059185 -0.09026487794930886 -0.32846012910343825 0.7540210365062749
-0.01707492170604224 0.5690454200744476 -0.4488300920165497 0.6263637239236468 -0.23528492080603006 -0.7307995531260788 0.4278433116437201 -0.6322818456490599
0.35739929802657316 -0.5281349678165821 0.16981972362679473 -0.01458055631199414 -0.027601223951668162 0.26117973436646386 0.19840230134824047 0.24070382734045853
-0.173741717880384 0.8863538179744128 -0.17352271584637874 0.9004851629551629 -0.4853706428659252 0.778257851373314 -1.102566710423865 0.9061121640818737
-1.1742711680482998 0.8439558412617094 -1.0675517668094756 0.3603338441965106 -0.043209895181783496 -0.16739528963178552 0.07193632012136673 -0.40341470248049227
0.20353272771615197 -0.30743020968874585 -0.21198560502586367 -0.12261344677925233 -0.22461842867738233 -0.37510713633966414 -0.2592738696073531 -0.13084700926083542
-0.0785882382514562 0.7699159575302746 -0.457006431472169 0.686351011822233 -0.5810947324326962 0.707778676554891 -0.4664142685660755 0.629291835414813
-0.8754608993535312 0.7703709561249429 -0.8249105883811675 0.799287967281018 -0.4278785152788785 -0.0016878101275406047 -0.2870781562370368 -0.31227821335495654
-0.3545096347525907 0.10027204909257362 -0.10927051202243362 0.3348916692256786 -0.40750635745065883 0.15457064273015617 -0.025538930955256042 0.05590985617479323
0.5974539366069463 -0.33437543055237484 0.6936240284113904 -0.06334457916746307 0.35336608264642133 0.02766440597626885 -0.3337050821819914 0.638834384637418
-0.14853276052338885 0.7874826231840728 -0.5001246589755964 0.7408406785125231 -0.405856736184173 0.19633253117085547 -0.04755141917359274 0.027913741592848332
-0.332789183444879 0.09893560401767666 -0.60424640778768 0.7820390601517784 -0.7030298725872873 0.6547040522984083 -0.8766502245830423 0.7286956577107995
-0.26057320890942237 0.3790879072609044 -0.3970860334629675 0.3836804235358972 -0.27350430098134637 0.156169739928697 -0.2918635088245129 0.48529344951815734
-0.15866749692092003 0.9631521269567069 -0.4190832141024349 0.5180211562428743 -0.16368840721903716 -0.6111141644782454 0.12625787000205896 -0.610029692447298
0.22483474487707883 -0.4051001364359396 -0.02860873835530581 0.5419767071215934 0.07360310449328664 0.32550823926518563 -0.08152682699638478 0.4465636025124026
-0.11594702492993234 1.1148406130003816 -0.6049749846988967 0.9378726309989551 -0.41358087752744227 0.7669210369727173 -0.8453748342866764 1.0838163837195602
-1.3179972104525588 0.8787277557762038 -0.8209299281106451 0.7392052889520422 0.04296735947093774 -0.11702897408899789 -0.04530870728303738 -0.1613976635678331
-0.1308721820463095 0.07158546512284743 -0.02745009548940965 0.1695722825243062 -0.293139318692479 0.041005035326736265 -0.3004526420025158 0.11838718899650837
-0.4510535436550154 1.1821173451650542 -0.8429970265328484 1.3870850446268876 -0.9438771760528833 1.2650947688621519 -0.2821722410880995 -0.2111157945137851
0.07479269336058654 -0.29643598385824627 0.1313438374995135 -0.20316722936545403 -0.6177564978093852 0.8639631775533807 -0.9497639532994331 -0.9770744012741557
-0.8626899098205426 -0.5487647278555543 0.6289544234728405 0.006594901869708365 0.7634507162411982 0.012496088397349111 0.30865062778267144 0.18377225702801653
-0.3744003759465948 -0.2107474297377095 -0.3561300755877849 -1.386922606491971 -0.23809167262064135 -1.284784867932148 -0.08601135077848361 0.16543613915414218
-0.18390939576258092 0.3190057231658097 -0.09675462791688375 0.18076541579573022 -0.35120441102028627 -0.9113538223591556 0.3683753643955336 -0.9550606185592099
0.6039504010849045 -1.1933143336886731 0.37049958308463593 -0.8092282836776481 0.6886899711575236 -0.8953002700499804 0.6005060142950062 -0.7867592748755642
0.4096330630129015 -1.3325999310676104 0.4492477407905552 -1.340776605558551 0.6375856706440913 -1.2292053950081405 -0.09753695876924012 -0.9731729138764311
0.3673166664282881 -0.8205155225536639 0.5740500125262664 -1.052981115083526 0.6266243082896436 0.5521166929726588 0.29561359233043255 0.8442192490140998

encoder.weight_hh_l0 f8 [64, 16]
00000000: bfed 7da3 34b9 d5bf 1d59 9e0d ccb3 f23f
00000010: 584b 5252 7db7 dabf 628e 2025 cac7 de3f
00000020: 4346 ecc3 c53e e03f 87dd bd44 7b0a ebbf
00000030: ec3d 8c01 9310 f33f 792c 89bd 5af2 e63f
00000040: d38e 2ac5 3a05 ec3f 28bf 8cb2 8af4 d43f
00000050: c7c5 e347 f593 e23f 56fd 1a3b 74f9 e7bf
00000060: 3d0d d1bb 9bab ebbf 7217 d163 b98e edbf
00000070: 2bc6 674f 2375 e43f 3e98 2202 655e e7bf
00000080: f176 4973 6704 a3bf 8fdd 3b50 8fa6 e9bf
00000090: 7803 855e fdbf d93f 3ffc 5da6 24b9 cfbf
000000a0: 728c 8a76 82dc c9bf 710d 4498 c993 d53f
000000b0: 5570 c2bb ecc0 eabf f754 ba83 0a3e c8bf
000000c0: 33f8 b29d 3d8d e4bf 19e0 544e 6876 c13f
000000d0: c77a 2731 789b d7bf 49e9 2e33 a615 f53f
000000e0: 3449 3169 445d ef3f 4042 b0bd 05f3 f43f
000000f0: 23f0 d070 d2d8 dcbf 29da ffc7 f01d ab3f
00000100: 15a7 6895 351d d6bf a6ab 627c ed4e f23f
00000110: 6c21 3772 245f d5bf 518e b87b 7f57 dd3f
00000120: 59af c932 c6ad df3f 4b68 0aa0 3db2 dcbf
00000130: 3b59 c822 ceae f53f 1116 762b 802d e93f
00000140: 49d7 bf8e 4079 ee3f e58b e777 5f16 e53f
00000150: c32d f281 c3f9 d43f 1caf 05d9 4b15 f2bf
00000160: 5722 4d8c fcc4 efbf 8dbf 5e0d 7ae8 edbf
00000170: afef 42ed 9801 da3f 433f 9135 718d e0bf
00000180: 264b e75d 5000 e2bf fdb8 82de 1337 eb3f
00000190: 43f6 d7a7 bc94 e2bf c4f4 e3f8 6a72 d83f
000001a0: d7e4 9928 423c da3f 5adf c8c3 e41e e7bf
000001b0: ce16 8181 fc60 f03f af7b 6daf 71a6 e13f
000001c0: 70b8 a22f 2b8b f23f fd62 68be d170 e43f
000001d0: cee9 457f e64c cb3f ced6 e051 8712 ecbf
000001e0: 1047 af8f 9020 eebf 5fcc 3c93 58a0 f0bf
000001f0: 7ef8 5239 3009 d73f 42fe fd92 ad2f e4bf
00000200: 5755 d183 be42 e2bf f1ea 3795 b3ce f03f
00000210: 9cb0 d733 3285 e4bf c4bd f7b1 92c5 d13f
00000220: 83fd b31f 95e5 d13f ee83 eb35 236f d2bf
00000230: 7836 bda5 541d f13f 3098 62df 5914 d23f
00000240: f1ae 8e7c b587 f13f 3794 6ccb ac0e db3f
00000250: 4bab 9308 cfe5 d83f 4d44 db7a 6ef3 eebf
00000260: 57d0 6303 dee8 f4bf c09f 547e efce f2bf
00000270: 5c3c e25c 2ff5 e43f 0289 4548 b415 d5bf
00000280: 197d 07d7 39a8 e1bf a31f 1f5d 689d e63f
00000290: 0363 a5db 9b74 e6bf 2334 5d0a 074d e43f
000002a0: 6a9c 92ae a8d4 dc3f 32b3 51a6 a284 e2bf
000002b0: ff42 1e78 1a57 e93f 93b1 0a47 3fbd da3f
000002c0: d561 fe1e 5e34 f03f 5256 b423 0e02 da3f
000002d0: c7d2 1a72 0782 df3f dd40 a781 4a0b ecbf
000002e0: cfb9 4001 967c f0bf ff8c d718 f7d7 e3bf
000002f0: 8eba ec0c 247d e93f 3dc5 0f37 bcbc ddbf
00000300: c6b3 3b17 e88f cabf 009d bd8b d961 dbbf
00000310: 5782 7d9b b15c ac3f 8639 9a51 7be3 c4bf
00000320: 98e5 d706 6a61 ccbf b30a 7f1f 551a dc3f
00000330: a93d 7b48 fc1c eabf 0f73 9d00 0f73 ce3f
00000340: 9312 2b16 c78a eebf deca 40d1 365c b93f
00000350: 361e 2627 c3eb c23f 60b5 3dd4 0550 f13f
00000360: ccca 8628 0b48 f53f 10b3 2279 5a97 f03f
00000370: f89f 79b7 c5da ddbf 84c8 2e49 20e4 c03f
00000380: 7a98 c445 4298 cabf 92d3 5818 1e35 e23f
00000390: 220e fc28 0ca4 e4bf a628 1d9a cd67 e43f
000003a0: cac7 e78c e02d db3f 3a82 b5a2 3ffb d8bf
000003b0: 2179 a113 7dc0 ef3f c27d b711 5a5f d13f
000003c0: 3bbe 032e d7a3 e53f c2fa 6294 fbf7 d33f
000003d0: 3fa1 25cb 2160 c93f ed0f c3f1 b632 f0bf
000003e0: 7fc3 428b 6280 f1bf bb53 2ee2 711e e5bf
000003f0: 624f 905c 5ba1 e73f 861b 4d68 2cb9 dbbf
00000400: d1f5 ddce ecde c63f 5ac3 453d 9c72 ecbf
00000410: dbbc d381 50b6 df3f dd74 baaf 4524 c6bf
00000420: e6a7 497b 64ed e3bf 3fdf e93e 5420 e83f
00000430: 21d8 405b fa79 e7bf 6178 5f76 5006 c3bf
00000440: 4129 87a2 c2b6 ebbf 2bee ab5d 5da2 c43f
00000450: 0b97 0942 0c9d cdbf 20b6 c82f cfe6 ee3f
00000460: 8b6a 667b fb85 f43f 07c3 d2ee baab ec3f
00000470: c154 c48a 073c e1bf beed 864d 0156 c63f
00000480: bc06 46cd 2a64 e9bf 733e 8be0 e0b6 ec3f
00000490: 2e33 fed2 54cd e5bf 5e70 33c6 d712 e33f
000004a0: 520a 5aff d627 e73f 25ef 963b 0685 e2bf
000004b0: d7ac 7861 5b98 ee3f 78b1 aa4c e31f e83f
000004c0: 16eb 4ef9 2805 e93f 142e 2c63 1929 e53f
000004d0: 5d14 bf04 240b dd3f 7270 4570 0966 e7bf
000004e0: d7fe f0c8 3204 ecbf 849b fdcd b494 eebf
000004f0: 02a0 aafb 42ea e93f ff53 c0c0 9991 e9bf
00000500: 9d8d 9ad9 c337 e7bf 22dd 1c21 085a f23f
00000510: 78b7 fe74 b6c1 e5bf 9b31 d569 7d5b e03f
00000520: d8a2 ee05 a81d db3f 5d81 c8a2 9a2a e1bf
00000530: a060 b70d 543d eb3f aebd 76bd 82e6 e63f
00000540: 35d2 b865 115f f03f bdfc 8858 a22b e73f
00000550: 0993 fae5 59e7 e23f c495 7351 bf4d ebbf
00000560: 95b2 9a6c 27d2 efbf b09c 076a 9511 eabf
00000570: 12c6 31d8 f005 e53f 4cd4 b9ab eb4f dabf
00000580: d987 bcfc 3e68 e93f 91cd ed4a 6c7b e7bf
00000590: 0c23 319b 9a53 e43f d77e bfe9 caaa e5bf
000005a0: 6c61 d6d7 8219 e1bf 8e9a 19ce b7a8 ec3f
000005b0: 8282 18d1 4b29 e5bf 70cc 4909 ab3f e6bf
000005c0: 4ee7 9443 6812 e9bf 3b92 ce76 f325 ddbf
000005d0: 8bee 9a4e 6bc4 e2bf 90a5 2752 a84c f13f
000005e0: b384 62ab cce4 ed3f fa9d 452b b8af e73f
000005f0: f01b 8994 345e e4bf 7b35 6878 9e03 e03f
00000600: 1b24 c838 07a1 e33f ffd0 f4c4 4228 ebbf
00000610: e450 aa5a 9f67 e83f a73b 5a7c 97df dabf
00000620: 87ed 3c95 be34 edbf 102c f739 663c e03f
00000630: bb02 0097 9bdc f1bf 9e88 1b15 38e9 dfbf
00000640: ddb6 1f34 29a4 f1bf df24 f87d 4dd9 debf
00000650: f8f3 094e 213a e4bf 37f5 bb64 fc6a f03f
00000660: 7bb5 092d fdaf ed3f 47a9 0782 0595 f23f
00000670: df5f 9d45 bb5c dcbf 9d5e 9494 5a7b ec3f
00000680: be22 5ed8 d53f e23f 8dc4 ccd8 6186 f4bf
00000690: 35d8 1706 4fc8 e03f 0073 df15 17de d7bf
000006a0: b81d ad42 5233 eabf c10e 7ca6 cc23 e93f
000006b0: dcf1 b11b d8b0 f3bf 71fa 377d 3142 e6bf
000006c0: 3aae 796b 4126 f3bf a9ca 1b0a a079 e4bf
000006d0: 2b1e 6c53 9fb4 ddbf 01b3 3f5f 5284 f33f
000006e0: 2969 67eb ed10 f23f 9116 1380 eb44 f53f
000006f0: e25b f02d e5b7 e4bf 99f8 bff7 e002 e83f
00000700: 117e 6afc 074c e6bf a5a4 36e5 f230 f63f
00000710: 0b10 dbd4 b340 ddbf b897 354e 4027 e63f
00000720: 3cd8 6091 6a1c e63f 1edd 1220 5d00 eabf
00000730: 7d05 e9be eb40 ee3f ab64 4582 1394 ea3f
00000740: 017e 5aa9 5a36 e93f ed25 5ba7 4959 e83f
00000750: 2af4 705d 71d5 d93f a4b8 b932 5e28 f1bf
00000760: 3ffe 2eb0 ffd6 f5bf b9a5 870c b95a efbf
00000770: a827 0edd fd02 db3f e41e 0f69 9acb e1bf
00000780: 57f7 3c33 64f5 d4bf 50a7 0be7 ffbf ed3f
00000790: 5523 4c4c 191e e2bf 158b c7c6 b27c d03f
000007a0: bb71 5489 ffda d63f a41a ba05 776c d8bf
000007b0: 1135 35aa dd99 f23f 90f6 fa9b 8102 e33f
000007c0: daf2 e3a7 7749 f03f 573f 9cf0 9487 db3f
000007d0: 5f03 033a 46a5 e13f 7573 94f1 d27d f1bf
000007e0: 9ad9 fae7 c6e4 f1bf f3f3 f67d b0fe f3bf
000007f0: db42 ef99 9097 dc3f f47b bcbf d1b5 e3bf
-0.33942905393606887 1.1688957721685889 -0.4174493125839738 0.4809441912241025 0.5076626612300931 -0.8450294821367813 1.19154644589059 0.7170842840072417
0.8756383753684197 0.3274256461763678 0.5805612949463289 -0.7492009310152905 -0.8646982830327158 -0.9236723851724788 0.6392990637670598 -0.7302727739049784
-0.03714297563850078 -0.8015820090358136 0.4023431227724852 -0.24783762095828085 -0.20204191959519197 0.33714523191175433 -0.8360503832987073 -0.18939334327720989
-0.6422412948666135 0.1364260084608311 -0.3688641052266743 1.3177854537339775 0.980135159925601 1.3093316468913514 -0.4507337667198518 0.052962803281776445
-0.3455327948637302 1.14426945293483 -0.33393202928393495 0.4584654529773831 0.4949813362097664 -0.448378950395299 1.355177055234505 0.7868042801716816
0.9523012912820629 0.6589810697445243 0.3277443665508281 -1.1301992871694386 -0.9927962055454128 -0.9346285115370719 0.40634749574723633 -0.5172658964383817
-0.5625383218815372 0.8504733415518612 -0.5806563642688122 0.3819835119791828 0.40992788281398646 -0.722521192924414 1.0236783083686762 0.5515678812333727
1.1589767323271438 0.6387718886281558 0.21328431334025172 -0.8772617911515341 -0.9414751821843499 -1.0391469718422497 0.3599358138852792 -0.6308200713101046
-0.5706474852146738 1.0504642323346014 -0.6412592899846632 0.27768390063917203 0.27963760467533677 -0.28803329721091486 1.0696608041938855 0.2824921304221588
1.0956320634385828 0.4227706896365961 0.3890264114149217 -0.9672157668629865 -1.3068523533265954 -1.1755213675296403 0.6549298109183712 -0.3294497209336812
-0.5517853927412119 0.7067148035794059 -0.7017344751321563 0.6344027712272048 0.45047967002978473 -0.5786908386631693 0.7918827386912141 0.41780073106453947
1.0127850733461987 0.4063754414249604 0.49231134551091 -0.8763783008853597 -1.0304164933146358 -0.620112942237398 0.7965259792743653 -0.4646444833479853
-0.20751668104585813 -0.427847277131562 0.055394697409387454 -0.16319219097608711 -0.2217228444494992 0.4391072089748988 -0.8160382667210132 0.23788630991011714
-0.9544406350110698 0.09906332596510078 0.14781989490096387 1.082036809031102 1.3300887663905767 1.0369515163285463 -0.4664778033970829 0.13196185658813786
-0.2077715721763445 0.5689840770270271 -0.6450253296356474 0.6376712808644427 0.4246751190213415 -0.3903349961238153 0.9922471412099051 0.27144481401589016
0.6762500666354251 0.31201066485293094 0.19824621600424483 -1.0123815006090766 -1.0938439788698984 -0.6599664132687545 0.7384468849072443 -0.43317709146179373
0.17867813206605246 -0.8889905163506271 0.4955025928347376 -0.17298194008336668 -0.6227285774195905 0.7539464215069315 -0.7336398870745634 -0.1486301973336053
-0.8660596060156324 0.16120497773941742 -0.2313552210281887 0.9656749661714379 1.2827105350794763 0.8959631599919654 -0.5385778150836346 0.1744996670293925
-0.7934774407624086 0.897324026644084 -0.6813148613888182 0.5960501547920207 0.723613260968998 -0.5787383235797036 0.9560982612360033 0.7538925645254002
0.7818798894216765 0.6612669884647766 0.4538049742080313 -0.7312056725309175 -0.8755124973904128 -0.9556526206259695 0.8098463931428344 -0.7990235104249449
-0.7255572557518694 1.1469804089991347 -0.679896572595438 0.5111682002112049 0.42368507937730504 -0.5364506892547457 0.8512363689324225 0.7156385136094536
1.0232099507822003 0.7240764359666155 0.5907411090634876 -0.8532406416749656 -0.9944035645654191 -0.8146464415448431 0.6569751951739724 -0.4111279656420421
0.7939753471621273 -0.7338162864165715 0.6352055579273794 -0.6770987096205897 -0.5343641486715973 0.8955954575911436 -0.6612910350705337 -0.6952719861423144
-0.7834969825700939 -0.4554413471435372 -0.5864769492395266 1.0812152108358966 0.9341796252594093 0.7402001233248818 -0.6364996815763089 0.5004417754841336
0.6134067639369535 -0.8486646506121643 0.7626492281729296 -0.4198969568614594 -0.9126885332874942 0.5073729641093241 -1.1163593195380332 -0.49860956250462063
-1.1025783573235721 -0.48201310445490536 -0.63209595910996 1.0261196074419112 0.9277330283781987 1.1613822058958065 -0.4431598834830747 0.8900578405327512
0.570292399018477 -1.2828081578011592 0.5244517439848609 -0.3729303086854969 -0.8187648107786378 0.7856200458195063 -1.230674846824619 -0.6955802388836912
-1.1968397329573137 -0.6398468205864748 -0.46414931437218127 1.2198051186234695 1.1291331477610334 1.3293261530792828 -0.6474481484646015 0.7503514136185628
-0.6967811517715196 1.386950393071211 -0.45707412516299034 0.6922914054418845 0.6909687842769539 -0.8125444055976094 0.9454249123302102 0.8305757088047775
0.7878850276646859 0.7608993786499788 0.4036525166046113 -1.072355459352857 -1.3649899370356164 -0.9798245663379738 0.42205759608679694 -0.5561039020476213
-0.3274775028584051 0.9296874535186621 -0.5661741724189634 0.2576109830098841 0.35711658869857005 -0.3816201740195686 1.1625649117225445 0.5940559431544035
1.0179363783092215 0.43015025612929975 0.5514250882189166 -1.0932187496866537 -1.1183537542070554 -1.2496800346846129 0.44675078423192155 -0.615944742665191

encoder.bias_ih_l0 f8 [64]
00000000: b7c1 caf4 c85c e0bf 9e1d ed28 3872 e1bf
00000010: cf20 8f9c 531e e2bf 4f0c 08c1 3dd7 d0bf
00000020: 07d5 a436 875f d4bf db32 859d 7ad8 d9bf
00000030: 9dbe a889 933f d7bf 705c 45bb 0f08 c1bf
00000040: e4ba 2025 6527 d5bf b5e6 1228 e59b e5bf
00000050: 8561 6bcc 4125 d7bf 0b24 ab3a affa ec3f
00000060: 9e15 19ea 9a9d e63f ea4e afcf 7eb4 e63f
00000070: cc3d 63e5 ac38 ecbf d486 463b 39b9 d1bf
00000080: 417d f92c a955 e0bf 5b49 a37f 5702 debf
00000090: 7bde 3385 b938 e7bf 2260 5da2 83c7 d3bf
000000a0: b33d 76ba 097b e7bf f9ab 7c15 0a14 cdbf
000000b0: d48c edeb 6b83 e3bf 40b5 5de0 3ab1 a53f
000000c0: 9c92 a005 9fdd debf be7a a80d 0ae5 e0bf
000000d0: a06a eaad 17d4 e4bf 4bf2 21d1 901b e33f
000000e0: 3412 cd2e 8935 e63f 5d3c 0205 0130 e13f
000000f0: 8aed eb62 5ea1 eebf 75fd 71fb 1e69 e1bf
00000100: cc70 59ec 50ef bebf 68bf fad1 197f e6bf
00000110: 054c 3a39 b7de e0bf b7cc 53bf 8cf9 d2bf
00000120: 35cf 293e 5a53 e4bf 304a 9266 b35d db3f
00000130: a1a5 76c9 ce27 e1bf f0e1 3c35 c37c e1bf
00000140: 2a62 dca9 94d1 e9bf b4a7 777d 9703 c53f
00000150: 3732 23d9 fcaa d33f 8947 be2c c272 ee3f
00000160: 0326 6ba2 0c2b f13f da83 5bd2 5ac6 ea3f
00000170: 4d70 a164 878d c93f 3c23 5d93 c0d2 d03f
00000180: 75f0 2f86 493d d5bf 4be2 94e7 2507 e3bf
00000190: bee1 c6c4 1814 e7bf e704 eec7 135a e4bf
000001a0: 32c1 3cc3 f7e3 d8bf 57c5 b387 4d0f e5bf
000001b0: 9fa1 2f3c c165 e6bf 4216 e058 cdca e0bf
000001c0: 88ed afd5 fda2 d1bf 7611 e956 be3f d4bf
000001d0: dff8 bd56 070f d8bf 5247 509c b782 ec3f
000001e0: 7217 0212 1295 f03f 0b5f 831c c17d e63f
000001f0: cd07 aac2 e2f4 e8bf e510 f9f0 2d45 e1bf
-0.5113262921423062 -0.5451927947369091 -0.5662019784731686 -0.26313728190161084 -0.31833057724300357 -0.4038378275188685 -0.36325539057995987 -0.13305851596917107
-0.3305294859482457 -0.6752801687900588 -0.3616489883693464 0.9056011339063174 0.7067389080263415 0.7095331245750149 -0.8819183807590263 -0.27693014896986523
-0.5104566458138963 -0.4688929316008818 -0.7256744004834695 -0.30905238014156755 -0.7337692872842382 -0.22717405366105917 -0.6097926719634423 0.042367782486375294
-0.4822766833261001 -0.5279588953743184 -0.650890197447854 0.5971149525281104 0.6940351404269394 0.5371098611666515 -0.957198327261197 -0.5440821562805654
-0.1208391739868972 -0.7030152417337208 -0.5271869771698908 -0.2964813106947974 -0.635174867069941 0.42759404198401096 -0.5361093458970353 -0.5464798011590215
-0.806833583602445 0.16417211176240942 0.30731126026947514 0.9515086053745431 1.0730100960230409 0.8367132290405792 0.19963161862949833 0.2628632964229387
-0.3318656740591515 -0.5946225665166563 -0.7212032168673017 -0.6359957604292078 -0.38891405168671433 -0.6581180239137819 -0.6999212432393057 -0.5247561202856519
-0.2755732142247429 -0.3163905953154179 -0.3759172770586598 0.8909566929816981 1.0363941863483572 0.7028508717439491 -0.7798932840380474 -0.5396947580816486

encoder.bias_hh_l0 f8 [64]
00000000: b8c1 cae4 9af6 e1bf 4f3b dad1 0439 dbbf
00000010: cf20 8fac 4dcf ecbf 2806 8400 96eb e1bf
00000020: 7a6a 52bb 2f1a e6bf 6f99 c2be f8f1 e2bf
00000030: 9ebe a829 487e d3bf fb46 7509 57c4 b43f
00000040: e8ba 20e5 6c4b d1bf b7e6 12b8 f872 e1bf
00000050: cab0 35c6 eed4 e4bf 0c24 ab5a 606f eb3f
00000060: 9b15 198a 4c57 eb3f ec4e afef a927 e03f
00000070: c83d 6375 91d3 ecbf a00d 8db6 71a1 c3bf
00000080: 407d f9bc d9a8 e7bf aaa4 d16f ba54 e0bf
00000090: ebbc 678a d50e d8bf 2a60 5d62 3c95 dabf
000000a0: 747b ecf4 f586 dabf 0156 be0a 2b09 d4bf
000000b0: d68c edeb 7ad1 e0bf 67b5 5de0 6aac a93f
000000c0: 1c25 410b ef28 c4bf bd7a a8bd 5543 e4bf
000000d0: 40d5 d49b ba6a ddbf 49f2 2151 94f5 e33f
000000e0: 3512 cd1e 311d e23f 5e3c 02d5 8bd4 ed3f
000000f0: 8ded eb02 90e6 e0bf e3f5 c72d cbff c8bf
00000100: 5de1 b2d8 f726 afbf 66bf fa31 b528 e7bf
00000110: 0998 74d2 0718 d9bf 7599 a7be d748 cbbf
00000120: 953c a7f8 08ec c7bf 324a 92a6 09cc d43f
00000130: a0a5 7629 cdae e5bf eec3 794a 8b82 dcbf
00000140: 2d62 dc19 aef3 e1bf 1c61 210a 289b a4bf
00000150: 1c99 91fc 1432 e73f bd23 5f66 84c0 f13f
00000160: 064c d6b4 e916 ee3f e083 5b52 7a6a e93f
00000170: 26b8 5072 ca1a dc3f 9391 ae09 b054 e23f
00000180: 39f8 1723 9f6b e7bf 81c4 298f eba0 d1bf
00000190: 7fc3 8da9 6f12 debf e509 dcef dfc3 dbbf
000001a0: 9d60 9ee1 d76e e0bf 56c5 b387 d86a e5bf
000001b0: 5343 5f98 5ce8 d0bf 8b2c c091 445c d9bf
000001c0: 87ed afd5 16d9 d7bf bb88 749b fc5b e4bf
000001d0: 6bfc 5e2b 462f eabf 5447 50dc 13df ec3f
000001e0: d92e 0484 bb80 e63f 2bbe 0699 dc05 db3f
000001f0: cb07 aaa2 896b e1bf e321 f201 d78f dcbf
-0.5613531559557066 -0.4253551530209067 -0.9003055925650417 -0.5600080499718318 -0.6906965883857332 -0.5920375562462094 -0.30458263462331014 0.0811209104624843
-0.270228599317234 -0.5452846141044664 -0.6509927626880423 0.8573457499379642 0.854406614039067 0.5048417741149627 -0.9008261959769976 -0.15336438573477285
-0.7393616381558914 -0.5103428062403925 -0.37590540424476043 -0.415358635005307 -0.41448735159240546 -0.3130595784108153 -0.5255713088958156 0.050143566025193924
-0.1574991993859748 -0.6332195953617298 -0.45963921754749393 0.6237279495831639 0.5660634614546952 0.9321955833746747 -0.5281448418676732 -0.19530620322613776
-0.06084417839287213 -0.7237192131196764 -0.39209170868196047 -0.21316048440275961 -0.18689071790001735 0.3249534727739586 -0.6775880632241531 -0.4454677798558454
-0.5609961037726571 -0.04024624942457164 0.7248635228141072 1.1095012663738395 0.9402969867682038 0.7942477806610633 0.43913518107990723 0.5728378476238042
-0.7318874059126365 -0.27544678669716666 -0.46987525518402856 -0.43383024619848093 -0.5135306746115195 -0.6692927027162721 -0.2641822326668734 -0.39625658257927715
-0.3726250731267204 -0.6362288509592625 -0.8182707640734298 0.9022311499595426 0.703214414448179 0.4222327703855366 -0.5443771531138223 -0.44627928915045184

encoder.weight_ih_l1 f8 [64, 16]
00000000: 3c54 099a 3780 ddbf ad46 d4a8 8ca6 e93f
00000010: 4c63 e1af 2bea d4bf 436e dcfb 99fd d73f
00000020: 04f1 ee5a f2eb d33f 1946 bc71 befa cabf
00000030: ac61 41ec bf68 dd3f da88 b8a5 03e9 743f
00000040: 3e7c d6dc 6a25 b93f 00f3 16d1 a92d a3bf
00000050: c3b0 0cde 40d5 e23f c68a d630 52e2 c13f
00000060: b242 adaa 4da5 973f 5503 0bd8 1714 be3f
00000070: 8e74 265b ef58 de3f 4209 e5da a3b6 ddbf
00000080: f58d 74e4 01c4 f0bf 35ed 48e7 eb03 d0bf
00000090: afe4 3b4e 5e68 f1bf aff3 cb05 bfc6 f03f
000000a0: dd61 755e 1502 ee3f 70c9 5294 782a edbf
000000b0: 3b7a b351 f339 d2bf 7782 1039 9379 e63f
000000c0: bf17 258b af40 d03f 0398 3ce5 ec12 ef3f
000000d0: 89ce b5c4 e12e ef3f 3a67 8bcf 2789 d7bf
000000e0: 165a bf24 f1ba d4bf b884 97ba 1df7 ccbf
000000f0: 2c4e 65f8 e1d7 f13f 341f 85bc d2bd eabf
00000100: ca9b f6c5 d273 d53f 9428 5abd 2b7e f1bf
00000110: 326b 6947 27de d63f 3d4d 305d 7d98 b3bf
00000120: 1a8b 1006 0149 dfbf 2c91 2656 28d1 d03f
00000130: 7eaf 7ae4 6cf7 e7bf 88dd c890 7391 bfbf
00000140: 1a3c 24e8 76be c4bf 69e9 bfd1 7685 cabf
00000150: 85c7 b447 1745 e2bf bfdb aa3f 3117 ce3f
00000160: d1cc fa57 f92e c53f 8394 ec0a f224 d23f
00000170: 1c6e ba91 121c e0bf 2c27 ac2c 8cac dc3f
00000180: 7ce3 e94e 0e69 db3f ef5a 45a9 ea04 e83f
00000190: 4365 9d33 5566 e23f f49c b783 0eba d9bf
000001a0: cc8a 5996 c69e c1bf e4b2 228b 6b3b d63f
000001b0: 1f2e e946 bc6e e53f 44bb 318d f9dc debf
000001c0: 2f09 4a59 a387 e03f 881d 9407 4f1e e1bf
000001d0: 2d9d c0c4 242a dabf 65e1 aaf4 88ee c8bf
000001e0: fb22 7e38 a108 e8bf 1ee7 0b91 5dbf dbbf
000001f0: 723e 16b4 07be e0bf 8ce7 6ca3 2913 dd3f
00000200: 4813 3b3e 9b30 abbf 641f 3867 4226 f2bf
00000210: 7719 dcea fd64 d93f efe1 0bf2 eee5 d7bf
00000220: 32e7 3127 eb34 ccbf 96ad aced e29f cbbf
00000230: 3bfc e83c 61ab e0bf e730 e8e8 7c5d b23f
00000240: 1c9b 85a1 9e01 d1bf 40ba 3cab 47c7 bdbf
00000250: bd97 9862 70b9 e2bf f016 fd3d 6956 66bf
00000260: 8691 4b38 7ee2 b33f b1e4 3702 3103 b83f
00000270: 6f03 3629 9ee4 ccbf 0cfb d163 2893 b93f
00000280: ea5a d3ef 4e09 d9bf aa89 a6c9 4910 e43f
00000290: 7b56 db32 d305 c5bf d026 1851 ece4 d93f
000002a0: 468d 649d 581e e13f ef7d 5a6f d057 e1bf
000002b0: 9b6b d385 a7ac e33f 8847 6baf cabc d53f
000002c0: c930 8186 d01d f03f abe4 dae5 74a5 d73f
000002d0: 5d25 95b0 5ebe d13f 58f5 6819 4405 ebbf
000002e0: 5485 79f1 2872 e9bf 9141 8d8d e2e2 edbf
000002f0: 04fd ef97 33da e63f 07c7 933b ff7b d2bf
00000300: 1608 8dfc f2e9 cb3f 22cc 3cdc 8cf0 f9bf
00000310: 685e 226c 9142 a63f 8df5 8c85 4bb9 c3bf
00000320: 3dcb e318 2f0f d7bf d49b 50e7 4b68 c43f
00000330: 3c3f 3bf2 d89f e5bf dc76 d496 72b7 b43f
00000340: d620 390f 1470 e6bf 44d6 e029 11a2 b23f
00000350: bbe8 bc5b bcf8 bfbf 4297 bb42 7cf3 d93f
00000360: b396 e37b 3566 d63f 18c2 9b49 7a5c e43f
00000370: 6ba3 d133 0948 d2bf 8e64 14d0 b4b0 c1bf
00000380: 1d26 08e7 b1f5 b2bf 47f2 c1a7 c777 da3f
00000390: ae2e a9c3 6895 d5bf b331 1eb9 1250 d33f
000003a0: 0c3a cb99 dd8b d73f d470 6ca2 efb6 e1bf
000003b0: 17be 0bf5 775d de3f 4282 228b 15f7 d63f
000003c0: 3748 06cb 371e e03f 15b8 0e84 0d53 cd3f
000003d0: 1c78 bf8c d1b3 cfbf a7cb 0088 7da9 e3bf
000003e0: 071e d244 bac3 ebbf b495 bb85 5c5c e7bf
000003f0: 26a5 ccdf f1ea e33f 5f07 c95c 4258 e0bf
00000400: 8234 cd98 c8fc de3f 7662 2488 c661 e03f
00000410: 971f 0b52 9608 e03f a107 90e1 6ed2 d2bf
00000420: 1bc5 fee6 456c b3bf 4f83 958d 9350 bcbf
00000430: 300e 62d0 9137 df3f e84c 36ff db70 d4bf
00000440: 8d0e cbfa e513 8abf 9979 8afa cc0c dcbf
00000450: 397c 1bbf fa3d dcbf ce88 5da3 7aa0 da3f
00000460: 9374 46b1 2610 b7bf 7ce1 9287 f5ab e23f
00000470: 5b2f 9c32 13c3 c8bf fb44 ef67 f540 c83f
00000480: 5587 ae8c d41b c73f d79c 09c5 4a1f d0bf
00000490: 904e fe80 bc89 b83f f8cd 60c7 7c41 cebf
000004a0: a648 c64a f2dd a13f dd52 1099 5488 b83f
000004b0: 387c eb4b 1741 d0bf 9fcc a20b c796 bd3f
000004c0: 78a0 9734 7815 d43f a82e 8d40 81e0 9d3f
000004d0: ff07 e7f2 e352 e2bf 8a76 15aa 845d d4bf
000004e0: e733 329a e308 d3bf 859d bb93 14a0 bfbf
000004f0: 85ce 3937 a68c dbbf f6a4 ce3b d617 b23f
00000500: 1e2f ea4f 1902 cabf cc89 0b6c 0c60 e83f
00000510: 7c5a 6967 a521 d1bf e975 8b04 2b2e dd3f
00000520: c67e ba80 2e0a d03f c7ce 94f2 19d5 dcbf
00000530: 74b7 f625 5537 de3f 567a d260 46e8 d93f
00000540: b29c dd4c 2dba e93f 0594 1780 69a9 ce3f
00000550: ae91 d69b 18af d63f d9e2 f253 8728 e2bf
00000560: 275b ed38 1f91 f0bf 579f b4b6 e3e6 eabf
00000570: ebe9 fccb 3224 d03f 8d68 49e9 1fb8 ccbf
00000580: 2c11 cdb8 1143 ccbf 5eef 8ec6 a637 eebf
00000590: 9896 8067 6ad0 c43f a104 e518 b234 a7bf
000005a0: 2425 80cf c076 c73f c0b4 ea90 a8d0 d8bf
000005b0: bd70 0920 c585 c9bf fb9a e815 42c2 d93f
000005c0: 7188 0887 5032 bb3f 5a1a 1764 b264 9e3f
000005d0: 23b5 f005 0c2e e1bf 52ce a27d 5e86 aa3f
000005e0: abb3 f5a3 e26c 93bf c02c 74c0 68fa c4bf
000005f0: 29b4 fa58 c9a1 b9bf 1f1a 2bbb 883a b1bf
00000600: bd33 00ec 21c8 dcbf 3897 1547 31fe f5bf
00000610: 838f 6d9c 83f8 bc3f 4583 f1fe 0300 d93f
00000620: 33cb 9fac e556 a93f 3d2f 73ac 8732 e0bf
00000630: 40ef 2c2a 07c2 e6bf ad36 5ff1 850a d23f
00000640: 3ac9 b8c6 c723 d9bf b42f 6b73 0f77 d73f
00000650: 9fac 9b8e 7d0e c9bf d8f5 dfba 5998 db3f
00000660: 3f7f 40d6 eb59 dd3f f94f a726 567e eb3f
00000670: 914a 34fd 2912 9b3f e80b 347a bc8e d4bf
00000680: 6e14 3e54 2ec9 b63f 15b7 7469 7e38 df3f
00000690: 8269 452b 7530 dd3f 1af0 a2f9 28a8 d3bf
000006a0: aa6a ab67 0ba8 c93f 55b3 92af f111 d3bf
000006b0: 133f a8af 83ec dd3f 523e 2421 1844 a23f
000006c0: 2c3c 4cad 7204 e63f 25eb 023d fbc0 cebf
000006d0: 4cfb 46ae 34ea edbf 7f8c 2bba 8721 e8bf
000006e0: 922c 6d77 3887 ebbf 524a 2b91 de64 dabf
000006f0: 865c fa71 9ec2 bebf 9cff d986 e010 c53f
00000700: daef 2d71 401e da3f 0687 2621 670b de3f
00000710: e550 6be9 df44 e43f 38e6 8806 5faa d9bf
00000720: 9800 a548 b880 e7bf e0c6 9f63 d613 e73f
00000730: 44c7 704e 8b59 eb3f d5da e9b8 f6bd e8bf
00000740: c5eb 439f 728a da3f 9f28 17a8 f223 e2bf
00000750: 6931 486a 3eb0 e9bf d504 ca0c 947a e1bf
00000760: 4a94 7109 7eec e0bf 4e9e a887 8a85 e9bf
00000770: ce4f 0746 e47e e5bf 18c9 07d8 8edb da3f
00000780: d82d 17b8 299d d7bf 5aa6 cf11 2181 e43f
00000790: 0d04 394a e04f e3bf 2c82 81f2 76a6 df3f
000007a0: 1337 564f a605 d53f d609 b0df 6fe2 e3bf
000007b0: d496 6dc5 4166 ea3f 78a5 5d4b 5296 e73f
000007c0: 2f4b 8cd6 7634 e53f 0cbd 3eaa 310d d93f
000007d0: ad76 ec3a 1d7e e33f 00d2 4619 1faa e7bf
000007e0: d747 6c11 81e2 e9bf 9cc4 4667 ea27 e7bf
000007f0: ef6c 364f ab5d e33f 8229 bf44 c270 e2bf
-0.46095075647946593 0.8015807435460452 -0.32679264236280825 0.374853607137741 0.3112760437031883 -0.2107770972584582 0.45951841422859263 0.0051050322031491405
0.09822719470547356 -0.03745775868762813 0.5885319077401835 0.13971927055998473 0.02309151987293729 0.11749409698951514 0.4741781606806591 -0.46427246452744353
-1.047853367236596 -0.250239349235659 -1.0879805618299476 1.0485220171387757 0.9377543301480348 -0.9114344498578202 -0.28478701571103543 0.7023407091656527
0.2539481028401233 0.971060226180953 0.9744728891368634 -0.3677463080217539 -0.3239100321638103 -0.22629138575488184 1.1152057364423724 -0.8356717760115999
0.3351942952380652 -1.0933034321374508 0.35730916951949887 -0.07654555821527693 -0.48883081047294896 0.2627659646334617 -0.7489532911763346 -0.12331316265851033
-0.1620625146392463 -0.2071980022590865 -0.5709339523802873 0.23508277519951368 0.1654960326755828 0.2835049730950418 -0.5034268232588519 0.4480314670805565
0.42828710276040005 0.7506001764366753 0.5749917991735533 -0.40198099959384526 -0.13765795079515042 0.3473767145867852 0.6697675118425116 -0.4822372320986015
0.5165573829583873 -0.5349497936266951 -0.4088222428712978 -0.19477950998931273 -0.7510534385083639 -0.4335550228566819 -0.5231970326730802 0.454294595332265
-0.05310521254208439 -1.1343406707764752 0.39678905425571237 -0.3734090198263677 -0.22036494649710786 -0.21581684689713815 -0.5209203900957456 0.07173901258665048
-0.265723855720738 -0.11632202082248799 -0.5851365972237016 -0.0027267508993727915 0.07767475962061185 0.09379869751127747 -0.22572686207061163 0.09990169941918853
-0.39119313641042075 0.6269883097159454 -0.16424026473275774 0.40459735793465956 0.5349543642118213 -0.5419695067284332 0.6148259748255102 0.3396479332997093
1.0072789434516827 0.3694736714056243 0.2772442554892985 -0.8443928238190592 -0.7951855388929894 -0.9339459194834935 0.7141359298256309 -0.28881817644206403
0.21807706195437565 -1.621228084852881 0.04347662396429258 -0.15409225483919578 -0.36030175619741894 0.15943287653610005 -0.6757626277048767 0.08092418844577359
-0.7011814400985041 0.07278544685763061 -0.12488915672011817 0.40548616902230006 0.3499883375028318 0.6362887799896866 -0.2856467252773231 -0.13820514831676117
-0.07406150713372779 0.41356078512743405 -0.3372442160368604 0.30176227643894576 0.36791172045641996 -0.5535810634933349 0.474454869558913 0.35883081996329136
0.5036887135813747 0.22909707019920292 -0.24767512676675174 -0.6144397407828038 -0.8676425308376005 -0.7300245868652184 0.6224297877389844 -0.5107738315784721
0.4841786853983835 0.5119354876542974 0.5010482408915661 -0.2940938189277578 -0.07587086572199946 -0.11060449797288395 0.4877666983595388 -0.31938838885362353
-0.012733265606022637 -0.43828129259954945 -0.4412829271586279 0.4160448642125062 -0.09009019687660418 0.5834911010670534 -0.19345321627803966 0.18948237967428114
0.18053681248880574 -0.25190991632412135 0.09585168980839343 -0.23637351737271195 0.03489644205832691 0.09583023774059592 -0.2539728394894527 0.11558193239288748
0.31381039749113127 0.029176730694685432 -0.5726184601010117 -0.3182078991866112 -0.29741754587376906 -0.12353638273963526 -0.4304595507921721 0.07067622146736938
-0.20318905260170878 0.7617246732955265 -0.2676785955313006 0.4559428734190463 0.25062143870489384 -0.45050667466714994 0.4721272345294587 0.4048019357232183
0.8039766789705907 0.2395450473260611 0.3544370195252452 -0.567447341883134 -1.0354301665990506 -0.8406847542255304 0.25220937653253256 -0.22436903849558512
-0.22079679034698907 -0.9442933919994905 0.16261034063170565 -0.0453239112271231 0.18331155902732477 -0.38773550178559546 -0.19939483703899966 0.40248157634270826
0.10623648926460462 0.029681002959274096 -0.5368709674855022 0.05180640491144274 -0.018970052010832166 -0.16389188191565118 -0.10012491628977273 -0.06729940957584589
-0.4497151188559732 -1.374558713601301 0.11316702431719076 0.3906259526902896 0.04949109775761542 -0.5061682098544008 -0.7111850570431457 0.28189228602864597
-0.3928088608401087 0.36664186736447424 -0.19575471366201655 0.43117373704430184 0.45861335681000875 0.859171939368479 0.026436477736818068 -0.3212119286910693
0.08900727802945749 0.4878231077044444 0.4560826227731455 -0.30713867548524976 0.20044081270210273 -0.2979702200489574 0.46756069330238964 0.03567576794204953
0.6880429634783289 -0.24026432494232455 -0.9348395732739418 -0.7540930400977145 -0.8602564175174783 -0.4124065797488231 -0.12015714914956463 0.1645775469260088
0.408096418883131 0.4694459747062044 0.6334075507134257 -0.4010236324134868 -0.73446287334811 0.7211715646537549 0.8546806842843826 -0.7731889354316431
0.414700179607902 -0.5668881686226718 -0.8027641368694677 -0.5462131738460366 -0.5288686928221378 -0.7975514077742873 -0.6717397086854306 0.4196507558509821
-0.3689674661406719 0.6407628391145395 -0.6035005044615233 0.49453519518104616 0.3284698271535131 -0.6213912362002769 0.8249825340287438 0.7370997879017258
0.6626543226615008 0.39143029809470486 0.6091447974065055 -0.7395167821583186 -0.808899435071221 -0.7236225144498749 0.6051842257615173 -0.5762645094594492
