lstm_with_validation_lr_0.01.pth (torch, 42826 bytes, 16 tensors)

encoder.weight_ih_l0 f8 [64, 6]
-1.2371147227093702 0.4761628737143657 -1.1458058088414944 -0.6205695417433317 -0.7554644593860657 -0.6224640362022513 -0.2119619272118782 -1.5468401612818663
-0.1302660610264071 -1.0969770572040698 0.10194104898406368 -0.5160339088210742 0.557453661977069 0.6177969094338209 0.21337441251248407 1.0686206277629833
0.13142227715571408 0.5714857118824933 0.22381616969930115 -0.17101753361328517 0.37243760835220974 -0.047096167031209335 0.30103797506752467 -0.05661807463617084
0.229010186220345 -1.3401005652643756 0.9225628020859492 -1.1771285876774622 0.6116250149147167 -0.9501087736673435 -0.2507539899993536 -0.8421021386725446
0.03633691796805528 -0.8455421792232107 0.013017162575330627 -0.6204000415518998 -0.0263484382121104 0.3046595121847419 -0.3098269002129935 0.5687251278350288
-0.15024229022374472 0.39990595220662883 -0.26996239682825646 0.7473355199072155 -0.5713299928269617 0.5975565048126208 -0.3806985107364673 0.3776250187594481
-0.6075400882263849 -1.613550948819857 0.295091974620622 -1.0969543878750623 0.5029654048861395 -0.968532314639015 -0.5712075061810025 -0.9983155414364544
-0.5055315042048331 -0.8455414323679198 -0.4441687077432288 -0.5906698895211919 -1.2911951398584978 -0.10466255756859606 -1.5868006364425171 -0.9609283450103144
-1.2630178961908503 -0.9872911252861546 -0.6947571759399626 -1.0114234630514252 0.09277216695549942 -1.2869540351087077 0.5326668926797828 -0.5390115003013963
0.48284860719745426 -0.17081590303436306 0.7407630659625779 -0.45380045540570174 0.3174690806607854 -0.5357355500386923 -1.3310989803695874 -0.33998188641503013
-0.8737889090334936 -0.7442680925990086 -1.057163077348463 -0.3557851828987298 -0.026077848421378537 1.4913671922589002 -0.9693314882671719 0.7863685321485588
-0.6489824796854419 0.2017350375499746 -0.562317352464418 0.802949145658066 -1.3153781801474198 0.21018289296509224 -0.9263206848678119 -0.11647181995567141
-0.676676374280735 0.5854157974233132 -1.1269509546643997 -0.18897244233419094 -0.6821446776569783 -0.2976147715029943 -0.24752480255642584 -0.9505486872211555
0.08418482201149602 -0.917814538571539 -0.32376618237492155 -0.5459264437860553 -0.053740831919614915 0.3729985004284325 -0.059233340129831794 0.757758821396614
-0.38048166299389996 0.634394498319508 0.2780969663313541 -0.2810553657228104 0.1980692887122289 0.03646330411388298 -0.11228331019224433 -0.28350960469821423
-0.8214320783865222 -0.5752924136214921 -0.09404403500271805 -0.9151643989445367 0.18444341289082447 -0.7538136536973464 -0.2932769346918703 -1.3821485370205946
-0.07576447921814444 -0.8269824380301073 -0.11966732032085393 -0.723600326431106 -0.14558509106305142 0.541362816718637 0.04767909644211803 0.11517820692819461
0.09329316544195225 0.2817450372122058 -0.6023556005148315 0.9842611763756081 -0.8686007830603675 0.3701851164787295 -0.855364067968051 0.21813896672319175
-0.5529608729097706 -1.4599416996836108 0.11780765118346141 -1.3388575479833977 0.2771421317734363 -0.8279829448522739 -0.4649597639674372 -0.5465643110618754
-0.40871160777029475 -0.6143921963875119 -0.17510340570435218 -0.5622621251740823 -1.2754937650043014 -0.0925196919839297 -1.6334170484943569 -0.7043432812601921
-1.464266701143739 -0.3703101155511628 -0.44092750972833944 -0.25965831080897483 -0.26221110993383084 -0.3458640998043264 -0.08023794186298737 -0.3997246105833086
0.3441351810869779 0.8678364027061408 0.002463310325681678 0.38659904575450804 0.4487516895194687 -0.0863895798324801 -1.2443888661067926 -0.801787071104162
-0.6713550303884437 -1.087833269878302 -0.8549388219001312 -0.43717350330370386 -0.12118599500467407 1.0845870309982837 -0.9485635493773219 0.6099304171568442
-0.8073226145236833 0.41529995262120933 -0.8503808860783675 0.7259139000474175 -1.3596269020713578 0.26097750589203783 -0.9109720763348707 -0.022074106815177384
1.5601229453945116 -0.620215839608877 1.8123965444873749 0.2084430352239747 1.5197609489870407 0.33267601454340673 -0.8377487238170527 -1.1806385657427763
-0.5495212462519268 -0.6284643821487714 -1.0262316732009356 -0.4525100039632373 -0.6837631030071667 -1.5489690320942513 0.013246509241154864 -1.7679045071471988
0.4989019374974911 -1.857534469151859 1.2558165276698532 -0.9257355590173586 1.978949713370014 -1.01786955660424 2.5513796309553403 -1.0775010832529766
-0.9054993536089926 1.534811181270238 -1.2810480175427617 1.3439132277234687 -1.7357151411507312 1.2339780596109957 1.4042543561298704 2.516899921503082
-0.26986161514407847 2.5889040055196726 -1.042069234112049 2.434502291178899 -0.40656335451497444 0.46359572427540285 -0.46726023172795805 0.20401282953669267
0.0681959124046181 0.2579715353858657 -3.38290308604119 2.5889497859814856 -3.533079404252815 -0.9113597259785119 -1.6222474403367093 -1.323759884239962
0.7577973413677799 1.9978487472987119 -0.2395020598838364 1.7656262072468396 -0.2521168963245499 1.7154804715242862 -1.1058763625164074 -1.157466358181919
-0.7575549784275081 -0.8211987103875306 -0.9522575658685506 -0.507190799769025 4.221839369142698 1.3879258642379508 3.265158883473411 1.7850292280312328
00000000: 5afd b6ce 38cb f3bf 880b 8bd8 7379 de3f
00000010: 20a8 c878 3855 f2bf 58cd d5a7 b4db e3bf
00000020: a54f 4bcd c32c e8bf 3498 cdb2 39eb e3bf
00000030: 97a2 af84 9121 cbbf 0b85 0d78 dbbf f8bf
00000040: 6a8e f1eb 8eac c0bf f875 92d0 378d f1bf
00000050: 2ba9 81ff ce18 ba3f 156f 408b 5983 e0bf
00000060: 2d43 e70f a9d6 e13f 00d2 3206 fec4 e33f
00000070: aeac c54d da4f cb3f 052b 81f1 1119 f13f
00000080: 00c1 2cf7 71d2 c03f af54 5567 9c49 e23f
00000090: 8355 961c 02a6 cc3f a3b0 f40c e7e3 c5bf
000000a0: aa15 eb8c 04d6 d73f a0fd 5422 fd1c a8bf
000000b0: a338 71c8 3444 d33f be84 d955 0bfd acbf
000000c0: 4d35 22ae 3450 cd3f f195 524a 0d71 f5bf
000000d0: 83e3 ee6c a285 ed3f 912e 34c9 84d5 f2bf
000000e0: d02c 8f9f 6e92 e33f ae67 d183 4a67 eebf
000000f0: 08e1 9876 5a0c d0bf 03b0 2f2f 80f2 eabf
00000100: c1d6 9ea4 c09a a23f 52df e478 ae0e ebbf
00000110: 17d0 61fc bda8 8a3f e0e0 1c30 51da e3bf
00000120: bccf afc1 15fb 9abf 03ec 4f9c 8a7f d33f
00000130: c57e f534 34d4 d3bf 33e0 0e0a ff32 e23f
00000140: 155a 7ead 233b c3bf 6401 8d22 0f98 d93f
00000150: 97bc 615c 1047 d1bf 2f80 242e 2cea e73f
00000160: 8a4d 4dd6 5548 e2bf 2ed5 b5d1 2e1f e33f
00000170: 24f0 4f49 5d5d d8bf 2c49 6e20 022b d83f
00000180: f31e 3ee9 f770 e3bf e2c6 b9cc 1ad1 f9bf
00000190: 44b0 1373 c9e2 d23f 9108 520b 208d f1bf
000001a0: f92b a0e7 4a18 e03f d0cc 0f7b 37fe eebf
000001b0: 32de c8f6 5447 e2bf fedb 316f 33f2 efbf
000001c0: c909 b567 502d e0bf dedc ede7 ac0e ebbf
000001d0: e07a 6a96 426d dcbf e836 478a c4e6 e2bf
000001e0: 6e24 273c bca8 f4bf 4572 df55 2acb babf
000001f0: 7aae 6c10 8963 f9bf 6fcc f3cc ecbf eebf
00000200: 5570 e640 5235 f4bf b785 d78e e397 efbf
00000210: c359 aa66 733b e6bf 2f68 835e ca2e f0bf
00000220: 4a8c 0daf eabf b73f 44f4 431d 5d97 f4bf
00000230: 6c17 7770 9b0b e13f e9cb be0b 953f e1bf
00000240: 0843 35d8 fde6 de3f 82ab 95a6 4bdd c5bf
00000250: 589b ccbe 54b4 e73f 3f27 b810 110b ddbf
00000260: fc78 bbd5 6951 d43f 6d10 57e1 be24 e1bf
00000270: 39d2 c671 2e4c f5bf e0a2 d862 43c2 d5bf
00000280: 0401 7d28 14f6 ebbf ca68 a551 0bd1 e7bf
00000290: 8101 bcd4 23ea f0bf 1de4 3c37 2fc5 d6bf
000002a0: 2abe 7ac8 26b4 9abf e644 51d8 a3dc f73f
000002b0: 77e5 2278 c304 efbf 8bcf 0557 ee29 e93f
000002c0: 71a1 bde7 76c4 e4bf 3503 5e26 74d2 c93f
000002d0: fada d9f5 80fe e1bf 287b 1e68 c2b1 e93f
000002e0: c1ae 99fd c90b f5bf d25b bbe5 45e7 ca3f
000002f0: c9b2 e346 6ba4 edbf 547e 9de1 18d1 bdbf
00000300: 215f 3036 55a7 e5bf 26d6 0fe9 b9bb e23f
00000310: 57ac 67b9 fd07 f2bf 17d6 d5bd 3f30 c8bf
00000320: 7dab 3513 21d4 e5bf 225c 9ad3 1e0c d3bf
00000330: d8df f689 e4ae cfbf ecdb 9b14 e56a eebf
00000340: 90e4 5bf1 228d b53f aea8 5e98 bc5e edbf
00000350: c377 36cb 95b8 d4bf 65a5 c2bb 3a78 e1bf
00000360: c6f1 1b17 eb83 abbf aa04 331a 35df d73f
00000370: 8a85 6115 d553 aebf 42ed 846d 8f3f e83f
00000380: ea55 d2c2 cf59 d8bf 7a6d e1b0 f54c e43f
00000390: 7fa3 e037 57cc d13f 3e44 09a5 cffc d1bf
000003a0: 6a35 ae9e 555a c93f 8fb1 5875 51ab a23f
000003b0: 568d 2959 99be bcbf 49f7 1178 0525 d2bf
000003c0: 03c6 11ed 2b49 eabf d284 c4a2 cb68 e2bf
000003d0: 2e76 b816 4513 b8bf dfc4 7dd9 0649 edbf
000003e0: 5d13 2a7d d79b c73f 6311 bdcf 3d1f e8bf
000003f0: b10d cb9e 0cc5 d2bf b27b cbc8 471d f6bf
00000400: 30be 7008 4d65 b3bf bf94 b6df a376 eabf
00000410: f992 2d7b 84a2 bebf 54b0 2cdf bb27 e7bf
00000420: 9153 7342 88a2 c2bf af76 221d d852 e13f
00000430: 96ec d7ff 6469 a83f b2f0 f7a7 517c bd3f
00000440: e374 8396 0fe2 b73f 22c0 2856 1c08 d23f
00000450: adc1 9840 7f46 e3bf e52e 684b 117f ef3f
00000460: d0c6 90de 93cb ebbf 777e 2fea 1cb1 d73f
00000470: e414 4377 245f ebbf 7b98 0748 faeb cb3f
00000480: b6ae 2300 dbb1 e1bf fe52 e3d3 eb5b f7bf
00000490: e331 0d69 a428 be3f 8e76 69e4 f56b f5bf
000004a0: 62e1 135a b2bc d13f 4529 b916 d67e eabf
000004b0: a08b 0c99 e6c1 ddbf 247d 2570 747d e1bf
000004c0: 9f9d 37bb 5428 dabf f6dc ccd2 19a9 e3bf
000004d0: 8a8e 75d4 c969 c6bf 58de ec23 0dfe e1bf
000004e0: 4b20 6f26 6c68 f4bf ae95 4edb 5eaf b7bf
000004f0: 9931 40ea 7922 fabf 736f c5eb fa89 e6bf
00000500: f08b a0eb a26d f7bf f8e4 ea32 29b3 d7bf
00000510: f927 8c04 2838 dcbf 1ec9 43e4 3d9e d0bf
00000520: 1313 741b 11c8 d0bf b248 612d a322 d6bf
00000530: 572b 3348 798a b4bf 3525 7788 1695 d9bf
00000540: 9ffb 0a91 4f06 d63f 4fd6 fcd8 50c5 eb3f
00000550: cd0b 3da9 ef2d 643f ff8b 8bec 09be d83f
00000560: ffb1 a001 59b8 dc3f b27e 18a4 a01d b6bf
00000570: 91f6 b64c 04e9 f3bf a3ef 175c 3da8 e9bf
00000580: 1ec0 708b bd7b e5bf 7d0c dadb c367 f1bf
00000590: e389 04a9 a85b ebbf 7c7f d792 a6fa dbbf
000005a0: 4f3e 479d 0b06 bfbf 97da 3cee 775a f13f
000005b0: dc1a d8f1 a15a eebf edc6 50cb 8c84 e33f
000005c0: f569 563c 96d5 e9bf dc75 a240 4694 da3f
000005d0: f033 dbf9 5136 ebbf 8a4b 8dc9 af3a e73f
000005e0: 4d88 7223 08c1 f5bf 9c11 33ff dab3 d03f
000005f0: f5ad 6de9 ae26 edbf 593a 703b 989a 96bf
00000600: 8356 437a 43f6 f83f 149a 72e3 ced8 e3bf
00000610: 944e df84 93ff fc3f 5dd7 aee9 42ae ca3f
00000620: 3c32 5adb f050 f83f d129 a856 904a d53f
00000630: 56eb 6169 d6ce eabf 642f c443 e5e3 f2bf
00000640: 787e a394 ad95 e1bf 48f4 0056 611c e4bf
00000650: 2e47 28e7 716b f0bf c5a2 0885 ecf5 dcbf
00000660: 8412 b428 63e1 e5bf 0cc9 75c0 93c8 f8bf
00000670: 70bc d05f fc20 8b3f 195f 8a3c 5649 fcbf
00000680: de9d 5d64 02ee df3f 0433 4310 76b8 fdbf
00000690: 8de4 4112 d317 f43f a429 d72d a09f edbf
000006a0: 01a5 b52c c7a9 ff3f 0359 9396 3149 f0bf
000006b0: e411 55b9 3969 0440 239e 9fc6 713d f1bf
000006c0: a897 c9c7 d9f9 ecbf eb73 512b 968e f83f
000006d0: 8e3a bf34 2c7f f4bf debe 1b28 ab80 f53f
000006e0: 71a1 663d 7dc5 fbbf 182c 20c7 5fbe f33f
000006f0: 487e 6d6a d377 f63f 1f49 116d 9c22 0440
00000700: e054 dfa6 6945 d1bf ef85 a14d 13b6 0440
00000710: 42dd 0aca 50ac f0bf 1a34 5556 dc79 0340
00000720: 2735 d94d 2205 dabf ae02 9566 8dab dd3f
00000730: ae8c 7f75 97e7 ddbf cd89 69a7 171d ca3f
00000740: d1ab 7f8d 4975 b13f 2eff f10a 9b82 d03f
00000750: d2ac 407e 2f10 0bc0 a436 2e4e 2bb6 0440
00000760: fc7e 7b22 bf43 0cc0 ef03 3fdf db29 edbf
00000770: 0941 64bb b9f4 f9bf 0014 29d8 1e2e f5bf
00000780: 9c73 c535 e03f e83f 630a 803f 30f7 ff3f
00000790: 7f4a 43e5 00a8 cebf 015f 1144 0140 fc3f
000007a0: e4e8 1ee8 ae22 d0bf baf9 a1a6 9b72 fb3f
000007b0: acd6 a669 abb1 f1bf f7c8 a971 fb84 f2bf
000007c0: 8b94 28f0 e33d e8bf dd37 9484 4247 eabf
000007d0: 88c4 d8db e478 eebf aae1 3a33 e83a e0bf
000007e0: 8ebb 0ddc 29e3 1040 e5ca 42c0 f134 f63f
000007f0: ef18 e69e 0b1f 0a40 b8c5 ccce 7a8f fc3f

encoder.weight_hh_l0 f8 [64, 16]
-0.22769526016445535 0.1662004302391825 0.3855361106750179 0.6653552605505767 0.3703174099323371 0.00394235747740701 0.10498599459768995 -0.0736316297117418
-0.1800077067958508 -0.003150943444552218 -0.10943937119677942 0.2793197219608879 0.14403896590756116 0.09626206848420826 0.013269862172598094 -0.1364134448234133
-0.21627741659760677 -0.25976847162542305 0.24567452953900568 0.1286895377768927 0.059031883735986564 -0.3506133113666795 -0.01994359266888433 -0.2891908043907926
-0.12111001933359483 0.0767431188252679 0.039150281131837356 -0.12682739353053032 -0.1975592593300265 0.1564384790158687 0.5346317408601485 -0.16887243955313228
-0.1297085533268852 0.075872344163738 0.1246854823697117 -0.2893909567671593 0.23605130165071825 -0.25712727777390676 -0.17659713512464803 0.23891679458343465
-0.057157345550103815 -0.04298555322975121 -0.13970059880575433 -0.1122754595606129 -0.4537944613819379 0.13155170512612552 0.23391705850256317 0.2555902536306737
0.07722919504524778 -0.046299193019443435 0.16021025715547146 0.12407532852079298 -0.42753674780241396 -0.07189395111538366 -0.3256699757347284 0.38931491842558386
-0.07097360178836519 -0.05216172279572469 0.023182556217406936 -0.044219116287237806 0.23678975031111898 0.09285037874790292 0.10107419092154152 0.25380531510155185
-0.3964806532345797 0.6554666097248063 -0.187288732938802 -0.42076022860814094 -0.46530607099772203 -0.35884540737313125 0.5494126370715272 0.610035718765637
-0.41907085818215434 0.48921388245527037 -0.8559946405176916 0.43797175923609194 -0.1760339586955402 -0.5848053250665063 -0.4852881940068527 0.36162773654387875
-0.39830712910718885 0.3924226643274273 0.09030841211934935 0.9043492681674323 -0.6425431206369946 -0.6041084069873429 0.3185828506874099 0.10930592062286443
-0.5126882800292749 0.1459187470927085 -0.5787567349363116 0.2528076873558127 -0.6312298246755792 -0.41638452732914677 0.11842673950335036 0.3662887090820633
0.24212904072118643 -0.01380171673556558 0.08572804462423109 0.39572933725749404 0.30701088742831567 0.5654000407615499 -0.20644233527137879 0.16448709175586845
0.32144114239712085 0.03474913738835732 0.18407329917633006 -0.32778063140048797 0.21874830235027223 0.34559547583742706 0.1467785744471405 -0.19112420067848346
-0.035306823262125836 -0.06440394248762339 -0.2908908241901285 0.12749541285741153 0.3654028688062922 1.0264768329289395 0.3052509224156155 0.26051631511860446
0.6622353425259884 -0.0014924108777969662 -0.29335952006691823 -0.24424529504518372 -0.5046327380857358 -0.24140676246773526 -0.2713053069847639 -0.2471091818964716
0.05077805816804262 0.22720883072445544 0.2543087862207083 -0.18067694962265468 -0.33216990115798933 -0.1411615327395974 -0.07193119820459311 0.2567657870815403
-0.3290225328447379 -0.2051232109937016 -0.8763815233924176 -0.23624025670196805 -0.4508585363000429 0.10471374863412566 -0.22763244803450705 0.24682510090875995
0.2085678334637677 -0.18767044761550652 0.07570918537875783 -0.2268862482522538 -0.032718471722828636 0.33712627331179995 -0.09375713247554124 -0.0963320058246082
0.33487186318518336 0.05996732538325705 0.22752082866559212 0.20339672531402228 0.2696922111930691 0.1357781354129417 -0.07954653106358756 0.03979863317192223
-0.4822235656478884 0.022724238697324435 -0.17954099269843052 -0.601213482811163 -0.1785981761628485 0.15520129192203533 0.23318148251741552 0.07428481403260342
-0.017163574028969935 0.3183745829587816 -0.07277722635592102 0.37805319955516836 -0.2945832028418953 -0.16039114792624742 -0.2028660927265747 0.08411724065352871
0.009506282229159887 0.033772687630534225 0.16250052798701153 0.09438206295612074 0.15733027997866916 -0.025860332644737465 -0.2620548508026957 -0.1512698680442109
0.24299126557985407 -0.14816268684443554 0.5138839990673092 -0.27345885488474336 0.8424637259379055 0.44481257329293716 0.04059749409489757 -0.22760614620839603
0.08272656937135268 0.23366325258823106 -0.28438085844954436 0.43905731763060946 0.2320557861990629 0.08965138354550109 0.36601177483453123 -0.9861678577625069
0.8487977332599914 -0.2817787992516601 -0.5645298865864429 0.02304747328163101 0.19819170666694724 0.04712839423681757 1.019365757108265 -0.1483354924008765
-0.27884220969221407 0.031141141477652647 -0.15652572732747302 -0.019720876752939504 0.2508670407010774 0.5778477993303293 -0.1535033990153868 0.19411031963907147
-0.041684422313160226 0.10781814453090512 -0.10692337362275886 0.015951588247711403 -0.0016681117302949212 -0.26400711872183746 0.15024345461608285 0.26642126100806757
0.09837095767701527 0.055534434243681756 -0.15767942458468853 0.324391794218589 -0.30455765213244246 -0.17150658107615954 -0.040745132138781476 0.07630597659835632
-0.21667090611409767 0.29201660983669503 -0.22460713060342222 0.20996445344279735 -0.07631193371061235 0.022042218117346773 -0.6094403321986602 0.14333563038967342
0.058664402174855135 0.1509510147247731 -0.11434105133093048 0.4036314927934663 -0.11468287164857123 0.21612484660459183 -0.04493031951947903 0.1530089693225879
-0.07551222267765528 0.18491414115887855 -0.20875240093461989 -0.15788833195709742 -0.1407814890426578 -0.1516913194183788 -0.1169134879256094 0.17808898832107625
00000000: 6a26 ee47 1e25 cdbf 73ad 3a42 0e46 c53f
00000010: e4ad b1a6 9fac d83f 4129 891d 974a e53f
00000020: c21f 33cb 47b3 d73f 8023 f486 dc25 703f
00000030: d6c9 55b5 5ce0 ba3f 2b28 90c1 85d9 b2bf
00000040: 59aa db16 7e0a c7bf c1fd 77e1 01d0 69bf
00000050: 535a 2ff8 3704 bcbf f5c9 bcd3 5fe0 d13f
00000060: e018 f66b de6f c23f 1828 fc83 a1a4 b83f
00000070: 4f0d 6ec0 3a2d 8b3f 4f29 20ea fe75 c1bf
00000080: 1b36 9377 faae cbbf 2a70 8af0 0ba0 d0bf
00000090: 7f44 ea52 4372 cf3f fb67 0b16 e678 c03f
000000a0: f179 2254 6d39 ae3f 862d 77d0 7270 d6bf
000000b0: 1b44 1cd9 176c 94bf 8e64 ca25 1a82 d2bf
000000c0: b476 41f4 1001 bfbf 632d 8ce1 6fa5 b33f
000000d0: 1c4f 2e72 810b a43f 9dab b949 e13b c0bf
000000e0: d416 ec2e 9f49 c9bf 0bc5 9a13 2d06 c43f
000000f0: 79bb 4c06 b41b e13f c9c8 89b2 9c9d c5bf
00000100: f274 4635 4a9a c0bf 08a7 dab4 5e6c b33f
00000110: 835b 1045 63eb bf3f a8ad c4a5 6185 d2bf
00000120: fa4f 62d6 ed36 ce3f 32b3 3cf8 c574 d0bf
00000130: 70bd f623 bc9a c6bf 6dba 9955 d394 ce3f
00000140: c74c ba43 ba43 adbf c5fd a4d2 3302 a6bf
00000150: 3319 8d8f b5e1 c1bf b7c9 f4a2 15be bcbf
00000160: 6a72 afec f70a ddbf a2f7 9faf afd6 c03f
00000170: 105d 1f82 fef0 cd3f 2349 2139 975b d03f
00000180: d407 04e3 4ac5 b33f 040c b31f 87b4 a7bf
00000190: 45b6 7b0b c581 c43f 32bd 3c96 66c3 bf3f
000001a0: 8592 6917 c35c dbbf a81f d258 a467 b2bf
000001b0: 2577 c4e1 c6d7 d4bf 0ae6 9e1e 89ea d83f
000001c0: 7773 8f72 532b b2bf 9a74 05fb f0b4 aabf
000001d0: 5d70 2a03 2bbd 973f 1a98 9f54 e3a3 a6bf
000001e0: 22a0 ce64 204f ce3f 90b9 24dc 0ac5 b73f
000001f0: 4c49 7a88 ffdf b93f 8160 faa5 583e d03f
00000200: 40e9 c863 f05f d9bf d06a 8c1c 95f9 e43f
00000210: c8d2 70c3 13f9 c7bf b115 554f bced dabf
00000220: aa30 641d 93c7 ddbf 7f31 3fba 52f7 d6bf
00000230: 0767 87cf c994 e13f 3fb0 afa0 6985 e33f
00000240: 2156 a693 0ed2 dabf b540 79be 474f df3f
00000250: 7364 52df 4e64 ebbf 0166 9fb3 ba07 dc3f
00000260: e197 cadf 4788 c6bf 4ffe 35a8 b9b6 e2bf
00000270: cb3c 9936 f60e dfbf e113 72a9 e824 d73f
00000280: 8fdb 512f dd7d d9bf 0bb6 5ff3 731d d93f
00000290: 2f36 9bbc 731e b73f da19 5ee0 6df0 ec3f
000002a0: 49fb 2c97 b68f e4bf 3bfa 6727 db54 e3bf
000002b0: 4635 3153 a963 d43f 9499 550a 79fb bb3f
000002c0: 4e95 7840 f167 e0bf 1d78 512b 77ad c23f
000002d0: b484 1cd8 2c85 e2bf 0cb8 574b 002e d03f
000002e0: c4b9 a7e3 0833 e4bf 461a dc49 0ba6 dabf
000002f0: 7888 23fd 3651 be3f 81b2 9932 4671 d73f
00000300: b798 a79b 15fe ce3f 2433 1010 1344 8cbf
00000310: 86d7 02ec 45f2 b53f 1ead 6524 a153 d93f
00000320: bf50 41fe 10a6 d33f 274b 87d3 c117 e23f
00000330: 640e 40d3 b36c cabf 4e51 dabb e90d c53f
00000340: 10cf 8bde 7d92 d43f 865e 4b91 a3ca a13f
00000350: 8fbb 03c0 b68f c73f 1e26 089d 5bfa d4bf
00000360: 3531 53c2 f1ff cb3f f781 977c 3c1e d63f
00000370: 1482 80ec a3c9 c23f 70b1 b1ff c176 c8bf
00000380: 3c14 7966 bc13 a2bf 39c2 b7da c67c b0bf
00000390: fd98 268c f49d d2bf b169 4e0a c551 c03f
000003a0: 7fce d8b6 c262 d73f d380 b8f8 726c f03f
000003b0: 6954 362a 3b89 d33f c790 609f 4cac d03f
000003c0: 7cf1 4c2c 0831 e53f 5ea8 63fa 9f73 58bf
000003d0: 4217 2a02 67c6 d2bf 32e1 3509 6e43 cfbf
000003e0: a236 528e f325 e0bf 5384 eab2 6ae6 cebf
000003f0: 73c5 2eef 105d d1bf 4db1 640f 46a1 cfbf
00000400: 444c 5fe6 94ff a93f bd76 a9d0 2d15 cd3f
00000410: 44d1 f95b 9846 d03f 8c9a e21a 6c20 c7bf
00000420: 7d1a 8c8b 4542 d5bf 57ef 48c3 9411 c2bf
00000430: 6dcf d93f 156a b2bf 74cd 8fc4 d96e d03f
00000440: 6ac6 8d86 b40e d5bf 9129 6f35 7a41 cabf
00000450: 3f40 b943 510b ecbf ed4c 44e8 1e3d cebf
00000460: c2fd 21c3 ddda dcbf 023c d32d 85ce ba3f
00000470: 3e87 e85f 0f23 cdbf 4315 1e04 f797 cf3f
00000480: ffba dccb 59b2 ca3f 8b96 77d1 9505 c8bf
00000490: 9964 355b ad61 b33f a1e9 13cc 9b0a cdbf
000004a0: e59e 0cbc 79c0 a0bf 49c7 9f13 7a93 d53f
000004b0: dcca bfa9 7700 b8bf 5f24 93de 36a9 b8bf
000004c0: dec7 2e65 8a6e d53f 3809 b38a 09b4 ae3f
000004d0: 5986 230b 671f cd3f 0f2a ab65 e708 ca3f
000004e0: 9cd9 c31e a342 d13f 0823 8e8d 2d61 c13f
000004f0: c8a8 6d55 295d b4bf 813d cc87 7c60 a43f
00000500: 385d f43a c0dc debf 2243 20d8 0545 973f
00000510: 652f f701 33fb c6bf 90d2 d20e 243d e3bf
00000520: b651 df16 4edc c6bf 4f11 8dcc a2dd c33f
00000530: e3f8 b80c e4d8 cd3f 7606 dc5e 5404 b33f
00000540: bb2f 8cf4 5393 91bf f8e0 6bc9 3f60 d43f
00000550: 029f 173f 87a1 b2bf 0035 0f0c 0632 d83f
00000560: 3c0a 8a81 73da d2bf f09f 7477 b287 c4bf
00000570: 322d dd20 84f7 c9bf a4fc a21d b588 b53f
00000580: 9e0d 3f9a 0778 833f c309 be59 a74a a13f
00000590: b0ba a43a d1cc c43f c1bd b941 6c29 b83f
000005a0: 72e6 960b 6623 c43f 2e2d e48b 217b 9abf
000005b0: cd2a 7db5 81c5 d0bf 2260 0fa0 cf5c c3bf
000005c0: 2087 7079 561a cf3f dbfe 3db3 fef6 c2bf
000005d0: 34d1 3ddb bc71 e03f 7305 a291 5980 d1bf
000005e0: 0e07 df7c 76f5 ea3f 1d23 c927 cf77 dc3f
000005f0: 93d0 dfda 31c9 a43f 38b5 2abd 3222 cdbf
00000600: f7d1 f585 912d b53f 3c5c 126e ade8 cd3f
00000610: 778c a9c5 4b33 d2bf b9bf 12dd 8319 dc3f
00000620: 1949 4906 01b4 cd3f 027c 5ea0 64f3 b63f
00000630: e35f b7a6 bc6c d73f 659a 2ee5 af8e efbf
00000640: b6a8 28dd 5929 eb3f 697d dff1 a908 d2bf
00000650: 891b 10fb a010 e2bf 380a 00c0 c199 973f
00000660: 128a 3c89 585e c93f ae95 eb7f 3621 a83f
00000670: 9213 d777 524f f03f 3452 594c a8fc c2bf
00000680: f4d5 d7fe 8cd8 d1bf 1796 d3a0 76e3 9f3f
00000690: 7b53 edf7 0809 c4bf 752d cfa2 b531 94bf
000006a0: bd25 dda1 340e d03f 080f 06ab ba7d e23f
000006b0: 4447 4cd7 ffa5 c3bf d13c 5561 9bd8 c83f
000006c0: d9e3 2c1d a957 a5bf a9f6 ac4c f899 bb3f
000006d0: d242 e388 545f bbbf 2a6a 5ff7 9c55 903f
000006e0: 3ee2 f854 9154 5bbf 2693 341d 7ee5 d0bf
000006f0: 36cf 0172 2d3b c33f 5b47 bfc2 0b0d d13f
00000700: cd56 19ce d62e b93f 8fc7 c165 026f ac3f
00000710: 6cf2 ebe1 d62e c4bf 509d d0cc d5c2 d43f
00000720: d4f1 e960 df7d d3bf 1fac 627a edf3 c5bf
00000730: 3cb8 03c4 8bdc a4bf 35b2 fad9 c988 b33f
00000740: 309b e04b dfbb cbbf 1dcb 486f 66b0 d23f
00000750: c5ee 312c edbf ccbf 80fe 6d7e 1de0 ca3f
00000760: bce3 94cb 2d89 b3bf 88fd c737 3c92 963f
00000770: 0b03 f502 8980 e3bf 4306 706a d258 c23f
00000780: d08f 8fb1 4209 ae3f b33c c5e3 5c52 c33f
00000790: 947d 0e84 7445 bdbf 0fc0 4b2f 19d5 d93f
000007a0: bd58 244f db5b bdbf cb86 029e faa9 cb3f
000007b0: 63b7 de59 1b01 a7bf 741a 9e43 cc95 c33f
000007c0: e44a d9de c454 b3bf 2633 6c3e 44ab c73f
000007d0: d4e2 7c0f 66b8 cabf 297e 1653 af35 c4bf
000007e0: ca02 a9b9 2005 c2bf 6d98 fe03 9f6a c3bf
000007f0: 780e 1ad7 0aee bdbf 9df1 4eb6 9ecb c63f

encoder.bias_ih_l0 f8 [64]
0.33231872482791935 0.26566127703515335 0.38511022937957967 0.3901676914742749 1.3288181454303216 1.0290151327652732 0.042944576503317955 0.6061791564590857
-0.0013050644204117652 -0.037840645204689334 1.1478847948876982 0.4853208301282695 0.2965678780792334 0.21526991055877487 0.13303197164954983 0.37839332100198403
0.20244648548476626 -0.11258765961520445 0.1022103128169729 -0.19825153028967407 -0.1383485627203446 -0.15324262976575084 -0.1893564623010825 -0.03209862229111477
0.09310436217497936 -0.20323743266564062 -0.3290046787463352 -0.2336127552147818 0.4426284752043382 0.20428074385138548 -0.10755637106595091 0.07387398611742743
-0.3342497903266521 0.22406879608686403 -0.31780371664643636 0.2436290041646063 -0.22920905190736746 -0.06340328688100501 0.402708120165329 0.09241487557885772
0.1053122672066888 0.19429754370120667 0.10412521815074524 0.4005240564070419 -0.12248895274949993 -0.1898566096807458 -0.13518017299521762 0.26251966676574007
0.12589271272778219 0.2505838564231271 0.7248052138717996 0.38072042102269665 0.5258709022983565 1.272320069671623 0.1371930031792803 0.9482825864326554
0.5002295465897725 0.12800478276270363 1.5259941610573593 0.5762561038097549 0.2339226682906174 0.21834909921447818 0.037185639155042055 -0.13128538296438752
00000000: 60ff bec1 b544 d53f 3b7e 2b28 9800 d13f
00000010: 2595 2260 a5a5 d83f fc9e b5e8 81f8 d83f
00000020: 0e46 cfd0 d642 f53f 1e0e 6592 d876 f03f
00000030: d0a0 3edf d4fc a53f c846 90d4 d165 e33f
00000040: ac53 4f40 d661 55bf 4134 3a5b d95f a3bf
00000050: b0e4 5972 bc5d f23f b9fb 5d19 7f0f df3f
00000060: 393e 59d6 f7fa d23f 14d6 d4e4 f68d cb3f
00000070: d852 c70f 3107 c13f 4f9d ae9e 9837 d83f
00000080: 5f71 2c35 c4e9 c93f f000 fb7b 8bd2 bcbf
00000090: 50e2 dc7e 742a ba3f f6f0 7c5f 4e60 c9bf
000000a0: dd8e 2adc 67b5 c1bf 3335 9959 749d c3bf
000000b0: b448 6f22 d53c c8bf 5957 f909 3b6f a0bf
000000c0: cc0e a8fe afd5 b73f 5b9b 4f27 af03 cabf
000000d0: 6493 dca3 690e d5bf 72b8 c9d3 05e7 cdbf
000000e0: 91fb 5162 0654 dc3f 1baa 0515 df25 ca3f
000000f0: 3567 3478 d088 bbbf 3646 66d2 67e9 b23f
00000100: 0376 893b 5964 d5bf 64a3 9f4b 49ae cc3f
00000110: e6cb 6266 e556 d4bf 703c 9f36 3c2f cf3f
00000120: e6d4 f1e2 b856 cdbf ede1 9ca3 323b b0bf
00000130: 0266 7c47 f8c5 d93f 266d 4654 80a8 b73f
00000140: 1d35 85a7 bef5 ba3f 68e5 f1ed bdde c83f
00000150: fe74 a546 f3a7 ba3f 66e3 e1a6 2fa2 d93f
00000160: 232e 2e9e 6f5b bfbf 040e c1ac 384d c8bf
00000170: aa81 0a7b 954d c1bf f733 d449 1fcd d03f
00000180: e63a fc9d 401d c03f 848b 0fdf 9009 d03f
00000190: db96 31b4 9a31 e73f ac8e 4d2f b95d d83f
000001a0: 3243 e936 efd3 e03f 858b 144a 6c5b f43f
000001b0: 7090 f252 8a8f c13f 8a06 03b9 5458 ee3f
000001c0: 4712 e364 e101 e03f 4b44 d9f1 7562 c03f
000001d0: 940d 7ada 786a f83f 0477 ffa3 b070 e23f
000001e0: 05f6 0c91 2df1 cd3f fb5d 1e00 ddf2 cb3f
000001f0: a480 1a00 ff09 a33f 442f 239d f5cd c0bf

encoder.bias_hh_l0 f8 [64]
0.3767608718444448 0.14678014085618243 0.44555097830955764 0.5043982050469678 1.4282843202712467 1.2484733849568217 0.07313030576853118 0.6788494969971104
-0.07193567440957818 -0.061868588815834145 0.9085406748620625 0.3125978646493754 0.2996660977123356 0.020377980932310247 0.11830843229713323 0.1827224182729492
0.14130022617690438 -0.04896289016597154 -0.08242681648981953 -0.025496646523500092 0.2340280282468327 -0.10116050839352715 0.15059946364038518 0.13080993178603348
-0.04998099835205912 0.11901984768409049 -0.39297694327460864 -0.004249134933561255 0.47429210163675783 0.19852484251471547 -0.04315614518818848 0.3184517217798869
-0.31996216954379975 0.22306114976461366 0.04046666027426306 -0.21194270689877834 -0.4292506142261656 0.12792282467409513 0.2844341467003643 -0.06297368829252567
-0.10575600538394854 0.2895593559112901 -0.21611554765926555 0.419430053683348 -0.028350956314334545 -0.30859287677059594 -0.023517040089256903 0.12576065382819374
0.22320912684559557 0.33825454028390656 0.3357460874946943 0.12308700317792365 0.5287306735500354 1.5500011819610529 0.40057212996646707 0.6589795816909872
0.5048332007359666 0.24359937843340393 1.391961643385773 0.4389663711151269 -0.009250245499132014 0.3712938726500722 0.16250020266784504 0.1868913336016983
00000000: 63ff bea1 d91c d83f 61fc 5610 b1c9 c23f
00000010: 2f95 2240 e883 dc3f 7ecf 5ab4 0724 e03f
00000020: 0546 cfa8 40da f63f 340e 653a bff9 f33f
00000030: 7750 9fef aab8 b23f c646 9094 22b9 e53f
00000040: 5a3d 0159 606a b2bf 2334 3a5b 3dad afbf
00000050: 57c9 b3e4 c312 ed3f effb 5d79 9a01 d43f
00000060: 353e 59b6 ba2d d33f e0b0 a626 f7dd 943f
00000070: cca5 8e1f 7649 be3f 8f3a 5dbd 7263 c73f
00000080: 4b71 2c35 2016 c23f 7e02 f6f7 a911 a9bf
00000090: 781d 2381 ec19 b5bf 1188 e7fb ca1b 9abf
000000a0: fd70 d563 a1f4 cd3f 2d6a 32b3 a7e5 b9bf
000000b0: 5ab7 90dd d746 c33f 23aa 813d 61be c03f
000000c0: 5ae2 af02 1c97 a9bf 32c9 60b1 1578 be3f
000000d0: 5093 dcc3 8826 d9bf 6d09 3779 8a67 71bf
000000e0: a0fb 5142 cd5a de3f 18aa 0515 4369 c93f
000000f0: 15ce 68f0 8f18 a6bf 7e91 9954 8361 d43f
00000100: 0076 899b 427a d4bf 64a3 9f8b 448d cc3f
00000110: 72a0 e9cc 0bb8 a43f 83c3 6049 f020 cbbf
00000120: 30ea 7891 d778 dbbf 218f 316e c65f c03f
00000130: 1766 7c47 2b34 d23f c692 b92b 0b1f b0bf
00000140: edca 7a58 d312 bbbf bcf2 f8f6 2388 d23f
00000150: 3845 ad9c aca9 cbbf 65e3 e126 f1d7 da3f
00000160: 91b8 b878 0808 9dbf 7587 6056 fcbf d3bf
00000170: 9a0c 54d8 d914 98bf da67 a8d3 ec18 c03f
00000180: f03a fcdd 1d92 cc3f 908b 0f5f f6a5 d53f
00000190: bd2d 6328 dd7c d53f 803a 363d a182 bf3f
000001a0: 3643 e996 5ceb e03f 8a8b 140a cecc f83f
000001b0: 4c48 7949 f9a2 d93f 8f06 0359 5c16 e53f
000001c0: 4412 e3f4 9727 e03f 5344 d9b1 432e cf3f
000001d0: 8f0d 7a92 7945 f63f e1ed fe67 0618 dc3f
000001e0: 46a0 30ef caf1 82bf 162f 0f60 47c3 d73f
000001f0: 48a0 0680 cecc c43f bcd0 dc22 0eec c73f

encoder.weight_ih_l1 f8 [64, 16]
0.23542464398554483 0.11644992436877846 -0.3738790853143074 0.5922400049808 -0.2254875812900648 0.07216117863145423 0.23857360598676466 -1.0957462135583245
-0.12989536562481196 -0.04684082291880885 0.512115543070787 0.040196458396028596 -0.2970909948571654 0.10277280856799584 0.7108327260360445 -0.15132122323393876
0.4703008807143808 -0.08406611465748004 -1.0765504201185163 0.5670423860137649 -0.3505302270798307 -0.08493586786169614 0.1653491526479377 -1.7957187162522814
0.11498663510170455 -0.13435664546500245 0.9453752008985078 0.2760128146982139 -1.1275637879114186 0.1749135284172114 0.9287274423941093 -0.6260483060055526
-0.028649539318928822 0.05219194704925847 -0.18111875358177823 0.7112326370065253 -1.5623522594643928 0.5917556468870891 0.13078745883896267 -0.04619749759069493
0.3610508266596182 -0.15623349550151364 0.16511084975576712 0.6454665098576595 -0.10950450816594784 0.1667184401858118 0.25476580597938664 -0.09300836212742096
-0.15261228050150935 0.1764745923158803 -0.04699796954183786 0.5098529351601343 -1.2160809656656468 -0.5459963735771064 0.23343025498429001 -0.0450915583534818
0.4449454492709567 0.29335174851194695 0.18458682554782996 0.14506281175191382 0.30915485868465914 0.1766457179175329 0.2057337412295829 0.058408759294436396
-0.29907871058698693 0.39979705986223996 -0.2690678628459887 -0.5910157801321473 -0.30290996489336 0.45460388674383023 -0.005331711376932426 0.22348654476801758
0.1338912870833599 0.37415719724521646 -0.6833160915088292 0.14059422143521744 0.33107318706935257 -0.22855469266102568 -0.8487873403369652 0.35136892500100925
-0.30392159062111995 0.038444281272901434 0.02112907162044491 -0.03907566030109724 -0.07947480919048876 0.04494469192065779 0.28395284408241933 0.06544266180805818
0.004882672218918059 0.18391110934203514 -0.04407951703306774 -0.06811370887901705 -0.1390833960268339 -0.17678010808916877 0.35657659154591587 0.38910973873262855
-0.23562989224269903 0.4191128192187828 -0.6088432055576118 -0.3171868269421027 -0.39708889232227246 0.5446715445369311 0.3050758673795351 0.22577259544447018
0.34391294035368386 0.1708405355711676 -0.5140878052306661 0.19888032389121144 -0.5132056466648364 -0.3924813965745691 -0.5573825118255663 0.2650373039765379
-0.01609550797099299 0.36588850293773817 -0.7290417720049998 -0.3683822555885026 -0.06623354627287831 1.0916118434470776 0.4635994925191027 0.3116316667323474
0.17640186605479088 0.39101042889977594 -0.16183890670885773 0.39808357722874094 0.047232100271435665 -0.41412194350364523 -0.6262681049357234 0.54380008328533
-0.33808101171370797 0.3863581768160713 -0.4111208430774568 -0.047174150688106674 -1.3030661728728965 0.42882013772623445 0.43296150567744446 0.26837239118611245
0.17751506918721163 0.07133768415290954 -0.28039456594178785 0.458448149183126 -0.21206402725354792 -0.15120297590998336 -0.9424340544643537 0.5363933122805609
-0.06473059781304827 0.28077288320492516 -0.7096916130163275 -0.43000133875950003 0.3184443105983422 0.8078824327053804 0.19016584086724242 0.35293594325669175
0.3364189893950454 -0.05197455980470255 -0.30613444167020126 0.157020296143028 -0.8431215104280265 -0.4517911924451862 -0.6018011401978203 0.22274753223777197
0.10010836634604954 -0.22792356437759087 0.08172089444466943 0.04950160237968163 -0.47068060449251503 -0.31152626699573316 -0.2652285228235757 -0.3193690724048808
-0.14556086985050554 0.12683125280221497 0.23441402601300873 0.0034897963367077544 0.22177474182151113 -0.07892743134552357 -0.13391098424512388 0.020077826027681926
-0.40426516234311405 0.44206761246007065 -0.03393486946838657 0.21839305429084463 -0.6692211493003389 -0.8803157581349241 0.3809655833557897 -0.024578658524953476
-0.4673954179500177 0.39480563665194457 -0.5906184831490545 0.49131068753728196 0.04235321000092874 -0.14389791490980913 -0.2803113855295465 0.13360134622490547
-0.13993085473831882 0.4807085329925815 -0.059473471497147684 -0.10077151297999065 -0.8172889519833724 -0.9256239025250547 0.35841321764353773 0.11223094763978164
-0.8523301502155631 0.17611630624832014 -0.49613708237493565 0.3086053802741501 -0.18398915073699082 -0.27100089908189295 0.5151974315049224 0.022281019667478065
-0.14931818575562805 0.10223647727357824 -0.5505284148101378 -0.17956777536316684 -0.3334734843786124 0.4005392002694119 0.46272157125999896 -0.35967650410314295
0.2925276935998484 -0.12498219453836296 -0.20697906039946 0.1413418491451052 0.09591287654091822 -0.3598533294140796 0.16665797120698744 0.2633018966379509
-0.2558841670636485 0.3853718013483888 -0.8067271684470525 -0.7203658828289344 1.1356071089911584 0.3491969624796929 0.12198624327861983 0.5038402473700186
0.4433762445749189 0.04800207921744834 -0.18701572106669886 0.483528980089076 -0.28227096301261523 -0.15560997786965833 -0.41227472050589875 0.47240828500014576
-0.22555002719717435 0.3234995996754708 0.061483461182844944 -0.5178540834210886 0.23058682641514205 -0.7995824876259283 0.2095346409361007 0.1606051748939627
-0.4622044469491353 0.40212180897696975 -0.7113874139345877 0.316668781790092 0.12004753095430355 -0.2516840085167709 -0.5528691875409382 0.17063123896964846
00000000: db90 4b0d 6522 ce3f 921b c988 a9cf bd3f
00000010: 8355 058b a2ed d7bf 2fd0 984f a1f3 e23f
00000020: 92c1 a5ed c6dc ccbf 114e 43ae 2779 b23f
00000030: e772 b375 9489 ce3f 6e2e 7f2e 2d88 f1bf
00000040: 0c59 a14d 69a0 c0bf 5ea7 1b35 85fb a7bf
00000050: d764 a822 4063 e03f 01b2 7354 a194 a43f
00000060: 903f b6f2 8903 d3bf 56b5 b79b 514f ba3f
00000070: f80a e845 24bf e63f 7280 7d6c 7e5e c3bf
00000080: 56b0 7cdd 6819 de3f 88d9 275d 5b85 b5bf
00000090: 2577 eeee 8c39 f1bf 69ff eb12 3625 e23f
000000a0: 144f 6455 166f d6bf 472e b966 5bbe b5bf
000000b0: 7ca8 8539 292a c53f 00e6 718c 43bb fcbf
000000c0: fd28 3d9d c36f bd3f b7df 223b 9932 c1bf
000000d0: 67df 497e 8340 ee3f 98f7 19a7 31aa d13f
000000e0: 1abc 9353 800a f2bf 9f06 1706 9163 c63f
000000f0: a15f ff9c 22b8 ed3f 5252 0075 9608 e4bf
00000100: 0e5a ae09 4e56 9dbf a3db 6123 e7b8 aa3f
00000110: 09bb a939 e62e c7bf c54e 79f2 6ac2 e63f
00000120: 4cb3 3315 65ff f8bf d34e d389 a9ef e23f
00000130: 735b 38b9 a4bd c03f e23e 9eca 32a7 a7bf
00000140: c898 2ced 741b d73f 7700 dc8c 75ff c3bf
00000150: 9638 f531 5a22 c53f a40f d061 a9a7 e43f
00000160: 025a 56c9 7c08 bcbf 237d 1ea4 0757 c53f
00000170: d783 343d 154e d03f 1380 9761 65cf b7bf
00000180: 3969 dc98 cc88 c3bf 762b 492d b896 c63f
00000190: dd39 522c 1e10 a8bf 4d09 491a b750 e03f
000001a0: 2027 8d50 1175 f3bf d5f1 0763 cd78 e1bf
000001b0: c3f8 86e7 0ae1 cd3f f462 e8a0 3d16 a7bf
000001c0: badb 477a fc79 dc3f 9f53 8569 46c6 d23f
000001d0: ae0c 8085 8aa0 c73f 1c8e 2b10 6b91 c23f
000001e0: a5ce dc75 31c9 d33f 5795 b7ae 539c c63f
000001f0: 7de4 21b5 7b55 ca3f 9867 f0bd c0e7 ad3f
00000200: 4ba9 3908 1b24 d3bf 2f4c 4968 4696 d93f
00000210: 2a00 d569 6838 d1bf cbcc e2ec 99e9 e2bf
00000220: 085e 367a e062 d3bf 54c0 8ce6 3a18 dd3f
00000230: e81f ee5f b4d6 75bf 5df5 6f04 359b cc3f
00000240: 3e06 9f85 5923 c13f 68cc 6e07 31f2 d73f
00000250: 068d 3bb5 b9dd e5bf 5211 89cf fdfe c13f
00000260: 2be7 c297 4d30 d53f acc8 29b9 4741 cdbf
00000270: de31 8011 4429 ebbf d470 6d16 d47c d63f
00000280: 5106 118b 7373 d3bf ae17 9205 f8ae a33f
00000290: 0e2a 6bfe dba2 953f b429 2096 b901 a4bf
000002a0: a738 540a 7658 b4bf 8525 db9b fd02 a73f
000002b0: e12b bc8c 482c d23f 8392 3aac d9c0 b03f
000002c0: a51b f557 daff 733f 2060 ff33 668a c73f
000002d0: 6a37 2928 9791 a6bf ba6d 0b68 e66f b1bf
000002e0: 020a ad16 7ccd c1bf 04c5 6907 bba0 c6bf
000002f0: f15d cd9f 26d2 d63f 045a 9a88 2ce7 d83f
00000300: 0c3a 92cc 1e29 cebf 1142 f892 bed2 da3f
00000310: 3e60 08bf a47b e3bf cf0d 1cfa c94c d4bf
00000320: f541 8887 e769 d9bf 3722 db04 f36d e13f
00000330: 7569 4cee 5c86 d33f 4d2e e2cc 1de6 cc3f
00000340: 9960 df6b ab02 d63f 33fd 8d48 1ade c53f
00000350: c09e d744 6873 e0bf 3b1f 7713 e974 c93f
00000360: 3f89 913f 2e6c e0bf 25e0 a44a 6a1e d9bf
00000370: 87e6 74d9 13d6 e1bf c426 3306 5ff6 d03f
00000380: b845 6441 577b 90bf 2966 869c b76a d73f
00000390: 56bd 0569 4f54 e7bf 2d7a 0b2b 9393 d7bf
000003a0: 94de 2383 aef4 b0bf e780 f8fa 3d77 f13f
000003b0: 98f3 b334 9dab dd3f 99db 40f2 c5f1 d33f
000003c0: 4350 d41a 5694 c63f 033f 219b 5006 d93f
000003d0: e178 c425 23b7 c4bf 9f6a 518a 337a d93f
000003e0: 7273 f94b ce2e a83f 09dd f952 f980 dabf
000003f0: 2d42 a768 630a e4bf e2b8 a86e cf66 e13f
00000400: be5f 2d8a 1ea3 d5bf cce6 7da5 17ba d83f
00000410: 1a2f eecb cd4f dabf 9b0f d8d4 3527 a8bf
00000420: 2335 50ea 5bd9 f4bf 09a0 d904 ca71 db3f
00000430: 4ff0 d32c a4b5 db3f 84cb d264 032d d13f
00000440: 7166 5a54 d0b8 c63f 59bc 68bc 2f43 b23f
00000450: cf8c ac0c fcf1 d1bf efce e9e7 3657 dd3f
00000460: 2924 dbfe e924 cbbf 39ae 4b7e 9e5a c3bf
00000470: 62f4 5176 6b28 eebf 5038 c14e 222a e13f
00000480: 9a56 a838 2f92 b0bf 8300 bed3 2ef8 d13f
00000490: d6d1 842f cbb5 e6bf 4b54 cd55 2485 dbbf
000004a0: 527f e73e 6461 d43f e270 6f42 2cda e93f
000004b0: b0aa abb1 5a57 c83f aeb4 77a3 8096 d63f
000004c0: 3520 4d83 e387 d53f 7f9e 2bd5 689c aabf
000004d0: 65c6 c9e9 b497 d3bf 8f0b 5fb6 3d19 c43f
000004e0: bcf5 3af6 d9fa eabf 1211 0b9b 25ea dcbf
000004f0: 760b fb76 f441 e3bf 7beb 1cbb fd82 cc3f
00000500: 1d24 83af b3a0 b93f 0ca8 7e6f 992c cdbf
00000510: 4e2b 0a19 a9eb b43f 1502 a426 4658 a93f
00000520: 0a0a ca8a a11f debf 66dd 25de 0bf0 d3bf
00000530: ea97 df0d 81f9 d0bf e94c 55fa 8a70 d4bf
00000540: f0e8 ca13 bda1 c2bf 64b7 72a9 013c c03f
00000550: 5f8b b95f 4701 ce3f eef7 5824 a296 6c3f
00000560: cce2 995f 1d63 cc3f 26e5 6290 9634 b4bf
00000570: a238 f4c0 fe23 c1bf 7e99 a718 488f 943f
00000580: 6640 cbfc 7adf d9bf 6cc1 88f4 d54a dc3f
00000590: 861a 1f45 e95f a1bf 4326 edb8 4df4 cb3f
000005a0: eb2a c178 426a e5bf 68f9 eaf3 8b2b ecbf
000005b0: 198a 5a78 bd61 d83f c949 2dda 252b 99bf
000005c0: 2451 9978 cee9 ddbf 7494 6cdc 7e44 d93f
000005d0: e339 b1bb 58e6 e2bf 3577 c961 a271 df3f
000005e0: e151 abe7 51af a53f 3e07 4033 3f6b c2bf
000005f0: 34ef 622a 9ff0 d1bf c767 5e52 d919 c13f
00000600: 3db5 6616 41e9 c1bf 1f1f 07b9 edc3 de3f
00000610: 04a3 1e8e 4e73 aebf 7014 9e70 29cc b9bf
00000620: 86d2 0429 3b27 eabf 49b6 b704 b69e edbf
00000630: 84eb 0efe 3df0 d63f 6442 b6d9 2abb bc3f
00000640: 7242 12e1 4946 ebbf 567e d0a7 fa8a c63f
00000650: 7586 c8bf b5c0 dfbf 626a e9c7 30c0 d33f
00000660: eff9 9ddc f48c c7bf aa92 af27 1458 d1bf
00000670: ba7f e952 7f7c e03f 3a64 2ceb d5d0 963f
00000680: 685d 42ba db1c c3bf f227 5976 2b2c ba3f
00000690: bd1a 24c4 ed9d e1bf d9d5 4cad 13fc c6bf
000006a0: cf50 5f2b a157 d5bf 6014 7b2b 6fa2 d93f
000006b0: 97c9 edef 3a9d dd3f 95ce 9099 f004 d7bf
000006c0: d0e1 4b13 c6b8 d23f 64e4 1f46 d5fe bfbf
000006d0: bcad af33 4a7e cabf c533 d15d 7d17 c23f
000006e0: fb2e 020c bf8d b83f 052c 4c42 d607 d7bf
000006f0: fcd1 f963 0c55 c53f b239 c232 f0d9 d03f
00000700: 8590 46fc 6760 d0bf 52e2 e57c eea9 d83f
00000710: f2ca a87e b5d0 e9bf 2ff1 7cc0 3c0d e7bf
00000720: db8d 235c 722b f23f d89e 6d37 3e59 d63f
00000730: ef8d 718d 7d3a bf3f e59b 1b95 751f e03f
00000740: db71 91c1 4660 dc3f ac04 c280 ba93 a83f
00000750: cddf e892 21f0 c7bf fba6 0989 23f2 de3f
00000760: 94f9 af3a ba10 d2bf e3d3 f01a 07eb c3bf
00000770: 8495 6282 b562 dabf 3ed8 9bf5 ef3b de3f
00000780: 3d3e 36c3 d2de ccbf ec03 38aa 37b4 d43f
00000790: 9be7 0c9e c27a af3f a198 0cba 4292 e0bf
000007a0: 18b5 2b7f de83 cd3f 92d8 5903 2e96 e9bf
000007b0: 4e8e 19f7 07d2 ca3f 7e74 deda b58e c43f
000007c0: 6096 edf5 c194 ddbf db1f a41c 5dbc d93f
000007d0: 7c52 b489 afc3 e6bf 7df7 5c23 4d44 d43f
000007e0: 590e 6a5b 6fbb be3f a95d 603e 971b d0bf
000007f0: 9c8a eeb8 1ab1 e1bf 177a 8693 3ed7 c53f
