lstm_with_validation.pth (torch, 42538 bytes, 16 tensors)

encoder.weight_ih_l0 f8 [64, 6]
000000 ee 8a 50 a4 2a 7b c2 3f 66 18 80 f4 7f 3f c7 3f
       0.14438374541449356 0.18162536085600606
000010 d4 8f 9e 13 71 d2 c3 bf ec 71 50 30 30 79 af bf
       -0.15485967119195598 -0.06147146787427346
000020 18 a0 3c de 0f ad a5 3f 96 58 f3 c9 77 16 cd 3f
       0.042335983160512736 0.22724816666476916
000030 12 b4 78 0e 9e 6f 95 3f 23 54 86 ef c8 10 c2 3f
       0.02093359912230503 0.14113723464530023
000040 1a 6e 09 c8 64 71 c4 3f 81 b4 cf 70 39 b7 b2 3f
       0.15971050040649076 0.07310828212912847
000050 7f 3e 27 af 70 9a ae bf 99 5c c6 03 7c 6a a2 3f
       -0.059772035008447404 0.035968661747739
000060 29 8f 7b 8a 2b ce c5 bf 17 3b 04 9d b4 f2 b0 3f
       -0.17035431157921124 0.06620339234744353
000070 26 d7 75 f5 5e 5f aa 3f 46 ee b4 b7 a4 d9 c8 3f
       0.05150887247411466 0.19414195032173803
000080 81 24 83 40 d9 e1 b0 bf 29 a4 ea 9e 88 57 c0 bf
       -0.06594617676741345 -0.12767131576154725
000090 69 88 2b d8 ee 66 c3 bf 55 19 44 a7 8f 7b cb 3f
       -0.15157876544168694 0.21470828692708702
0000a0 90 a9 f0 e7 b8 8b c1 bf cb 7e 1a 6b 83 b2 b9 bf
       -0.13707648587417198 -0.10038014759856677
0000b0 00 48 9e 17 91 88 9d 3f cc d6 ce 27 6d c6 c0 bf
       0.0288412733712633 -0.13105549281833928
0000c0 f9 78 88 89 46 8a b5 3f 92 f3 85 14 03 bc b7 3f
       0.08414116723767852 0.09271258593612533
0000d0 13 65 fe 58 fc 91 c1 3f 2d 15 e4 58 9b 1b ac bf
       0.13726763101002656 -0.054898123360582175
0000e0 9a 10 a3 44 05 4b 8b 3f 19 f8 6d 08 9a ad c8 bf
       0.01332668414796272 -0.1927979031715388
0000f0 81 8b 2e b4 d6 31 ac bf 42 df 77 c1 4a 60 9c bf
       -0.05506773900494633 -0.02771107488476266
000100 c4 7e 6c 6e a9 ad 97 bf d3 24 09 ea 7e c7 c5 3f
       -0.023123404850706533 0.17015062739873218
000110 68 89 82 e9 f1 37 c5 bf ca b2 dd 79 9a 06 b4 3f
       -0.16576980497218163 0.07822576022381181
000120 29 24 ab 8f 4d 9c c0 3f 85 d6 89 b2 78 3f ca 3f
       0.12976998820366362 0.20506199567505604
000130 7b 1b 2b cf 5c d3 c1 bf 3f 2d d2 5a ca 81 bb 3f
       -0.13926277270931195 0.10744919507321969
000140 2d 0f f9 06 21 59 a1 bf 19 64 5a aa 4b cd bd 3f
       -0.03388312540167102 0.11641381176959022
000150 35 d5 e5 e2 b8 41 b4 bf ce b6 02 15 02 c2 9a 3f
       -0.07912784137245839 0.026130707294831627
000160 a8 c1 a5 2d 03 b6 99 bf 0f 69 7a 60 63 11 9d 3f
       -0.02510838476286073 0.028386643184242163
000170 96 fe 56 17 76 82 bf 3f 03 97 1d bc 55 f1 bb 3f
       0.12308443136043432 0.10915122835794126
000180 8c 98 16 5f ab 1f 7e bf b5 5d 11 f6 cf ad 71 bf
       -0.007354421062166005 -0.004316150997588354
000190 e7 03 a7 3f 3f 9b b6 3f b7 c2 f7 2e 01 78 d0 3f
       0.08830638221753838 0.25732450091076536
0001a0 64 2d c4 86 c9 27 c1 bf fd 32 f1 51 c4 97 c7 3f
       -0.13402670936953165 0.18431905747492996
0001b0 f8 11 55 ae e5 b9 c0 bf 87 0c be 26 08 3b a5 3f
       -0.1306731320602379 0.04146600220612933
0001c0 01 2e 52 4e c2 c1 b8 3f f3 f8 ef d3 d0 98 82 3f
       0.09670652782568114 0.009080535381141596
0001d0 fc da 9a 7a 07 5e b8 bf ae 62 7a 1f c0 72 aa 3f
       -0.09518477195056713 0.05165672668699038
0001e0 69 e1 d7 d7 43 a1 cf 3f 4c 18 a1 7e 7c 78 c3 3f
       0.24710891761038603 0.15211445029325643
0001f0 e1 77 0e fe 98 93 85 3f b7 31 01 83 cc 14 c3 bf
       0.010535426381291959 -0.14907223126136923
000200 81 ad fb 88 c4 d9 85 bf 02 8f 07 25 4a 72 c5 bf
       -0.0106692652038507 -0.16755034263689345
000210 f1 d5 ca 72 c3 31 cb 3f 56 55 e0 45 20 cc b3 3f
       0.21245616059393016 0.07733346658672721
000220 b6 19 9e f1 3d 29 a7 bf f0 c4 c4 47 cf 4e c4 bf
       -0.04523652624543521 -0.15865508083655966
000230 eb 95 6e e9 45 93 d0 3f 11 5f 42 ba 65 bd a1 3f
       0.258988836251176 0.034648112284399464
000240 1b 38 c4 11 91 82 ba bf d2 29 6e b6 04 07 cf bf
       -0.10355478938819866 -0.24240168483477348
000250 ed 1d 09 67 c7 74 bc bf df 2a 9d e8 c7 c5 c4 bf
       -0.11115690484540837 -0.16228579385855021
000260 00 5f 18 56 ba 06 c8 bf 55 53 32 50 cd 04 a2 3f
       -0.18770531848780792 0.03519288639032562
000270 42 df c8 05 c7 ef cf 3f fa fe 77 8f 59 b7 c1 3f
       0.24950492651418626 0.13840789323148056
000280 38 0b a3 06 1d 5d bb 3f 27 da 7a 6f a4 6e ca bf
       0.10688954746278234 -0.206501535829106
000290 0a eb 53 61 f4 40 b3 bf 98 8c 9c 54 24 fd bc 3f
       -0.07520987869422072 0.11323763910017914
0002a0 f9 9d e7 0b bc 6d cc 3f ae b3 bf bc b9 b8 a2 bf
       0.22209883290564372 -0.036565593996648146
0002b0 aa 69 9f 3a ce 93 c7 3f b6 24 b9 b9 66 b7 b0 3f
       0.18419816839634723 0.06529848131426061
0002c0 97 6a 74 9c 5c 5d a2 3f d9 40 ec 85 65 b0 c0 3f
       0.03586854371879616 0.1303831962509381
0002d0 69 b5 0d dd e5 b8 58 bf 50 01 10 a7 99 18 c2 bf
       -0.0015089268456124022 -0.1413757386908494
0002e0 2d 1c c4 86 fc f5 8f bf 36 54 a1 bf e5 c8 b4 3f
       -0.015605900633557901 0.08119045189353433
0002f0 ee a7 8f 85 77 c8 c0 bf a5 c4 62 b1 34 3f c3 bf
       -0.13111776372471645 -0.1503663889066377
000300 e9 18 9f 83 f8 b5 cd 3f b2 0c 42 e1 9d 67 be bf
       0.23211580683545854 -0.11876856564963381
000310 f4 b2 22 99 f1 d7 b5 3f 93 7e 98 35 a9 11 b0 bf
       0.08532629002247544 -0.06276948507774653
000320 0e 5f ff 41 f0 88 bf 3f 9a 95 66 12 4c 80 b9 bf
       0.12318326579349678 -0.09961390923725447
000330 a1 a6 42 01 9b 67 b6 3f 6c 59 1c 85 5c 87 b0 3f
       0.08751839428682696 0.06456545114301598
000340 f0 62 8e 05 9b 0d b7 bf a5 ff 57 b8 4f 9c b1 bf
       -0.09005135427140565 -0.06879137278155996
000350 b2 e5 21 b1 60 68 cd bf 75 7a d6 ca 79 31 c0 3f
       -0.22974785470050346 0.12650988010587452
000360 dc 6c 22 25 4c 23 b0 bf c2 7a 7e fd b3 ab cd bf
       -0.06303859621623381 -0.2318024623645752
000370 f5 2f 1d 5d 58 85 b7 3f 30 f5 cb 24 c8 e8 be bf
       0.09187843583384832 -0.12073946855885676
000380 3f 7e 28 14 7b fc c7 3f cb 97 4b c6 e0 65 94 bf
       0.1873926018169971 -0.019919883826240253
000390 b3 e8 4f f6 2d 0f 85 3f 00 57 a2 f2 c8 57 b5 3f
       0.01028285892424594 0.08337074207005557
0003a0 6d 84 35 44 62 4e b2 3f 46 50 75 c2 a5 f3 9c 3f
       0.07150854268322045 0.028273191446104094
0003b0 20 99 9c 50 6b d6 66 bf ec 21 76 6d 6e c5 cb 3f
       -0.0027877899164138326 0.21696262688443768
0003c0 4f 0a 4e 13 e0 31 99 bf 0d 76 f1 b7 12 f1 bf bf
       -0.024604321649812907 -0.12477223387528387
0003d0 3f 94 0c a0 ae 1a c3 3f 9c d2 b9 1c 65 02 b5 bf
       0.14925177397631903 -0.08206779433551009
0003e0 a7 c9 1f 7a 2f c3 bc bf 3f 4d 33 48 59 0a 67 bf
       -0.11235329371974122 -0.0028125518598273442
0003f0 2d aa 14 fc 7e dd b3 3f 2d a7 f1 d4 9c f6 c3 3f
       0.07759851126017088 0.15596352002767713
000400 cc 5a 6c 41 e2 2c b7 bf 26 36 77 f7 83 3f 8d bf
       -0.09052862260100908 -0.014281302442124288
000410 bd 2a 60 8f 05 14 d0 3f a3 e1 d3 80 c7 d4 b0 3f
       0.251222028746877 0.0657467546005877
000420 2a f7 ea 4f a7 3e b2 bf 4d e6 58 88 e0 8c 9f bf
       -0.0712685175048732 -0.030810840913750238
000430 7d c9 a1 48 d4 69 cb 3f c5 f0 3d 02 3c d4 c2 bf
       0.2141671518944114 -0.14710188016386475
000440 91 f7 d5 11 3f 67 cb bf 4f ed 15 a8 5b 85 bc 3f
       -0.2140883290375624 0.11140988210347767
000450 e0 2d 5c df 5b 6e cd bf be c0 58 6a a2 a1 ce bf
       -0.22993038564923918 -0.23930769150456926
000460 6a be 77 66 dc d5 9d bf 06 a7 b8 b3 ad 58 a5 bf
       -0.029136127237448774 -0.041692188442835884
000470 21 23 86 69 b8 86 c2 3f b0 52 df 2a 0e 59 a9 3f
       0.1447363391164567 0.049507563336793736
000480 13 ed 52 6f ac 75 cb bf 67 9e 4d e6 94 5c b7 3f
       -0.21452861247767227 0.09125643370281865
000490 f1 d4 7c 81 17 75 bc 3f 8a b0 e0 65 14 b3 97 bf
       0.11116167937582923 -0.023144072263833006
0004a0 22 c2 56 7a 0e 7d c0 bf 78 cc 12 7c aa 35 c9 3f
       -0.12881642316416825 0.1969502549960429
0004b0 9c 02 91 f0 60 48 a9 bf c2 4b da 3c 48 f4 c5 bf
       -0.04938033043481946 -0.17151740046810288
0004c0 6c 22 a5 27 67 97 c4 bf 99 b7 38 56 45 b9 bc 3f
       -0.16087045131486677 0.11220200877207133
0004d0 2e 1a 54 49 10 25 cc bf 71 a2 cb 4a db 36 b4 bf
       -0.2198810918855129 -0.07896204544125297
0004e0 18 7d ab 50 46 29 cb 3f ba 1e a5 02 68 28 bf 3f
       0.21219710291823257 0.12171030106139372
0004f0 78 4b b2 37 ad bc ab 3f 59 75 23 27 b8 ae bf bf
       0.05417386345756986 -0.12375975566415799
000500 71 8f 13 de 73 a1 c4 3f bf c3 6d 0b dc 54 bc bf
       0.16117714255880913 -0.11066985396406802
000510 78 81 0c 48 76 e3 a1 3f 38 15 80 ef ff 19 c4 3f
       0.03493852262022562 0.15704344934798953
000520 9c 69 89 29 3a 4d c9 bf 25 cc 71 9e a2 2d b6 bf
       -0.19766928699648367 -0.08663383835100598
000530 a2 bd f1 1e 37 ae b7 bf c0 94 21 03 0c bb cd 3f
       -0.09250206475711889 0.23227071907891705
000540 8f b8 2d 86 ea c9 b4 3f de 85 4e c4 46 85 a8 3f
       0.08120599532932914 0.047891818488334556
000550 78 2a 67 e7 b6 2a ce 3f 5e 8c 60 1d 79 d9 ca 3f
       0.23567854212736328 0.20976175245695833
000560 08 45 24 2b ef 79 c8 bf 32 81 8c d7 15 5c b1 3f
       -0.1912211380627371 0.06781136047766692
000570 26 c9 c6 55 66 2e b6 3f 3a 68 7a 2e 5e c3 c5 bf
       0.08664550394204137 -0.17002465505066927
000580 27 0f 14 0d 10 2b ce bf c1 33 78 2a 19 51 bf bf
       -0.235689169298092 -0.12233121191839215
000590 f9 0d ca 69 41 10 c0 bf c1 28 6c c9 bd 6d af bf
       -0.1254960791157911 -0.06138413509150232
0005a0 8d 06 dc 0d 04 24 a2 bf ba 00 a8 49 fa 28 b1 bf
       -0.03543102902586979 -0.06703151987312853
0005b0 1a ca 13 41 50 48 c9 bf a8 5e a0 2f 9c a4 a0 3f
       -0.19751933267214455 0.032505875409865326
0005c0 20 89 ac 41 a0 77 a2 bf 58 b4 db 6b 78 83 c1 bf
       -0.03606892396625683 -0.13682465807451893
0005d0 23 73 2a fc e5 a6 c0 3f b0 34 4d cc 04 f2 b3 3f
       0.13009333431991718 0.07791166293937368
0005e0 71 b1 91 49 b5 9d b9 3f 5d df 6f 76 2e d0 ca bf
       0.10006268545266096 -0.20947819502884615
0005f0 28 4c 94 4b 92 cf b1 bf 73 2a a5 49 e6 a8 8c bf
       -0.06957353921124876 -0.013994025347206595
000600 de b3 4c 31 c9 ac ac bf 5f 5a 70 4d 41 f4 b7 3f
       -0.056005751865406 0.09357078686330443
000610 c0 d4 7a 78 8d df aa bf 10 be 82 c4 f1 f7 b1 bf
       -0.05248682113362113 -0.07018958137154407
000620 3b 9e 43 18 32 9a ce 3f ab 49 05 20 6b 25 8b bf
       0.23908067879459502 -0.013254963793461657
000630 1d c7 af c0 8e 69 c0 3f 6c 3a e8 e5 d1 e7 b8 bf
       0.1282213631489463 -0.09728729117362328
000640 7c 09 b1 77 14 6b b5 3f c4 79 61 fe 11 9f b3 bf
       0.08366516039044386 -0.07664596996753575
000650 ad 46 62 99 0f 6c b3 bf aa 1c 6f 45 de 5c c2 3f
       -0.07586762900089168 0.1434591139825206
000660 cf a9 a3 4e 1b 93 c7 3f 05 d0 7e 0e f9 56 c2 3f
       0.18417683925447512 0.1432792015817769
000670 c0 4e c3 0a 30 0a cb 3f a1 5b b0 94 ba 18 b0 bf
       0.2112484028390238 -0.06287733202076008
000680 99 82 71 62 02 18 a8 3f 5d 63 b2 a4 70 2f 9e bf
       0.04705817653371475 -0.029477844288155242
000690 ec 7b ac 2a 59 4c b7 3f ad 43 8d 07 8e ef b2 bf
       0.09100873271789539 -0.0739678162037893
0006a0 c6 c4 d5 04 bb 8d c6 3f 5f 97 3b d7 13 42 b3 bf
       0.17620027290425905 -0.07522701267916208
0006b0 0b 95 48 1d fe 48 cd bf af 3b 02 67 71 48 c6 3f
       -0.22879005842074948 0.1740857842418939
0006c0 81 a5 d0 45 f6 ae b5 bf 67 9b 16 b6 4f 7c d0 bf
       -0.08470095829456704 -0.25758736402570154
0006d0 56 bd ff 52 8b 49 bd bf f7 fc f8 f2 95 89 b0 3f
       -0.11440344597189286 0.0645993917651032
0006e0 af 04 45 da af 2d 83 bf ec 59 89 26 cb ee bf 3f
       -0.009364484642562535 0.1247374505122491
0006f0 41 b2 0d aa 4b 99 bb 3f 50 6c 51 31 e4 34 d0 3f
       0.10780785466858679 0.2532282334920568
000700 eb c9 c7 e2 25 13 9b bf a8 a0 4d ff 14 88 d0 3f
       -0.026440231291369114 0.258305787391246
000710 95 8c 79 b7 74 bc c8 bf 8e 14 c6 cc b2 41 6f 3f
       -0.19325121840220008 0.0038155071435449
000720 5f 33 5a 46 d1 5d a1 bf db ac 1c e4 30 06 ba bf
       -0.03391889556687632 -0.10165696686879093
000730 d0 0a a4 e8 ff c2 a2 bf e5 7a 06 c5 4f eb b2 3f
       -0.0366439792142238 0.07390307007015513
000740 9a 3d 9c 61 66 51 bd 3f 59 4e 17 ca bf 5e c4 bf
       0.11452331431450205 -0.15914151542402769
000750 19 2f cb 23 a9 58 b6 bf a3 1b ac 9a 3e 21 be 3f
       -0.08729035495633432 0.11769477153948897
000760 22 bb de de 77 0d b1 bf 1d 19 85 c8 2d a7 b8 3f
       -0.06661175910151632 0.09630094666963314
000770 df 7a 6b 58 68 26 cc 3f bc 43 33 72 4c 36 bd 3f
       0.21992210690856148 0.11410978115169618
000780 e7 87 89 9b e2 5c a0 bf 5c d7 50 e2 28 96 c6 3f
       -0.0319586577286513 0.17645751047683234
000790 e0 37 1d d7 b1 4a c3 bf 8e 66 88 4c 01 90 cd 3f
       -0.15071700099582497 0.23095718609765864
0007a0 96 10 4f f9 f5 72 cc bf 31 56 da 33 5d f3 cc 3f
       -0.2222583262756685 0.226176882094181
0007b0 c9 bb ea c0 5e b9 c0 3f 36 34 6e 1b 16 2d c3 3f
       0.13065704746028775 0.1498134263933097
0007c0 9d fc 28 a7 c9 18 c1 3f 1b c9 50 08 e6 b6 b3 3f
       0.1335689607821892 0.07700956061379254
0007d0 ae 70 18 20 ac ba b2 3f fc 97 a8 d8 54 e9 c0 3f
       0.07316089423733516 0.13212071017295546
0007e0 ba de b5 14 63 08 c5 3f 7d 60 fa f3 fb bc 91 bf
       0.16431845198871092 -0.017322479978787875
0007f0 f1 01 ce f6 ec 8f c8 3f ca d9 fd 9f c2 49 a6 3f
       0.19189226199161127 0.043531496076798584

encoder.weight_hh_l0 f8 [64, 16]
000000 79 27 a2 6f dd a2 c8 bf 3c 8d 4a f4 f6 4c ab 3f
       -0.19247024489260037 0.053321568794923085
000010 e4 ef 42 9e 5a ce bb 3f a3 0c 7c 4f 87 e3 cb bf
       0.1086174618130254 -0.21788112050135053
000020 4d 1e 8f f8 e3 a0 9b bf 09 ec 40 ca 37 17 b9 3f
       -0.026980936094132258 0.09801052749473639
000030 57 24 60 49 a9 f6 bd bf 18 7c 8d c9 ac 0c c5 bf
       -0.11704500237841962 -0.16444930879058073
000040 5b 4a 64 05 ac e2 a4 3f 84 33 93 e2 07 e6 96 3f
       0.04079186979119661 0.02236187286762316
000050 69 5a ce bb c5 4a bf bf 42 fd 6f 47 c1 c7 cc 3f
       -0.12223468623265323 0.22484603870541703
000060 81 3c b6 a4 c7 f0 c5 3f 85 e2 f2 73 da f9 9b 3f
       0.1714105180985577 0.027320302321387508
000070 56 a1 64 10 90 71 cb 3f fb 0a 81 46 d4 87 a3 3f
       0.2144031600994462 0.03814566956181938
000080 46 ac 51 c0 a1 2f cc bf 16 c3 43 e5 10 5f ba 3f
       -0.22020360842302206 0.10301309201510053
000090 11 3c 3c b3 42 78 8d 3f 07 c0 15 cd 28 c3 c0 bf
       0.014389535040690434 -0.13095579160608414
0000a0 cd 00 7d f9 b9 7f c5 3f 4d 54 78 38 6a 98 c0 bf
       0.1679604023174818 -0.1296513343556022
0000b0 36 e8 d4 19 99 8d 8a bf 09 22 d8 d2 1d 41 ba bf
       -0.012965389347858385 -0.10255609891476793
0000c0 dc c9 73 0c 9e 9f cd bf 02 9f 4c 8b 08 b1 ad 3f
       -0.23143363578817755 0.05799128246718334
0000d0 a4 5a c8 0d ac 66 c4 bf a7 dd 93 e6 87 ae b6 3f
       -0.1593833033845914 0.0886006296094509
0000e0 44 ce 47 53 18 97 7f bf f3 5d 17 63 25 95 88 bf
       -0.007712454815635154 -0.012003223501706883
0000f0 cc 44 6d 8c a4 e3 8d 3f 43 93 f5 89 28 a6 c3 3f
       0.014594350371825014 0.15350825058262715
000100 f7 75 0a 7c 0a 9b b4 bf 80 dc 8d c9 4b 16 c1 3f
       -0.08049073723164911 0.1334929212714293
000110 f2 67 a7 0a 12 8a c4 3f e8 26 cd 29 f3 62 c1 3f
       0.1604635765095846 0.1358322099788929
000120 c6 aa bd 52 37 26 c0 bf ac 06 1e 49 fa aa 97 bf
       -0.12616626300890327 -0.023113165581441095
000130 ef 15 7b 01 6c bd bd 3f d0 24 73 30 75 c9 cb 3f
       0.11617159877922466 0.21708550325118958
000140 0c 14 d1 75 d6 27 c8 bf d4 d7 32 74 26 55 c8 bf
       -0.1887157511975207 -0.19009857820282028
000150 ff aa 19 68 64 13 c8 bf c1 69 c4 7e fb c3 84 bf
       -0.1880918033887937 -0.010139431768540487
000160 2c ed d3 e7 d5 e0 c6 bf 7d ee 48 e7 fa fa c1 bf
       -0.17873643703192366 -0.14047180455405686
000170 9f 4e 39 47 39 0d b5 3f e0 ba 25 f3 ce 46 c4 3f
       0.08223302830566091 0.1584109008067207
000180 27 3d b2 41 76 e8 b6 bf 6a a1 2c ee 04 87 93 3f
       -0.08948458770668265 0.019069745099075254
000190 7a e5 bb 3b 23 24 bc 3f 7e 27 49 f5 22 5e bd 3f
       0.10992641647671589 0.11471765983983848
0001a0 58 55 4e c5 e3 ed b7 3f c6 8a 67 f4 ae 61 c7 bf
       0.0934736592010571 -0.1826685613042029
0001b0 75 4d e8 8f 2c d1 b0 bf 43 da 73 a8 87 7e bc 3f
       -0.06569174302449261 0.11130569326983512
0001c0 83 4a 7b c4 60 a2 b2 bf e2 7c d7 0e 6b 1c c6 bf
       -0.07279019162096216 -0.17274225449271002
0001d0 d0 cb d8 86 11 4d d0 3f 18 42 c7 4a 19 03 c0 3f
       0.2547038857330195 0.12509456778799755
0001e0 95 30 80 a1 6b 56 c2 3f 6c 5a 61 b0 dc d5 b2 3f
       0.14326234231737503 0.0735757761588986
0001f0 08 1d dd 6d 1a f6 c2 bf 63 c7 10 1f a5 c3 aa 3f
       -0.14813547481956157 0.052273902933292836
000200 08 5f f5 ab 76 18 c3 bf 15 00 fa 4e b5 b1 b8 3f
       -0.14918406864557476 0.09646161249293102
000210 23 26 76 b2 c3 4f cf bf e7 e5 fc cb 67 69 be bf
       -0.24462171758595827 -0.11879585962460447
000220 47 de 5d b9 fb ee bf 3f 5c b2 c7 71 77 f6 c1 bf
       0.1247403457217554 -0.14033406310717822
000230 d0 6f ac 52 6a 7f af 3f a6 fe 22 5d 80 e8 b7 3f
       0.0615189767761134 0.09339144014210862
000240 14 77 d7 40 95 2f c9 bf 8f 51 06 39 bc 09 b4 3f
       -0.19676461855026928 0.07827354805187368
000250 e1 96 20 58 34 f4 c9 3f b0 71 14 29 b3 4b b4 3f
       0.20276502898302964 0.07928008797575248
000260 1d d1 64 33 69 f7 bd bf 3f 26 40 65 fb ad cb bf
       -0.11705644135219413 -0.21624700969577934
000270 ea c4 57 6c 37 0e c0 bf cd 03 5c 94 8e 4c ca 3f
       -0.12543385305574556 0.20546133274186076
000280 c4 28 69 05 5a a9 b0 bf 5e 8b a8 fb cf 38 cf bf
       -0.06508410102938728 -0.2439212778855006
000290 3a 01 a0 9d b8 97 c3 3f 7b 62 2d f2 f0 9f c6 bf
       0.15306766220602147 -0.17675601792395298
0002a0 61 cb 03 cb ea 05 b0 3f 1f 0a fe 3d 8b 46 c1 bf
       0.06259028870026163 -0.1349653294274313
0002b0 d8 75 5e 82 e1 37 a3 bf 6c 2f b8 8d 34 6e bd 3f
       -0.0375357123987034 0.11496284923503958
0002c0 2d 91 cc 50 5b e6 cd bf 3a e7 56 65 f2 3f b2 3f
       -0.23359242863910748 0.07128825162990618
0002d0 5f 87 79 2f 43 ea cf bf a0 3f 3f 84 45 26 cd bf
       -0.24933662241079 -0.22773045499206734
0002e0 fa 45 da 26 87 70 b2 3f d3 27 69 32 56 9b c5 bf
       0.07202954004812759 -0.1688030000826176
0002f0 dc 22 18 d1 29 fd 6b 3f e4 b1 b1 c9 7b 6f b2 bf
       0.0034166161283376417 -0.0720136039178168
000300 69 8b 0b 75 2d 3b c7 3f 23 f4 21 c0 76 4e 81 bf
       0.18149345603077485 -0.008450439203665344
000310 21 63 73 85 0a ce b2 3f 44 f5 aa b1 59 83 c6 3f
       0.07345643766474243 0.1758834950941638
000320 99 f0 82 62 ca 5d 80 bf 82 e3 fa 87 16 48 b7 bf
       -0.007991391307193662 -0.0909437257750039
000330 3e f6 00 3b 2e 00 c9 bf 2c d1 b5 b3 10 ad cf bf
       -0.19531801110308494 -0.24746903204835158
000340 0f f5 e8 46 04 0e b7 3f ad 9e e2 2d f5 2f b9 3f
       0.09005762797547255 0.09838802690739597
000350 3d 01 05 3d ef 2b bc bf 1b ae 94 5d 6e 8d c8 3f
       -0.11004538764700995 0.19181613511442283
000360 90 0f 22 79 1d 8f b2 bf 0f 1b de 35 56 c0 c4 bf
       -0.07249626357412198 -0.1621196520829575
000370 df 7a f6 d6 2f bf ca 3f 39 09 a5 bb 19 89 b5 3f
       0.20895956035834382 0.08412323790711164
000380 8a 8e 6b b3 bb 39 be 3f 3d 4a c8 c5 f4 1a c2 bf
       0.11806843881964305 -0.14144763619749937
000390 38 3e de 92 a3 1f bb 3f c0 ba f3 23 35 6c c8 3f
       0.10595152221343873 0.1908022332713326
0003a0 ce ee 88 39 1f ef a2 bf 3e 0e c3 d3 a2 bc c5 bf
       -0.036980605862905955 -0.16981921520174298
0003b0 be 6c bf f6 c5 c9 a1 3f b5 57 8c af 50 a8 c4 3f
       0.034742533083510704 0.16138657161417105
0003c0 4b d4 67 04 0e 93 ce bf d5 30 99 25 4e c6 b6 3f
       -0.2388627549659382 0.08896339815072747
0003d0 53 fc 7b f2 77 01 c9 bf fe 02 0d 99 b8 26 9e bf
       -0.19535731639914164 -0.029444584218484053
0003e0 66 9a a1 cb 76 1a c0 3f 48 a1 4b d1 7f bf c7 bf
       0.12580761855061268 -0.18553159446242717
0003f0 73 15 80 0d 00 2c c0 bf 12 cd bd 57 2d 0e 8e bf
       -0.12634277972407978 -0.014675478210597368
000400 6b 27 bc cf f3 27 8a 3f 62 cd 75 89 d3 75 c5 bf
       0.012771515633648275 -0.16765827381059767
000410 56 8d 50 cd 2d 47 91 3f 5c 82 f3 5e 92 03 c2 bf
       0.01687308850899901 -0.1407340015057511
000420 33 89 78 e3 65 1c ae 3f 6f 91 00 ff 52 35 b5 bf
       0.05881040956252761 -0.0828449127735149
000430 c1 b4 70 5d 19 be b7 bf 9c 7d 4a 38 cf d3 a5 3f
       -0.09274443179374982 0.042631602879960456
000440 3e f1 e3 44 be 41 ba 3f 72 58 49 a1 bf cb c0 3f
       0.10256566221136595 0.13121791243856112
000450 0c 00 a7 fb c9 63 b8 3f 2e 6c d7 12 8d d9 c0 3f
       0.09527265924316469 0.13163913173670622
000460 6f 2d cd 4f 20 74 bb 3f f7 bc 01 d1 37 60 cc bf
       0.10724069546011149 -0.221686341337296
000470 18 81 02 cc f8 68 b1 bf 5e 92 bd ee 05 6d ba bf
       -0.06800799351413322 -0.10322606161714407
000480 6f 36 f4 6c 54 62 a2 3f 51 1f 9b c0 a7 af 75 3f
       0.03590644674305287 0.005294471056636344
000490 cd 5f ea 57 1a ae d0 bf eb b3 e2 e1 2a fa cf bf
       -0.2606263979482691 -0.24982200650757078
0004a0 3b 76 8c e2 d7 5a c9 3f 40 3e 26 88 30 ae c9 3f
       0.19808481752345294 0.20062834403914742
0004b0 de 4d ac 28 53 77 a7 3f be d8 18 54 9d 9c bf bf
       0.045832251276944666 -0.1234834986033517
0004c0 fe 6b 31 8d a1 d9 9d bf 5b e7 0e 52 dc 9a ca 3f
       -0.02915050911211025 0.20785097128628646
0004d0 bd d6 8b 0e b6 a7 a5 bf c8 45 d9 5a 3e b1 a2 3f
       -0.04229515960279915 0.03650851115220238
0004e0 a8 49 a6 6b 08 cf c1 3f 9b c7 fc 18 1e 80 b9 bf
       0.13913064247442475 -0.09961116895718052
0004f0 29 88 a2 15 0e 4d b4 3f e2 78 74 19 00 61 be bf
       0.07930076626010475 -0.11866760846575944
000500 bd e0 63 9c 18 0d bc 3f db 7d 57 c9 c0 31 c4 3f
       0.10957483118170593 0.15776834326878383
000510 82 3b f8 35 e4 15 a8 bf fb 0e dc db e6 aa 97 bf
       -0.04704201849755575 -0.02311287609974409
000520 2a 46 1d 2f 49 8a 94 bf e4 9d 04 82 be 86 97 3f
       -0.02005876874983962 0.02297494572226623
000530 5f dc c0 f1 f4 32 c2 3f b1 e1 ea e3 dd 03 b2 3f
       0.14218007854808243 0.07037150205986255
000540 63 1d da bc 55 25 c1 3f a2 1b 36 21 fa 16 c3 bf
       0.13395187112130733 -0.14913870450638195
000550 b9 00 18 a4 a7 03 90 bf 77 c3 d0 a2 aa 09 ba bf
       -0.015638942137230247 -0.10170999979960792
000560 9e aa c0 a8 d1 a3 c3 bf 45 0a eb 41 c9 ce a1 3f
       -0.15343685855744565 0.034780778214117215
000570 00 72 12 d2 55 44 c6 3f 7a d6 f5 14 9a f3 a6 3f
       0.17396042592453398 0.04482728486884198
000580 e3 2c c9 0a 72 db 85 bf 2e f9 42 f3 19 74 b9 3f
       -0.01067246528068328 0.09942781628612771
000590 8a e2 a8 5f dd cd c8 3f 34 84 55 57 b8 ed c1 3f
       0.1937824933136379 0.1400671411929878
0005a0 92 57 75 40 e8 3a ce bf 35 f7 54 f9 b0 3a c1 bf
       -0.23617270610219215 -0.1346036164704231
0005b0 40 82 1e 9e b7 1e c4 3f 1b c2 3e 9e fd bc cb 3f
       0.15718741627371635 0.2167050383263963
0005c0 4a b7 f6 fa 01 7a cb 3f 7c e3 aa 7f 01 41 b3 3f
       0.21466088060463512 0.0752106606186213
0005d0 11 ac d0 d8 35 4f be 3f ea ea 1d b2 ce 24 aa bf
       0.11839615386331583 -0.051062068217069115
0005e0 23 12 63 d1 ee c6 c5 3f d4 fe 11 c9 ff e9 c3 3f
       0.17013344978308095 0.15557858770261268
0005f0 c4 65 22 ba 23 aa bc 3f 1a 5a 71 bb fa 9c cf bf
       0.11197112364097622 -0.24697813179473443
000600 6a 8a 5d a1 ec 8d b5 bf d7 98 d5 46 81 8a cf 3f
       -0.08419684352478787 0.2464143367644229
000610 85 84 b4 01 cf 61 a7 3f 9d 8d 07 e6 73 30 c0 bf
       0.04566809554877075 -0.12647865993413357
000620 e0 d8 d9 dc e8 11 bc bf 38 c0 f1 85 43 5a 9c 3f
       -0.10964827911252284 0.02768807892829292
000630 d7 f8 04 1d bc 8c ca bf 67 4b f3 ac 2e 77 c5 3f
       -0.20741988579715695 0.16769965596048594
000640 34 f9 9a 1a 46 60 9d bf 80 3e b8 cc 95 5a c3 bf
       -0.028687568067419636 -0.15120193954543382
000650 db 02 9c b8 57 af bd 3f 32 26 21 40 3c 2f cf 3f
       0.11595676667276271 0.24362900859186848
000660 45 76 a0 3e 8b a3 cb bf ee a4 86 1d ae 54 c0 bf
       -0.21592846448850103 -0.12758423272797564
000670 31 9a b5 2f 11 68 c9 3f 2b 10 76 97 9c b9 b1 bf
       0.19848837689933554 -0.06923845956595247
000680 46 de b5 16 13 a8 c0 bf 74 62 7e d4 fb a3 b0 bf
       -0.13012922867686622 -0.06500219285806869
000690 b2 bd f2 3c 3a 0b ca 3f f4 bf a5 d2 51 e5 c7 bf
       0.20346763587938949 -0.1866857794334461
0006a0 4a 8b d9 3a e9 d8 9b bf e4 9e 23 0c 4a 1c be 3f
       -0.0271946375054413 0.11761915966382791
0006b0 e7 bb 7f 38 bf 66 ca bf 35 1c 17 80 95 9c c6 bf
       -0.20626058825243307 -0.17665356401832502
0006c0 6f e3 ac 73 56 1f c5 bf e9 23 6f cf ed 3f c3 bf
       -0.1650188507863066 -0.150388456617548
0006d0 1c 34 31 fe e2 c6 bf 3f f0 6c 6b 56 bd 3f b0 3f
       0.1241285200678281 0.06347258910993836
0006e0 c5 e9 58 02 00 d0 b8 bf e2 fc 6d 20 d1 10 bf bf
       -0.09692382867152734 -0.121350355546372
0006f0 e3 40 c1 30 dc 51 a1 bf b2 28 24 55 d9 70 c5 3f
       -0.03382766814377349 0.16750637681281472
000700 ab cc e1 65 b8 70 a9 3f 70 3c 11 54 0a a9 c3 3f
       0.04968811267544856 0.1535962019429209
000710 ac 89 29 37 ac 46 c0 bf af 3b eb 26 b2 aa c2 3f
       -0.12715676015348032 0.14583422565780554
000720 d6 6e 97 33 42 95 c4 bf 64 33 69 cb a0 01 94 bf
       -0.16080501097791594 -0.019537460723131686
000730 4a 20 22 a8 85 3f c7 bf cc a3 47 f3 0f 69 cb 3f
       -0.1816260405505566 0.21414374712847317
000740 a6 62 d8 ad c8 47 bf 3f 78 ea 06 b8 12 2c ce 3f
       0.12218908542889526 0.23572000489896872
000750 09 a9 a1 32 bf 6c b0 bf 97 7c 77 a0 9d 65 cc 3f
       -0.06415934549446346 0.22185106597223545
000760 52 96 5e f4 db 44 c4 bf 86 4c ab 89 b9 0b b1 bf
       -0.15835141594031882 -0.06658515559256459
000770 cf 52 68 0d 96 07 c9 3f 1b 70 7f 66 b0 6f c5 3f
       0.19554401068366764 0.16747097973609545
000780 43 5b 99 be 01 d9 bc 3f 37 7c 29 4f b0 88 89 3f
       0.11268626120850649 0.012467744270166487
000790 6e eb 45 8a 74 e2 c2 bf 9c ed c5 d0 32 c1 cf 3f
       -0.14753586532227864 0.24808345026017953
0007a0 75 56 f5 81 b8 c9 37 3f d2 6a b3 bf f6 40 b1 bf
       0.00036297564107221704 -0.06739751987644674
0007b0 37 a3 68 4a 13 99 cb 3f 80 f2 ff b7 b6 f0 c6 3f
       0.21560898907889633 0.17922100052227918
0007c0 43 4d 91 d0 1c a1 9b bf 76 ab a7 e6 c8 6b c8 bf
       -0.026981783132510328 -0.19078933012437077
0007d0 b1 f7 5e 0e 17 cf af bf 48 78 e1 a0 6d cf 98 3f
       -0.06212684679438441 0.02422877592504616
0007e0 cc 56 d7 2a 0c 09 b5 bf f5 7c c0 0d c3 43 cc 3f
       -0.08216930433203656 0.22081792994956798
0007f0 30 67 19 b1 a8 f5 a9 bf 50 4b 7b 9c 9e 99 b7 bf
       -0.05070235406738133 -0.09218779869415283

encoder.bias_ih_l0 f8 [64]
000000 60 c3 52 48 b7 6e c8 bf 6e 58 d8 a1 b1 17 c8 3f
       -0.19087878257189583 0.1882230797061228
000010 a4 85 8b 4b 89 26 c8 3f 4f 39 01 9a 54 f7 c8 bf
       0.1886760348198041 -0.1950479270912617
000020 45 c6 54 f3 bd cd c1 3f 22 a5 9a ad 9c c7 b3 bf
       0.1390912473812468 -0.07726458776837267
000030 ad 7a 48 24 06 a8 b6 bf fd b9 fc 56 b4 76 b1 bf
       -0.08850134263819127 -0.06821753619872335
000040 cf d8 e8 e9 9f 5e 96 bf 86 4a 62 c2 54 e8 be 3f
       -0.021845339442926822 0.12073259111120124
000050 ab eb dc e7 bc 17 b9 bf 98 aa 86 f0 b6 82 d0 bf
       -0.09801846180646005 -0.25797818650122784
000060 d5 69 00 38 5c 03 c2 3f 73 77 d3 03 5e 79 ca bf
       0.14072754606679774 -0.20682883440798214
000070 70 50 02 bd b8 ed 84 3f 47 30 31 44 c2 bc 95 3f
       0.010219043033693448 0.021227870380514238
000080 cd eb 89 bc 22 40 d0 bf 4f f9 ba e0 67 51 c4 bf
       -0.2539145318220875 -0.15873430703318056
000090 29 9e 9a 43 23 be a1 bf b3 3c fa 5e 44 ee ac 3f
       -0.03465376091235967 0.056505333513194776
0000a0 31 b3 0d 4d 39 93 c6 bf 53 4d 84 d2 84 80 c3 bf
       -0.1763679147947186 -0.15235958365574706
0000b0 8f 79 31 d8 90 43 b2 bf 9f 47 28 5c 84 9c a5 3f
       -0.07134347227245129 0.0422097551819569
0000c0 11 51 e3 73 4d 36 bb 3f 0a d4 6c 15 5b 5e bc 3f
       0.10629734114929003 0.11081475518297182
0000d0 a9 b2 89 44 9e 1a ce bf 72 64 e8 51 c5 91 99 bf
       -0.23518732401443757 -0.024970133899931253
0000e0 3f e7 19 87 0a 6e c8 bf dd 66 01 c8 db d0 85 bf
       -0.19085818859803713 -0.010652272263701185
0000f0 ee e6 87 cb 53 3b cd bf e7 c8 5e 3b 4f 8b b8 bf
       -0.22837302625685346 -0.09587569426983898
000100 13 c6 29 15 de 6b 91 3f f1 6a 56 ac 38 8d ba bf
       0.017013044397066034 -0.1037173672433871
000110 73 d9 a8 63 86 ab aa bf 0a 38 78 39 1e 69 c8 bf
       -0.052089881577944384 -0.1907079487431818
000120 3c 8e 34 41 9d ee cd 3f 76 c0 87 5e 33 f7 b4 bf
       0.23384442981579123 -0.08189698274486709
000130 4c f9 fb 2a ab a5 b6 3f 81 8d 9a a4 24 6e c7 bf
       0.08846540259762498 -0.18304880177775476
000140 50 f6 ca be 61 37 a6 bf ec 84 62 6d ab e1 b8 3f
       -0.04339127973569801 0.09719344540146196
000150 2e b4 bb 11 f6 e1 c1 bf bc 97 b3 e6 08 cf c4 bf
       -0.13970828882102765 -0.16256819977496473
000160 7a d9 65 b4 92 83 c6 3f 1d bd b3 96 f2 51 ca bf
       0.17589029129494432 -0.20562584265233222
000170 7f 8d 42 ac 30 81 cb 3f b3 04 53 00 bd 0f c6 3f
       0.21488006983882355 0.1723552943786096
000180 25 cd f5 06 2f 35 c7 3f 72 01 3d d2 52 c9 b7 bf
       0.18131053771831165 -0.09291570313235356
000190 e5 5c 08 44 fc ce ae bf 30 83 85 ad 44 07 ab bf
       -0.060172923378724076 -0.05278982752020622
0001a0 f2 33 0f e9 46 81 c8 bf de 0a f5 09 07 d6 cc bf
       -0.19144522075512743 -0.22528160082045806
0001b0 cb 2e 2d 2e 2d 46 b7 3f 38 49 36 51 4c aa 9b 3f
       0.090914558194693 0.027016823250570726
0001c0 dd f0 7f 34 3c b2 a2 bf bb 2a 39 ec 9d b5 c4 bf
       -0.03651607647768327 -0.1617925074991343
0001d0 2d 1c bf bb 20 87 ae bf c9 4f 9b 94 42 72 8f 3f
       -0.05962469379260713 0.015354652557483821
0001e0 fb 82 70 37 b1 b9 c8 3f 61 ba 27 b0 84 d7 ba 3f
       0.19316687781340378 0.10485104847587358
0001f0 6f 4b 71 5d 9e 1a c1 3f cd d1 6e 37 9a bb ab 3f
       0.13362483561158053 0.054165667788229045

encoder.bias_hh_l0 f8 [64]
000000 a0 3c ad 77 83 73 cc 3f 92 a7 27 1e fd 63 c2 bf
       0.22227519363011528 -0.1436764142266012
000010 48 0b 17 97 99 4b b4 3f 4f 39 01 da e4 ab cd bf
       0.07927856386872378 -0.2318082870937794
000020 bb 39 ab 4c 25 27 c7 bf 22 a5 9a 2d 11 34 b6 bf
       -0.1808821319923036 -0.086731980928239
000030 57 3d 24 92 14 cd c8 bf fb a2 81 14 4b 65 c0 3f
       -0.19375855575388343 0.12809122563637473
000040 1a 1b 3d 7d d5 09 cd bf e1 d5 76 f6 8e de 98 bf
       -0.22686260810061115 -0.024286493103962917
000050 2b 8a 11 8c 94 94 cd 3f d5 aa f2 de ef 62 c5 3f
       0.2310968097618383 0.1670818174946677
000060 89 32 96 ff c7 ca 49 bf 72 44 64 e1 07 e8 93 3f
       -0.0007871128611199467 0.01943981469327522
000070 f0 b5 5f e8 ce 9e b3 bf 04 26 86 c8 82 cd c4 3f
       -0.07664197133245643 0.16252169409953876
000080 c5 79 3d 91 37 43 8a bf a0 54 be 2e 38 02 6c bf
       -0.012823518867375658 -0.0034190270725483335
000090 8b a7 e6 90 5c fa c9 bf b5 3c fa 5e bd ed ad 3f
       -0.20295292926067207 0.05845443519967245
0000a0 c3 cc 36 34 d7 30 a0 bf 53 4d 84 12 6c 92 c5 bf
       -0.031622624515330176 -0.16853094963208068
0000b0 c9 bc 18 ec 5e df cb bf e8 11 0a 57 1b ae c5 3f
       -0.21775423553615372 0.169375817775417
0000c0 11 51 e3 73 c3 df b1 3f ff 69 b6 4a 02 20 c8 3f
       0.06982060984893602 0.18847683570932358
0000d0 a9 b2 89 44 f5 7e c8 bf e2 e6 85 ab d8 80 bd 3f
       -0.19137445303512848 0.1152472895390946
0000e0 3f e7 19 87 61 f8 c7 bf 46 32 fd 6f b8 62 7c 3f
       -0.18726748558747805 0.006930084666077868
0000f0 ac 9b 1f 2e b4 9c aa bf 19 37 a1 c4 b6 a2 ba 3f
       -0.051976805334383286 0.10404531765490467
000100 c6 38 a5 02 6d ee c8 3f e9 d5 ac 58 2f 61 ab bf
       0.19477617863817026 -0.05347583730182832
000110 5d 36 ea d8 cd da c5 bf 78 c0 c1 cb 1d ab 96 bf
       -0.17073987094447576 -0.022137132226305728
000120 84 1c 69 02 e7 a2 bd 3f 39 e0 43 2f c1 2a ce bf
       0.11576694306232765 -0.2356797676836793
000130 34 e5 ef ab f4 f2 92 3f 80 8d 9a a4 22 34 c9 bf
       0.018504927629668447 -0.19690354382792563
000140 31 36 a1 26 08 9d 51 3f 85 bd 4e 49 8c 7e cc bf
       0.0010750369642836927 -0.22261193828078887
000150 5d 68 77 23 ae da b4 bf bc 97 b3 66 db 7b c5 bf
       -0.08146179548148909 -0.16784231676791517
000160 0c 4d 34 97 a8 69 bf bf c3 85 98 d2 2d 7b b9 3f
       -0.12270597163687941 0.09953581229685597
000170 81 72 bd 93 7c 14 cb bf 33 ed b3 fe f1 b2 a0 bf
       -0.21156270231121613 -0.032615244237570805
000180 44 9a eb 0d d2 e1 be 3f 47 7f e1 56 b1 49 c6 3f
       0.12063324775554302 0.17412392370442317
000190 32 17 02 91 d6 27 c0 bf 31 9f 9e 14 6c 88 cc 3f
       -0.12621576385952832 0.22291327483002868
0001a0 2c 98 e1 2d 15 52 b6 3f 3e ea 15 6c 34 53 bc 3f
       0.08718998308322118 0.11064460409935692
0001b0 65 97 16 97 88 8d cf 3f 2b c9 26 0a 2c e7 cf 3f
       0.24650676133495178 0.2492423104827791
0001c0 bc e1 ff 68 f0 ab 9b bf bb 2a 39 2c 5c 22 ca bf
       -0.027023083122885913 -0.20417358550397133
0001d0 cc e1 f8 dd f5 4d 72 bf 01 4b b6 96 8d ee c6 bf
       -0.004468880098606975 -0.17915506228435876
0001e0 06 fa 1e 11 d5 6d b7 bf 2f dd 13 d8 58 a4 cb 3f
       -0.0915196577834437 0.21595297384895093
0001f0 87 a4 75 14 85 ec 9a bf e5 68 b7 9b 90 9d b7 3f
       -0.02629287660002835 0.09224799920722011

encoder.weight_ih_l1 f8 [64, 16]
000000 47 e4 76 01 2b bf 94 3f 32 1b 02 e4 f3 c4 cb 3f
       0.020260498012906216 0.21694801934446556
000010 c6 69 00 c0 84 7c ba bf 6f 8d 94 b9 57 82 a3 bf
       -0.10346250236071972 -0.03810381069549861
000020 68 29 80 c7 8b 18 c0 bf a4 c4 bc c3 b6 d0 a6 bf
       -0.12574908486596859 -0.04456111087200412
000030 a2 5b 6c 3d fd 1f 59 3f 78 1e a2 34 5f 3e c3 bf
       0.0015335057302700923 -0.15034093923553704
000040 d4 d7 79 df d3 75 ce bf dc 5a 3d c5 dc 70 c2 3f
       -0.23797081386481855 0.14406928664057872
000050 dc 2f 4d 36 07 b7 bd bf 8e fa 40 29 39 cc ae bf
       -0.11607403827400681 -0.0601518500193282
000060 e4 6c 05 c3 17 aa b1 bf 46 64 2e 07 2c 99 c8 bf
       -0.06900166045436468 -0.19217443800588024
000070 00 eb 93 63 2c 1e c2 bf 24 a2 2e f4 51 14 a7 bf
       -0.1415458189220189 -0.04507690530528333
000080 92 5e 66 f9 33 50 cf 3f fc 92 0f f9 8d 45 c3 bf
       0.2446351020596365 -0.15056013737844143
000090 5f 76 0e d9 b8 0e ca bf a6 88 9c c2 82 4f 8a bf
       -0.20357428167783362 -0.012846967281408727
0000a0 57 16 f7 af e6 d1 b6 bf e5 73 1a 7a fb 89 aa 3f
       -0.08914033695244804 0.051833971648399126
0000b0 ce 7a dd cf 41 cc cd 3f 02 bb 4a de d0 f2 c6 bf
       0.2327959313360765 -0.17928515295121633
0000c0 20 6a dd 18 c1 64 d0 bf 37 b8 20 5a 52 fc a3 bf
       -0.25614955356800984 -0.0390344367045689
0000d0 81 1c 8e 4c a0 40 cb bf 54 37 3d 58 c6 85 a7 bf
       -0.212909734135085 -0.045942495604875205
0000e0 7b bc 30 dd 31 42 ce 3f bd 64 48 4c 75 4e b1 3f
       0.2363951044112332 0.06760342705128415
0000f0 b9 58 87 a5 d8 e1 c1 bf b6 5f 04 59 63 0a c2 bf
       -0.13970478136497436 -0.14094201895272612
000100 b7 67 63 d6 1a 18 b2 3f 19 ab 82 40 86 a8 c7 3f
       0.07068031057443035 0.18483045720980654
000110 dc 23 d9 1c 03 57 cb 3f f5 92 80 2a b5 cb cb bf
       0.2135929003582352 -0.2171541650324326
000120 87 15 39 f5 a7 a9 c3 3f ed f3 67 c9 c5 8f ca 3f
       0.15361499284533073 0.20751259168892436
000130 e4 38 2f 1a 97 87 b1 3f 6b 1e 92 75 5e 21 c1 3f
       0.06847519292134369 0.13383084049950197
000140 70 6d a0 0d 9a f5 bc 3f a3 24 ec 8e 0a 41 d0 bf
       0.11312258560831423 -0.25396980244893025
000150 44 55 5f ec 81 fc 81 3f 81 a6 ff 5a c6 4d 86 bf
       0.008782401109707856 -0.01089053120809358
000160 4c 8a 47 28 a6 1c c6 bf ad 97 82 7e 0a 63 73 3f
       -0.17274929968614783 0.004733124726191845
000170 e3 bf 87 61 20 1d b9 bf 15 ee 94 10 4b 12 c4 3f
       -0.09810068493948125 0.156808264824449
000180 63 0f be 1f 8a 21 cb 3f 65 d1 d8 d2 ae d9 c0 bf
       0.21196104574130023 -0.13164315505276672
000190 63 93 88 ec 52 23 cf bf c7 b7 9f 7e 60 4f c7 3f
       -0.24326550054061177 0.1821098917275192
0001a0 24 02 40 8f 0c 70 b7 3f 25 a8 e2 88 cd d5 a5 3f
       0.09155348298373461 0.04264681144680108
0001b0 7b f5 b6 0a 73 31 be 3f a2 33 9f be 58 b8 ac 3f
       0.11794203769291826 0.05609395338942781
0001c0 21 9d cf 72 91 63 c2 3f cc f5 b3 c7 e3 9b b0 3f
       0.1436635790443939 0.0648786890560224
0001d0 fa 7b 96 db 44 70 b3 3f f8 d4 36 89 52 22 ca bf
       0.07593183861762035 -0.2041724367133282
0001e0 ab bf 88 89 d9 5e b8 3f da 84 8c da 3b fb c8 bf
       0.09519729240196166 -0.1951670472272216
0001f0 ce ee c7 de e9 b1 d0 bf 16 62 f8 dd 35 8f c7 3f
       -0.26085898166614363 0.184057935127172
000200 d6 88 11 3d b5 06 b7 bf c3 eb b8 32 d1 09 7d 3f
       -0.08994610539369616 0.007089440517627335
000210 9c 60 c1 85 d0 2c a7 bf 26 a4 1c ca 4f 24 ce 3f
       -0.045263782813607295 0.2354831444620526
000220 87 26 2e c9 39 86 bf bf 34 a4 89 d4 cc 7a 9d bf
       -0.1231418720400602 -0.028788757774609944
000230 f6 0b 40 99 6f 9f c5 bf 4c 05 b9 9b 5d 26 b1 bf
       -0.1689280985156924 -0.06699166347336422
000240 6e c3 f8 a7 a2 f5 b0 bf 00 57 40 d7 25 74 c0 3f
       -0.0662480983817326 0.12854455004042364
000250 90 ab 32 ad a3 df b3 bf e4 00 5f 3b 53 81 c8 bf
       -0.07763121584382149 -0.191446689595984
000260 91 d4 64 df 58 17 d0 bf 86 42 05 61 8e d7 ca 3f
       -0.2514249974804637 0.2097032521947037
000270 42 cb e9 ec 82 63 c1 bf 28 3d 09 84 34 c3 af bf
       -0.13584934776334917 -0.06203617202538175
000280 c1 6e 06 80 85 8f cb 3f 46 b5 fb 6c 2e a8 bd 3f
       0.21531742812373092 0.11584749375079637
000290 7b 78 85 fa 5e 76 ca 3f 27 84 5b ce a6 5b c9 bf
       0.20673739655007126 -0.19810948444413265
0002a0 cc 53 1f 52 35 af cd bf 91 d7 71 0f 25 a3 73 3f
       -0.23190943250543083 0.004794258849065162
0002b0 42 35 d0 4c f3 e4 9f 3f bf 2e a3 56 22 7c c6 3f
       0.03114681392985586 0.17566327314704286
0002c0 72 7a ae b3 a3 13 71 bf 69 58 07 42 62 c7 c9 bf
       -0.004169120274041137 -0.20139721130425706
0002d0 b2 34 9b 39 40 4f c6 bf a2 a1 86 f1 6b 9a c0 3f
       -0.1742935448914174 0.12971257489449523
0002e0 29 d2 13 51 c5 22 98 bf 6a 15 de f0 61 7a b6 3f
       -0.02357013995511373 0.08780490999750659
0002f0 5f fa dd e4 d2 8d ca bf cc a6 ef c6 24 30 cb bf
       -0.20745311904097982 -0.21240672792128235
000300 78 c7 7c 09 05 3c c1 bf 44 97 bd 66 ea c0 c3 3f
       -0.13464415515187134 0.15432481781607
000310 74 d6 f4 b6 2c 60 cb bf 23 3e 3d c6 ba b4 9b bf
       -0.21387251790445172 -0.0270566161628364
000320 f5 d7 53 c2 fb e9 c3 bf f7 5c 48 ca 3f 79 b9 bf
       -0.15557810772560257 -0.09950636566678726
000330 ec 50 d8 92 f3 dd c6 bf ad 67 d6 f9 39 7e cf bf
       -0.17864842100301048 -0.24603962611291533
000340 a7 d5 6b 45 f4 b2 9d bf f7 c1 ac fa 2a 68 d0 bf
       -0.029002968537459897 -0.2563579032894547
000350 57 65 a3 93 23 65 b2 3f 93 6f 0c 24 29 dc bb bf
       0.07185575823259192 -0.10882813577739929
000360 55 aa 0b 94 e2 34 b9 3f 38 47 ec 0a bf 5c b1 3f
       0.09846321215051408 0.0678214456241023
000370 b0 42 3d e9 db fb c6 3f dd de cf 83 1b 5d ab bf
       0.17956112755429876 -0.05344472869904646
000380 de f7 fb 83 25 b5 bf bf a0 cf a2 ae 4c 33 b3 bf
       -0.12385782692214728 -0.0750015188557982
000390 04 30 81 0b 21 71 c6 3f df 57 f1 78 2e 3a 8f 3f
       0.17532742559194514 0.015247691217307789
0003a0 8b 82 8d 2a 65 e8 b5 bf 6e a8 e6 40 44 08 80 bf
       -0.08557731903921188 -0.00782826731741101
0003b0 eb ea 3b 56 e2 70 c4 3f c4 ea 0d 1a ec b8 c1 bf
       0.15969495020529875 -0.13845587989984243
0003c0 9a 85 ba bb b3 f5 cc 3f 21 01 94 03 74 f2 9e 3f
       0.22624823252139664 0.030221760481255026
0003d0 85 68 cb cd 3c 0f cd 3f e9 1f cf 35 ed 1e cd 3f
       0.22702751205980945 0.2275063050021793
0003e0 a9 51 91 37 db 9b c1 bf bc d0 80 76 0b ed a1 3f
       -0.13756885731949112 0.03501163312503894
0003f0 c1 97 74 1a 8d a7 ae 3f 06 5a 2e e4 62 4a a0 bf
       0.059872064093994044 -0.03181752238667816
000400 03 2d 32 a0 08 1c c4 bf a0 6f 92 f5 bb 97 c3 bf
       -0.15710552045889167 -0.15306806078740198
000410 82 66 cd 39 d8 ed 91 bf 48 d2 63 2f 37 46 a9 bf
       -0.017508867767310317 -0.04936382726183247
000420 59 c5 57 89 22 d0 b5 bf 14 3b bd 41 7e e1 cc bf
       -0.0852071366605477 -0.22563150606080085
000430 29 10 9e e7 91 a6 c0 bf 32 19 43 f8 4f 1a ce 3f
       -0.13008331117100738 0.23517799017117508
000440 10 8c 8a 24 b5 ca c5 3f d1 7a 5e e7 ce 95 a6 bf
       0.17024864467848078 -0.044111695998471874
000450 fa 40 47 cf 39 b2 a5 3f b1 b4 1c ba 3a 03 c3 3f
       0.0423753800893127 0.14853605353838398
000460 84 bd 1f ea 17 09 98 3f 4e 9f 56 9a 80 ec c4 3f
       0.023472188629907645 0.16346747909596576
000470 8d 3f 57 e5 18 76 b3 3f 14 86 f0 21 f0 ac bf 3f
       0.07602077101841882 0.1237325747356624
000480 55 1f de 04 f7 45 a0 3f ac 58 fa 26 3c 0d d0 bf
       0.03178378996295687 -0.25080779844700873
000490 93 52 a6 63 e2 79 a3 3f bb 40 83 0b d5 b6 cb bf
       0.03803927866389247 -0.21651709615844603
0004a0 c1 07 f9 5f c8 4d c8 bf 72 2d 10 1a e7 3a a4 bf
       -0.1898737400643409 -0.03951189225343911
0004b0 1a ef 69 07 7f 5c b7 3f 5e d4 23 d5 84 80 cc 3f
       0.09125513010979738 0.2226720848772485
0004c0 cb c2 47 fa 13 72 c6 3f 58 4c d2 cd 6a b3 c4 3f
       0.17535638542860563 0.1617253785121615
0004d0 ab 7c 4c 12 86 11 c3 3f 47 23 a1 af 6a a5 ad bf
       0.148972281393957 -0.057902654589787654
0004e0 8d 3c e1 ce 37 1e b7 bf 17 3b c4 b8 38 77 af bf
       -0.09030484009530167 -0.06145646338892712
0004f0 fe e1 3a ca b7 cd b4 3f 73 cf 04 8f 08 67 ab 3f
       0.08126400649314999 0.053520457704876366
000500 3f 48 a2 f1 c9 ee c2 bf 0d d3 54 82 da 37 cd bf
       -0.14791225718050957 -0.22826701511225914
000510 2c 8e 98 53 49 e0 c2 bf f2 89 d1 53 8b eb c0 bf
       -0.14746967870552063 -0.13218823998165835
000520 2b 3d d8 1b ab 5d 86 bf 33 d1 c0 9a 19 02 ab 3f
       -0.01092084578252058 0.05275039686276486
000530 2f 09 76 17 db e1 c6 3f e2 a9 fc c2 bf 7b c0 3f
       0.17876757283745223 0.12877652188156136
000540 d4 f7 7a b4 9f 6f ba bf 70 c1 76 08 53 83 b6 3f
       -0.10326574474581146 0.08794135052335661
000550 93 64 8b 35 8d 06 c9 3f 0b fd 57 66 bd 40 ce 3f
       0.19551243891217904 0.23635070321322646
000560 c7 75 6a 47 fb f1 ce 3f 82 49 fa 09 88 05 c6 3f
       0.24175969111540338 0.17204380500022515
000570 59 2f 50 c6 1b a9 c8 3f c5 65 a9 c6 77 84 b2 3f
       0.19266078170073334 0.07233379936351188
000580 94 1a c3 18 2e ca b8 3f e9 84 37 0a 35 e6 aa 3f
       0.09683502296966601 0.052537591454674466
000590 00 75 ef 47 b4 67 b7 3f a7 11 77 6f b8 9f c1 3f
       0.09142615085825767 0.1376867813361404
0005a0 3b 7d 1e d3 42 e3 a8 3f 04 df 1a 7b d4 28 9c bf
       0.04860886408936912 -0.02749950410245018
0005b0 90 11 ee a2 fa 14 ca 3f 18 f0 f0 7b a2 66 c0 3f
       0.2037652297550605 0.128132162588259
0005c0 ef 33 a5 ee 3c 08 b1 3f c4 27 ee 91 c3 0f cd 3f
       0.06653195215513084 0.2270435774374261
0005d0 ce a7 f6 03 54 3a b7 bf 55 74 f7 dc 11 f0 b8 3f
       -0.09073376747860992 0.09741317410176127
0005e0 79 9c b1 ca 4a 32 93 3f ce 30 e5 72 17 79 b6 bf
       0.018746536847541215 -0.08778521113453339
0005f0 d6 bb 35 b1 b6 61 8a 3f c5 8f 2d 64 7e 50 91 bf
       0.012881686480538262 -0.016908621658686025
000600 dd 39 0d e6 7e df cb bf 45 57 b7 25 f7 78 b8 3f
       -0.21775804741851248 0.09559578581624091
000610 09 f2 13 83 b4 1a c2 3f 20 6f 8f ef ef 04 b9 3f
       0.14143997574127834 0.09773158644332769
000620 23 7b a4 e2 d3 05 ba bf fb 88 8c 22 6c 16 d0 bf
       -0.10165142329468017 -0.25136855482027415
000630 22 6a c6 6c 01 8f a9 bf f0 8e 6e 2c 00 63 a0 bf
       -0.0499191708833744 -0.03200531523114403
000640 4f d4 0c f1 53 0a a6 3f e4 d1 c0 9d 4f 2b 8d bf
       0.04304754559999734 -0.01424276542830056
000650 d7 f6 e5 c3 b2 6f cc bf c2 d6 ec 7f 26 79 c3 bf
       -0.22215876164766854 -0.15213471647591886
000660 41 fd 6c e2 71 00 8d bf a3 ce a9 64 e2 48 b3 3f
       -0.014161004755463781 0.07533087689972233
000670 ad f0 13 1b 6d a0 8d 3f c7 a8 69 6c 55 a4 c1 bf
       0.014466144932605418 -0.13782756608572397
000680 b4 90 bb 75 83 16 ab 3f 23 6d f7 37 72 02 bd 3f
       0.05290613948980774 0.11331857553834772
000690 aa 5d 4e 29 fd e7 cd bf 8f d6 2f 5b 11 e4 a8 3f
       -0.23364223973179082 0.048615019208154135
0006a0 ce ad 1e 85 03 9c af 3f 48 2e 1d 5b 80 29 c1 bf
       0.061737165451031126 -0.13407902192044419
0006b0 f0 e1 50 96 75 9e ce bf 07 fc 82 36 ea c4 be bf
       -0.23921079482694507 -0.12019218283511189
0006c0 8a 84 e8 f1 28 16 c6 3f fb 82 7e 89 3a 74 c1 3f
       0.17255126773764956 0.13635951722701364
0006d0 6e d3 5e e2 3c 6d be bf 78 90 40 59 fe dd bb bf
       -0.11885433699246814 -0.10885610274323365
0006e0 51 d7 6f 69 f5 37 cb bf 38 3c ce c5 18 a6 c1 bf
       -0.21264522217068785 -0.13788137110211252
0006f0 af f6 70 42 63 28 d0 3f b2 d6 dc 2e b1 41 c7 bf
       0.2524650715675802 -0.18169226444449788
000700 1c c0 a0 da a9 21 c6 3f f6 f4 19 73 e1 50 bd 3f
       0.17290232825462304 0.11451539096920613
000710 e0 09 22 c0 dd 0c 76 3f 15 52 c6 52 c7 7e ce bf
       0.005383363926855428 -0.2382439760373393
000720 3b a3 a1 d0 0a f6 bb 3f 0e 1b e7 c1 04 a2 c3 bf
       0.10922305673160519 -0.15338191478641544
000730 03 6b c4 cd 34 20 c9 3f 4c 3d 87 7c 07 f3 80 bf
       0.19629535720090283 -0.008276041496087537
000740 4e 0d 30 87 35 a9 c2 3f c1 75 b6 a1 55 a8 c8 3f
       0.145788851747151 0.19263716121797184
000750 74 b1 44 2b 39 34 cb 3f 63 6c 31 09 fd b9 9b 3f
       0.2125312291403919 0.027076677023029194
000760 af 07 99 30 69 d6 cc 3f bc ca a9 5a 3f bf a8 bf
       0.2252933013242546 -0.04833410245637057
000770 42 61 6c d9 dd b2 bb bf ad 13 17 86 5c ec c9 3f
       -0.10819803770244099 0.20252567813272773
000780 93 06 cb a0 38 ce c5 bf 13 47 35 73 d9 d2 7c 3f
       -0.17035587168907237 0.007037019170938813
000790 7f e4 6b c4 5a 83 cf bf 5a 45 57 1e 46 85 b7 3f
       -0.2461961230363023 0.09187734833473851
0007a0 04 7a a4 be 76 02 c5 bf 4f e2 1f 13 2d d2 a0 3f
       -0.16413769062724282 0.032853516182460234
0007b0 05 07 ba 4d 0f 13 c2 3f 02 01 b0 64 f8 e2 9c 3f
       0.1412066583180193 0.028209572930792078
0007c0 e9 3c 6e e3 7e 90 c2 bf 35 f8 4f c6 08 c0 b1 3f
       -0.14503465752611724 0.06933646051035754
0007d0 8e f9 7e 52 74 6d c1 bf ee 2f 60 58 9f 30 a3 bf
       -0.1361527827084043 -0.03748033479504885
0007e0 20 8c ed 50 bd 49 b4 bf e7 ca e2 62 e2 f1 c6 bf
       -0.07925017572192461 -0.17925672367490295
0007f0 95 f2 9b 91 a3 4f c1 bf 43 01 b1 3f 5a 30 c0 bf
       -0.13524288759062544 -0.12647560224469076
