lstm_with_validation.pth (torch, 42538 bytes, 16 tensors)

encoder.weight_ih_l0 f8 [64, 6]
0.8112600183997547 0.06618775649528413 0.38688254995631727 0.09494602682287762 0.42631944837746644 0.16590070081035038 -0.08110191348415871 0.727281585226498
-0.40226175403776177 0.6369794528142673 -0.5673355038805372 0.3815536046501055 0.14444371758920008 -0.011724352990654788 0.5678490067213368 0.11763639815392579
0.27485710082964204 -0.0832198797054302 0.41961602157883987 0.8909813352119701 0.11883879668635815 0.8713305685429559 0.22485983451675004 0.5651180132442087
0.6426852831819833 0.5026491699781557 0.3551818339156925 1.0343386936661727 -0.09763895091703938 0.5300923566617711 -0.13218472172520904 0.5130810925445131
-0.25165091660052724 0.8329634432312658 -0.3786280769272735 0.6311702156648297 0.61707951872463 0.2664379356773201 0.0015409660025519631 0.4490897654854071
-0.037270749181149636 0.05263892406083103 -0.5316979985042917 0.9231028366590806 -0.8907486079139596 1.0647239978646297 -0.45026265743282856 0.7097286784971991
-0.5146604493451086 -0.2738648285541325 -0.1347363728974272 -0.38019585057052474 -0.05692104873329768 -0.3314771287710435 -0.31741000598945046 0.7558784132876295
-0.6500403658062657 0.7484543063863254 -0.5974088493550361 0.48371657294860654 0.624244413220034 0.22730045922829378 0.20117171208866047 0.09937188875581716
0.09875959550338365 -0.01951884177719051 0.6728612730420027 -0.36332094394285214 0.3413730228975443 0.1673392176737651 0.13328465364868422 0.25299252990866106
0.30945833285592905 -0.4123176563357868 0.4267935234004073 0.303103565842767 -0.01748353166471027 0.5165672818125523 -0.620665703620953 -0.1984597159452827
-0.2465379623477953 -0.7519684005183818 -0.31042288773202437 0.1219493036180669 -0.23913356317304543 0.34704911618128514 -0.24782338171387888 0.34223580087260763
-0.28192502193418195 0.31094953210118453 0.3643263158914856 0.1055188341903158 0.19393663537224395 0.6209001237821749 -0.034624832725856446 0.22332674103751546
0.6967824990920657 -0.1795500583454839 0.41242325826239595 0.0532083584656873 0.371859954953491 -0.18992217479259926 0.3386888709042538 0.4655943263587751
-0.3440727436691646 0.4124874793660313 -0.49048549973681516 0.2615548578092737 0.11179355002051057 -0.3283311858397457 0.368751950495561 -0.32368348218818666
0.4518655673953676 -0.10713524757753028 0.23642682483844996 0.26324055395451235 0.10697426798319651 0.3301364072806327 0.028364649872030703 0.4127148724959386
-0.07203924172766624 0.039544772091342044 0.012418572502035671 0.49096866061929584 -0.38879445093065046 0.5514633246580201 -0.02883611846819641 0.32212289568721353
-0.15911466824179968 0.21209781598413757 0.17283993345869444 0.338862565894215 0.3819266858451916 0.07282846877622934 0.33198106045251385 0.23695191321144388
-0.214212496485801 0.09005698815976805 -0.2882575654002363 0.22637686783466623 -0.10669514086742596 0.6082191949755201 0.016955878113382984 0.5588584997542925
-0.7055662369622053 -0.08849892292655884 0.050986551328887526 -0.5222407765735668 0.1134033160375361 -0.11691920670647502 -0.23695326888401966 0.11419995207241071
-0.6532544989477435 0.30097487493102 -0.5009579080421641 0.13254859546904113 0.6447684303313763 0.15136035235781087 0.14756587894203652 0.07724027692835171
0.15109796787303395 -0.12100197731348017 0.3034361616947356 -0.1431499524555135 -0.04411872427743356 0.3199211312803534 -0.37627461201624524 0.49855262572288245
0.3742060206757842 -0.013643944850443694 0.6241554465703506 0.739853158382789 -0.12083908285580189 0.61904317830043 -0.6416061015289756 -0.5196323903897754
-0.34767092580814096 -0.5820340840830984 -0.22199566428673373 0.044315558748011435 0.03936025815310464 0.1661985473511455 0.07398043401149183 0.40106005513390613
0.08542529215046468 0.14463844202348403 0.6461058555835325 0.32149446536912535 0.43878943456670755 0.43314817278412415 0.08591491626753849 0.430032511551096
0.7001725312695286 -0.13083536051013328 0.5821924272167845 -0.12936942153651848 0.800506786287332 -0.3739222652199291 -0.10063708452739713 -0.6565840312120672
0.6229934924548142 -0.5987384536072781 0.5108953562069654 -0.023750720763340526 -0.2488005078100276 0.13474753597684097 -0.3464952622547195 -0.15819510625599717
-0.27194888823477 -0.2533823216052911 -1.0891568576224009 -1.5435567167027264 -0.22720161093498817 -2.024156472342394 -0.3676653486611346 -1.2912001198803778
0.8103863763348921 0.4934333958071244 0.2751308986196707 1.551639131006239 -0.05279593034172208 1.189540575631655 0.41389485524408964 -0.6173983975790215
0.6652326310403228 -0.726075274780226 0.3778598157673793 -0.7812798722421017 0.6304840387143175 -0.012958750321517918 0.18920981717302027 0.4854168072492711
0.15661767683207162 -0.3107133806799158 0.6717328844860836 -1.0082395966710243 1.065559820399082 -1.1929871530738325 1.2080217888116933 -0.9352564754394066
-0.5928653983150275 -0.45314978553762336 -0.4120989180888804 -0.7307983005461144 -0.20364801018550496 -0.7239714601658822 0.08771493226322806 -1.253619437010752
1.237084863088967 -1.167026754905068 1.0202507547750466 -0.6865491226224261 -0.16700605614482414 -0.07147582978660982 -0.06907671602492105 -0.23215205937389435
00000000: aa89 f291 d7f5 e93f acf8 8a49 aef1 b03f
00000010: 6726 dd06 afc2 d83f cce2 1600 624e b83f
00000020: c584 1b5e d148 db3f 7195 2ef2 3b3c c53f
00000030: 36b7 0e52 18c3 b4bf b0fc f007 e445 e73f
00000040: a885 8115 a8be d9bf c9f5 c1bb 2262 e43f
00000050: d0d9 60c9 9c27 e2bf d328 69cf 5f6b d83f
00000060: 5542 94b9 217d c23f 8800 4b05 f002 88bf
00000070: 2de5 1dae d12b e23f b8ed e342 6b1d be3f
00000080: 7bbf c83c 4297 d13f 8f3d b6e5 e54d b5bf
00000090: 85c2 6328 fdda da3f 4f9e 024a eb82 ec3f
000000a0: 0b8f 4329 386c be3f e5b4 fca4 f0e1 eb3f
000000b0: 177a b701 35c8 cc3f bb75 285f 7215 e23f
000000c0: 4363 1cba e090 e43f fe5d 4db6 b315 e03f
000000d0: e946 3396 4cbb d63f 8589 e4ba a68c f03f
000000e0: 8b22 01c5 ddfe b8bf 9919 f73e 84f6 e03f
000000f0: e199 6bd0 6deb c0bf 9896 150a 296b e03f
00000100: 29b1 3372 0c1b d0bf 8c23 6ef3 a2a7 ea3f
00000110: 3200 f041 713b d8bf b5ab 4fe1 8b32 e43f
00000120: c184 fe8b 1dbf e33f 3c76 09b3 510d d13f
00000130: 7f0e 74a5 473f 593f bb99 eeff e2bd dc3f
00000140: 9731 a9d1 2615 a3bf cf00 ad32 7df3 aa3f
00000150: 3d96 5d85 ab03 e1bf 6675 c9f5 0e8a ed3f
00000160: e155 7e39 0381 ecbf f384 e107 1c09 f13f
00000170: e02d 1277 1ad1 dcbf 79b8 e5ea 18b6 e63f
00000180: c66b cf30 1978 e0bf 9089 8a58 0087 d1bf
00000190: cb8a 969d 0a3f c1bf a09e 11fa 2055 d8bf
000001a0: 29ee 8675 c124 adbf 2664 dcd8 eb36 d5bf
000001b0: 7076 c90e 7250 d4bf e453 1aed 2730 e83f
000001c0: 1ef8 0674 21cd e4bf 2459 0f72 56f3 e73f
000001d0: 9344 ca29 f91d e3bf d73c 565b 36f5 de3f
000001e0: 46b4 6f6b cff9 e33f b42a 6073 2e18 cd3f
000001f0: 408b 26a2 febf c93f 8915 59a4 6f70 b93f
00000200: b86c da10 4f48 b93f b6f6 5a4c bffc 93bf
00000210: 02bb 4e5d 1488 e53f f7ed 0b7d a640 d7bf
00000220: 2139 453c 0ed9 d53f 379f 9f19 5f6b c53f
00000230: 9f69 3db6 780f c13f 94c2 8594 0731 d03f
00000240: 44d1 c552 2ace d33f f7a2 6198 6963 dabf
00000250: 1e8f 49c8 9550 db3f 681f a67f 0c66 d33f
00000260: 5cc1 dff2 33e7 91bf 6131 b21b b887 e03f
00000270: 55a0 5952 7edc e3bf ed7a c7c2 2067 c9bf
00000280: 22cd c052 8e8e cfbf 9842 fb08 2010 e8bf
00000290: 894a aff5 f7dd d3bf 1940 cfce 1138 bf3f
000002a0: 9322 9ab8 ed9b cebf 3fad 067f 0d36 d63f
000002b0: 0997 d233 adb8 cfbf 7c2a 11fd 30e7 d53f
000002c0: c368 483f 0f0b d2bf 9330 c5dd 98e6 d33f
000002d0: c1de f452 1f51 d73f b69e f545 4803 bb3f
000002e0: adc4 3569 ead2 c83f e341 b7ef 69de e33f
000002f0: 9bc1 5f98 58ba a1bf af08 8a7c f895 cc3f
00000300: 7cd1 c0cf 0a4c e63f 015c 4b0e 7ffb c6bf
00000310: 3131 9685 2465 da3f 23cb f73e 203e ab3f
00000320: dee7 4db2 8dcc d73f 027c c2ac 5e4f c8bf
00000330: 4e63 0316 14ad d53f 7380 3a25 4ccc dd3f
00000340: 6842 60af 4905 d6bf b7bd 78e2 3166 da3f
00000350: a109 224b 1d64 dfbf 10a6 1996 50bd d03f
00000360: c5e8 3d89 809e bc3f 1f12 5cce 6003 d5bf
00000370: c0bc edc7 a199 d73f f83b 90ec 3ab7 d4bf
00000380: 9db3 898e 5deb dc3f b327 9830 376d bbbf
00000390: 8604 4af4 3b43 ce3f a3cb 8de8 eed8 d03f
000003a0: b659 8066 aa62 bb3f ef4f 1f74 f420 d53f
000003b0: 045f 406e 9f0b 9d3f eb57 fca3 eb69 da3f
000003c0: 2cbc 3feb 2971 b2bf 675d b85d 363f a43f
000003d0: abf0 1296 e86e 893f 9121 2ed1 076c df3f
000003e0: 4842 e71e 02e2 d8bf 2430 0b6a 96a5 e13f
000003f0: 35d5 0e27 3787 9dbf e03d 9159 a99d d43f
00000400: 29ca 3494 de5d c4bf 103a 9a6f 0526 cb3f
00000410: adee d272 9e1f c63f d3ac 969d ecaf d53f
00000420: 562f 4ba0 7c71 d83f e495 9cf3 e2a4 b23f
00000430: 8e3c 627d 2d3f d53f 46e0 fbb6 7054 ce3f
00000440: 2988 66a9 506b cbbf 8926 ec8a f90d b73f
00000450: 7afd 0ddc cf72 d2bf f7dc f5cd eaf9 cc3f
00000460: e2ee aa6c 5f50 bbbf 8f04 e719 8876 e33f
00000470: ca44 e3b7 e15c 913f 7429 7138 2be2 e13f
00000480: 3e43 1da5 ff93 e6bf 4a67 b38b dda7 b6bf
00000490: 919e fcc4 e81a aa3f f4ac 004a 32b6 e0bf
000004a0: a3a0 a3ed ff07 bd3f 6e1d 14c9 6aee bdbf
000004b0: 9fc1 4416 7c54 cebf d613 5b43 353c bd3f
000004c0: eb40 9efa 75e7 e4bf 5dc5 2f1f 2c43 d33f
000004d0: 63d6 f6e0 d807 e0bf 42cb 5535 5af7 c03f
000004e0: 4c87 3867 f1a1 e43f c0d7 a4a9 c65f c33f
000004f0: 9be0 0750 70e3 c23f 6b5c 57cf 04c6 b33f
00000500: d7dc 409f 2d57 c33f 280f 504f fcf9 bebf
00000510: 23c5 b981 7f6b d33f 9735 1cd6 bc52 c2bf
00000520: ee5c d3bb ba96 a6bf 0c80 097b 9679 d43f
00000530: f030 3b1c e214 d8bf 2f24 b445 49e8 df3f
00000540: e733 31cf fdf2 d73f e960 5e47 5bf1 8bbf
00000550: 517a d4d7 14f9 e33f 9a15 e387 e0ac e73f
00000560: debd f164 4fef bebf 8097 b3a3 33cf e33f
00000570: 6664 df84 0988 e4bf 1153 551b d4a0 e0bf
00000580: ac6c 078e 3d40 d6bf 446a 89f1 05a0 e2bf
00000590: 7e8f fb9a 5a6a ccbf 74a8 0d67 87b0 a63f
000005a0: 1335 0f1b 0727 a43f 4508 c276 fe45 c53f
000005b0: e38c 9fb8 61f0 b23f a90d 22cb f7aa d93f
000005c0: 0899 0994 6ede b53f de1c 1e31 8383 c23f
000005d0: 2988 ef2f e6ac e43f d7be a685 5d93 d43f
000005e0: 7bd6 d247 2015 dc3f a384 1b1d b3b8 db3f
000005f0: 5b8f 9b1b 85fe b53f 6a09 5515 a785 db3f
00000600: 7486 6b39 d067 e63f 0694 468d 36bf c0bf
00000610: 97ff 5b03 52a1 e23f 4a07 4d5d 2d8f c0bf
00000620: 9b90 6a68 c09d e93f d269 17a7 57ee d7bf
00000630: 6d59 cf1a 5ac3 b9bf a836 a483 bc02 e5bf
00000640: 22db 760c 90ef e33f 593a a38b dd28 e3bf
00000650: 3cca d237 4159 e03f 466a bde3 1b52 98bf
00000660: 74d9 22ee b1d8 cfbf cc59 1e42 683f c13f
00000670: f496 e676 fa2c d6bf 47dd e0bb bc3f c4bf
00000680: abb8 494f 9c67 d1bf 5179 2b7c 6a37 d0bf
00000690: c93c bbbd 2f6d f1bf 4926 1c87 68b2 f8bf
000006a0: a93a 4840 f114 cdbf 1894 d5f2 7831 00c0
000006b0: 05cf 173e d487 d7bf d9a3 f774 c1a8 f4bf
000006c0: 156f ef68 afee e93f 90bb 6faa 6994 df3f
000006d0: 6b32 eca0 be9b d13f bad9 ad8d 83d3 f83f
000006e0: 47f3 5b74 1108 abbf c7a5 d9b2 5b08 f33f
000006f0: 9e62 d0d8 407d da3f ed8c c648 bac1 e3bf
00000700: 699b 51f1 9549 e53f 69b0 f336 023c e7bf
00000710: f761 ccef da2e d83f 3cb1 89a5 3e00 e9bf
00000720: 1bb2 dddc ec2c e43f b2a3 9f06 1e8a 8abf
00000730: ae8d 6bfc 0638 c83f 651e 04a8 1111 df3f
00000740: 3410 fc4b 0c0c c43f 1fca 1c60 bae2 d3bf
00000750: c57e 50f6 d57e e53f 9cbf e3d7 bf21 f0bf
00000760: 26bb 4874 880c f13f 0d01 70b2 7916 f3bf
00000770: 86d3 bca7 0e54 f33f a64d ecfc 9eed edbf
00000780: 852d 16db c0f8 e2bf 53b4 44f5 6700 ddbf
00000790: 8928 fa23 d45f dabf 912c 1a1e b362 e7bf
000007a0: 3934 d253 2311 cabf 6acb 1432 c62a e7bf
000007b0: e300 715d 7c74 b63f 3275 3941 d30e f4bf
000007c0: 0180 557f 19cb f33f 07fd 1d3f 24ac f2bf
000007d0: 77a6 9774 f252 f03f 9658 98dd 35f8 e5bf
000007e0: 711f b056 7460 c5bf d050 636f 3d4c b2bf
000007f0: 40fb 3dfc 02af b1bf dfde 5a9f 28b7 cdbf

encoder.weight_hh_l0 f8 [64, 16]
-0.18404125483131759 0.002032828741675456 0.08537261083217249 -0.24517546996981893 -0.0022203952247821586 0.07983093817228896 -0.09200525993887156 -0.18925614091019202
0.08147778247783005 -0.005974889994647166 -0.1306470603837444 0.22794155171106809 0.18093984897669282 -0.014935459845253029 0.1898176670539218 0.07612473327451165
-0.07855734177178457 0.0001673550261385132 -0.1273905573224729 -0.25150940565063046 0.29513727763550635 -0.25079500152515377 0.12491580845066363 -0.21385911099248628
-0.08501795869735179 -0.0470009639394868 -0.2895431862910089 -0.04005273770345372 0.13107511761379181 -0.15428310375357926 -0.12817898758333965 0.11070213542981172
0.12193238977788834 0.1132591770059583 -0.08334762931089595 0.012447335806738253 0.054664481844582606 -0.1947422672499884 0.28615140150438606 0.03618145087366717
0.08235914118931945 -0.28258576291214427 -0.4056902901587097 -0.20239874522893006 0.06478793454510245 -0.4014076811825982 -0.18266694458983668 0.03550111625042125
0.09978600816789247 -0.33970451448379396 -0.3360815174764151 -0.28745588359547725 0.49271850828355335 -0.5881392690828817 0.2105703552725903 -0.3511521926248863
0.3456252979459275 -0.5968460850288035 -0.1317691531161361 -0.10983170801582055 0.36107815684630784 -0.35729760273724853 -0.6331133152540988 -0.10840819030482261
-0.11053457778457185 -0.07996158764303253 -0.35162549153443573 -0.21371906667791704 0.21546622740070462 -0.23995559092869426 0.15336772823622966 -0.029773314859305233
-0.10427245853255504 0.01757617490889248 0.132204549131637 0.020379326479533662 -0.042777192189946515 -0.329461333091081 -0.24078557699351297 0.22171933147682513
0.046544454318994295 -0.19980160466540633 0.07096248585847148 -0.26851470110026826 0.14974312945863952 -0.2042097182501191 0.05977922938402681 0.04035621482018438
-0.15814758809623025 -0.006959765026396603 -0.34814834821231233 -0.32395002464125916 0.20842422406398162 -0.23337707402754507 -0.08508989768588766 -0.1626817419976899
0.2044696569995416 -0.12436535898743226 0.05073659767340294 0.15093719292872673 0.02266422495439643 -0.12258103153727114 -0.1468264376753905 -0.2809003343964823
0.11988703007612998 0.06001209598289517 -0.13407562815609061 0.17051178303901687 -0.06500112655423888 -0.19953443383527006 0.19681876846388266 0.07838477848713547
0.18972832752257274 -0.12395369990595108 0.1012575280038128 0.16085164013500097 0.0017146783153585297 -0.21447782963622264 0.09316693915778033 0.1349984638146618
-0.2580731579567852 0.010648486918023857 -0.25346620838330586 -0.10068296310420238 0.23767535226372957 -0.14875275898296994 -0.16149695695698024 -0.12020717297566012
0.08263758822636338 -0.3301146457589265 -0.045235067813453794 -0.2004006721838953 0.12860383464784073 -0.16233582348115747 -0.022460230018760595 -0.02974417292628265
0.17542554129576 0.05931041957002894 0.03866265468462675 0.0675718173072783 0.1738295349589702 -0.29213784484278676 -0.1542959762606271 -0.09622111931451563
0.10421831346255524 -0.06798012908226432 -0.203653129080253 -0.23184460755304426 0.18652707096261706 0.2161967182853673 0.08371794429878145 -0.04919767683551646
-0.13078588710759265 0.2255135576229642 -0.06773121710876973 0.004299612041430556 0.15618031121182194 0.0061067142625126315 0.14868934463360137 -0.14093741784381564
0.21377456679015552 0.14745150172886104 -0.15760607955412173 -0.11549561176047662 0.08032360891469024 -0.06112908205897095 0.24647861834584114 -0.03239685041960991
0.24121222725542088 -0.2241658435105056 -0.11399626296627069 -0.1954287641945429 -0.02504090549573012 -0.07989934244696063 0.061932563063659365 0.007989562377914415
-0.0014968821730475307 0.04544101661021503 0.15927076888660402 0.11055099307499593 -0.20131682606506762 -0.1726299559520029 0.19789664155174796 0.17423812056700994
0.26334203810636847 0.03515223761590508 0.09142918433304044 -0.07397275528432719 0.19727856041874015 0.10725375135669242 0.07199675337370615 -0.24046259475817092
-0.0592669183034956 0.25137677802934294 0.015111370751018774 -0.1588889795712852 -0.0713642285593471 -0.00518854512728117 -0.16324191216456357 0.126182177494248
0.008837181597683041 -0.18240474854459496 0.08612864974806625 0.21509958296141365 -0.168136716883416 -0.17046324812003 0.1610240267045701 -0.08237365344813215
-0.0617623455488107 -0.006208352780277352 0.1335940379992188 -0.2254577395164068 0.030561160068660324 0.05120804192784902 -0.15506887889187715 -0.2626181000274828
-0.10547406518677817 -0.1993184556243827 0.06716463700103352 -0.004288588798713425 -0.003506350890234732 -0.18787018870282685 -0.12395920832883728 0.18848904843868133
0.3729203517283813 0.16289991418115865 -0.2605070006597041 -0.10110436293503895 0.050550210865104715 -0.1415190904535734 0.06930287142458672 0.18412340591383802
0.140668664374114 0.13563174485460652 -0.2957613756138561 -0.07556503683634191 0.16283183365416756 -0.07208200441655552 0.08246140456408843 -0.16605062096773862
0.17691734760589023 -0.022521169681870973 -0.16152412773893468 0.2089288926118446 0.04422720423065594 -0.09041477793158223 0.3051080965857278 0.14630130998192173
-0.024783837109169277 -0.21935336733250663 -0.11540458404306671 -0.03124544213055953 0.0052454222222047845 0.18803046279547422 -0.08553091461013314 -0.21524145923497182
00000000: 83c2 4ef1 a98e c7bf 3cfb d79e 26a7 603f
00000010: a691 7fbb fada b53f 76a1 a6e8 e861 cfbf
00000020: 5100 fd9b 8130 62bf dbb2 a8e4 cc6f b43f
00000030: b957 7f1e a88d b7bf 7762 e393 8b39 c8bf
00000040: 1cc7 175b badb b43f aec0 fc51 2079 78bf
00000050: 1057 d5f9 0ab9 c0bf d7cf ff52 302d cd3f
00000060: 1df4 f276 0929 c73f 464c b07c 7b96 8ebf
00000070: d98c 1900 f24b c83f 11ac d417 e97c b33f
00000080: 1b40 c57d 551c b4bf 9b7f 69ba 80ef 253f
00000090: 4676 c272 554e c0bf 89f9 f9e7 ba18 d0bf
000000a0: 2499 d176 87e3 d23f 6640 637a 060d d0bf
000000b0: 508b 0c80 7bfa bf3f d609 d53f bc5f cbbf
000000c0: 9c84 2da8 bcc3 b5bf dc4a 00a6 8210 a8bf
000000d0: b791 f924 e087 d2bf 4c6b 1add ca81 a4bf
000000e0: 463c bcc7 11c7 c03f 3937 797a 8cbf c3bf
000000f0: ff37 da47 2b68 c0bf 24b6 44a3 f956 bc3f
00000100: c04d 6b0a f636 bf3f 2e64 36ad 8dfe bc3f
00000110: d4e4 162e 4556 b5bf eaba b221 fd7d 893f
00000120: efef 8ca3 fbfc ab3f 6a69 7e8a 50ed c8bf
00000130: 299e caf7 4d50 d23f 6cce 7208 6086 a23f
00000140: 524d ef19 7d15 b53f b176 8198 e215 d2bf
00000150: 8654 2268 d4f6 d9bf 8b3d c1bb 33e8 c9bf
00000160: 38ee 0b2c f195 b03f 90b7 c2d7 a9b0 d9bf
00000170: 7c6b 8964 a161 c7bf 3abb 88ca 332d a23f
00000180: ddf2 ad69 938b b93f a7bb 0001 b8bd d5bf
00000190: f87a 960d 5c82 d5bf 8076 c55c ad65 d2bf
000001a0: 968d cd35 b388 df3f cc89 c671 09d2 e2bf
000001b0: 7591 b32a f8f3 ca3f 6a86 cf0b 4779 d6bf
000001c0: df45 d691 b91e d63f 1638 fef5 5c19 e3bf
000001d0: a3b1 a0c5 cfdd c0bf a9e4 fd49 ee1d bcbf
000001e0: 461c bd8e e71b d73f 1086 acc3 f6dd d6bf
000001f0: 35b6 f5da 7642 e4bf 4f4e fa9f a3c0 bbbf
00000200: 8e72 a97c fe4b bcbf a9f1 dcd3 5c78 b4bf
00000210: 1124 a534 0881 d6bf ebe6 f478 255b cbbf
00000220: 1f0d 0ab8 6594 cb3f f5fa c363 ddb6 cebf
00000230: 7ba9 84c0 8da1 c33f e0f7 7456 e57c 9ebf
00000240: c655 458f 99b1 babf b59b b021 7dff 913f
00000250: 278f 7323 14ec c03f 5ff6 f972 51de 943f
00000260: e7e8 f062 e4e6 a5bf 6d0e bbfc e415 d5bf
00000270: 778f 44d1 0fd2 cebf c9be ca8e 4c61 cc3f
00000280: 3972 38ba acd4 a73f 79f5 dc56 1993 c9bf
00000290: 8447 01f4 982a b23f b122 ee48 582f d1bf
000002a0: a7ab e969 c82a c33f f36e b446 8b23 cabf
000002b0: d173 5e16 629b ae3f 42a3 afdd 91a9 a43f
000002c0: 6a44 681f 2e3e c4bf f4c9 d1b2 d781 7cbf
000002d0: 7e9c 6e02 1048 d6bf b7d8 57e2 98bb d4bf
000002e0: e344 061d a5ad ca3f 25d0 4aca 4cdf cdbf
000002f0: 55e7 c797 73c8 b5bf 5ba8 c45c c1d2 c4bf
00000300: e52e ebcc 0f2c ca3f de37 9b7d 68d6 bfbf
00000310: 0866 6fb7 25fa a93f 9380 b0f1 e851 c33f
00000320: 378f df63 4a35 973f 9501 9071 7861 bfbf
00000330: 9082 006e 35cb c2bf 56c6 6a65 45fa d1bf
00000340: 673c 6499 eab0 be3f 24ce 38cb e7b9 ae3f
00000350: 177f 0fe3 6329 c1bf da1b de81 54d3 c53f
00000360: cbec c0f0 e9a3 b0bf 49ca df25 588a c9bf
00000370: af4b e57e 5b31 c93f 6340 1b5c 0611 b43f
00000380: f0c7 ea90 0449 c83f 3973 50ff 6dbb bfbf
00000390: ce0b 406b 03ec b93f 1ca3 f15a c996 c43f
000003a0: c773 68d2 e117 5c3f e897 0070 0274 cbbf
000003b0: 5347 c0dc c9d9 b73f 220f 8c31 a147 c13f
000003c0: e496 5947 4584 d0bf ecb3 84b8 dfce 853f
000003d0: 536f e954 ca38 d0bf 3403 ccd1 5bc6 b9bf
000003e0: 1fdd 845c 256c ce3f a5c4 8295 540a c3bf
000003f0: ea51 44aa eeab c4bf bbd1 acb4 e5c5 bebf
00000400: 6a40 daaa bc27 b53f 13c6 dd2d 9920 d5bf
00000410: b441 c801 0d29 a7bf de28 90ae baa6 c9bf
00000420: 03f1 f927 1776 c03f fb0f 6996 6bc7 c4bf
00000430: 769a 9085 d0ff 96bf 891c dca7 4175 9ebf
00000440: 22cb 5f19 5874 c63f 430a bb70 ef5d ae3f
00000450: e6de e46a 97cb a33f dd4e 77f9 624c b13f
00000460: 2624 ddd3 0b40 c63f 2984 61ee 62b2 d2bf
00000470: f9cd f875 f8bf c3bf 8aee a380 f2a1 b8bf
00000480: 9548 f727 0dae ba3f bda9 2f4f 2567 b1bf
00000490: 375a 9044 4e11 cabf 28de 9887 15ad cdbf
000004a0: c232 cd7a 1ee0 c73f 02e3 4485 55ac cb3f
000004b0: 8103 da08 8a6e b53f c06e 181a 7030 a9bf
000004c0: 10e6 f389 97bd c0bf 84ca 65d5 a0dd cc3f
000004d0: 5883 6642 d556 b1bf 5aa8 a751 789c 713f
000004e0: 4b89 7768 b7fd c33f fb35 b2a0 5a03 793f
000004f0: d384 3ba0 4008 c33f 0000 36c0 3c0a c2bf
00000500: cd46 8a0a f75c cb3f 35f5 d5d8 b0df c23f
00000510: 1bf9 aa9e 6f2c c4bf 20bf 57d3 1e91 bdbf
00000520: 47a2 6289 1690 b43f 4139 8ea0 4f4c afbf
00000530: 27b5 7a82 9c8c cf3f 9c5c 17ea 5196 a0bf
00000540: 878a bad1 0ae0 ce3f 1002 6163 77b1 ccbf
00000550: dc6c 4eed db2e bdbf 9fe5 744b cf03 c9bf
00000560: 7e61 aab8 52a4 99bf f916 c886 4874 b4bf
00000570: 82ed d4f9 9fb5 af3f 59de fae8 d45c 803f
00000580: 9749 abfe 6086 58bf 9ec9 7980 0b44 a73f
00000590: 92d2 c90b fc62 c43f 5f24 cce3 114d bc3f
000005a0: 0cc0 0af0 bfc4 c9bf cbd7 8f07 bd18 c6bf
000005b0: a6fb b959 ad54 c93f cca1 c64a 6f4d c63f
000005c0: b00b 5590 98da d03f a810 e25d 79ff a13f
000005d0: d540 9c2c e767 b73f 0dbf bde4 e0ef b2bf
000005e0: 50a8 9982 6c40 c93f 7d47 735a fb74 bb3f
000005f0: c882 2815 616e b23f 09e6 3272 7ac7 cebf
00000600: 8d49 b2c7 3b58 aebf 4308 27a0 8e16 d03f
00000610: c808 63d9 b5f2 8e3f b30b 7a5d 7956 c4bf
00000620: 2844 c413 ed44 b2bf 7bfa 2a7a 9540 75bf
00000630: bea9 0a69 1ce5 c4bf a982 d6d2 bc26 c03f
00000640: 605d 9b6f 3a19 823f 772b d1ee 0959 c7bf
00000650: 32a5 eaf5 860c b63f ddeb 1915 6288 cb3f
00000660: d7b2 2202 8185 c5bf 1c38 ec5d bdd1 c5bf
00000670: 767e 4870 6f9c c43f a59c 9c93 7016 b5bf
00000680: f645 836c 509f afbf aa01 7402 ee6d 79bf
00000690: 4dd8 1204 9c19 c13f e030 ed98 ccdb ccbf
000006a0: 2e43 17bc 6c4b 9f3f 339f bec2 f037 aa3f
000006b0: 54e7 bb09 4cd9 c3bf 1d2a bd25 bcce d0bf
000006c0: 99aa 8d2c 5900 bbbf 85ae 3264 4483 c9bf
000006d0: 93fd 5d9f b331 b13f 10f7 2e4a e990 71bf
000006e0: b106 dccc 59b9 6cbf 5e9d 2f5e 210c c8bf
000006f0: d476 cf69 cabb bfbf c561 59bd 6820 c83f
00000700: f1ea ab52 eddd d73f bff2 f685 e7d9 c43f
00000710: 4499 0d8e 25ac d0bf cdf5 49bc f9e1 b9bf
00000720: 336c f19c b7e1 a93f 65fe a02c 4c1d c2bf
00000730: 2299 493e d5bd b13f 1cfe 6913 5b91 c73f
00000740: 6987 8748 6e01 c23f 0198 398a 615c c13f
00000750: 6f9d eb1e c1ed d2bf 34e1 eef1 3a58 b3bf
00000760: 1d6c 256c acd7 c43f 5e67 995b f773 b2bf
00000770: c6f4 c8cb 301c b53f 19ba 4491 2541 c5bf
00000780: 7efb 0747 3aa5 c63f 7555 011d ca0f 97bf
00000790: d5aa 1397 d2ac c4bf 0e8b 7a94 2ebe ca3f
000007a0: 9d42 87b7 f2a4 a63f 3e8f 4a42 6c25 b7bf
000007b0: 1427 251c e486 d33f f1fd dd56 00ba c23f
000007c0: 75c0 6927 ef60 99bf a3f4 7a69 c513 ccbf
000007d0: 2501 46a2 278b bdbf 9335 6620 cefe 9fbf
000007e0: 638a 5e4e 397c 753f fddc 2dd8 6111 c83f
000007f0: 5528 0ca1 5ae5 b5bf a729 143a 088d cbbf

encoder.bias_ih_l0 f8 [64]
-0.0909921520208065 0.5100690739198231 0.7326554721925413 0.8188304577094783 0.4555947226850474 0.057331054554425206 -0.02220368781783838 0.28856188666092086
0.19586399065786497 0.8052043726393984 0.06780152996127013 -0.169341961096344 0.23056269370278704 0.008575440236718484 0.7346997435895866 0.08047070145392778
-0.2612799715645661 -0.1436813119421139 0.16482851783183022 0.3765644966661765 -0.11356925321819329 -0.08977484588739862 -0.03802071315797958 0.07248898788869383
0.17322291063634274 0.10125477002909744 -0.1617206046761505 -0.01172164836154008 -0.1711818971396701 0.03883400308824907 -0.12998787731151504 -0.08588320453973664
0.0929375702895263 -0.12254166858159998 -0.5577635616142471 -0.08736324629574249 0.3466383668259519 -0.2541177314197846 0.15638881316978337 -0.28300323951258494
0.33352391053031794 0.05640844513425594 -0.3030912951723232 -0.23914932263276545 0.2873813895766391 -0.6667795547617807 -0.6028422287754113 0.12568219018149107
0.3215355484080528 0.6001107046318757 0.10485496770227558 0.03637864485599697 -0.08908667130001473 -0.12707526660610893 0.1769051224258023 0.27747611786747606
0.06771062887901454 0.03570745154000985 0.04912426142337236 0.11198720883036432 0.30888341299027977 0.21580003038741824 0.3586485423761324 0.13560606430776803
00000000: fb3c 1ffd 424b b7bf 03f9 e560 7c52 e03f
00000010: 48ad 89e3 e971 e73f e696 9aee db33 ea3f
00000020: e065 8ac4 7628 dd3f 5e80 b6f8 7e5a ad3f
00000030: f0e2 1c44 90bc 96bf 6a2a 8546 cc77 d23f
00000040: 5877 2b3d 1212 c93f 21a3 e2f5 3bc4 e93f
00000050: 5b6b cde9 705b b13f 1fe9 5f54 ffac c5bf
00000060: 0cc9 900e 1483 cd3f a98f ec1a 0090 813f
00000070: 7a19 6309 a982 e73f 79e2 0757 ba99 b43f
00000080: 470e 3ea1 cfb8 d0bf 813b eb33 2664 c2bf
00000090: 2e97 c4d2 1919 c53f fb04 81f9 a119 d83f
000000a0: 8d3d 67e4 df12 bdbf 42fe 16fb 7bfb b6bf
000000b0: ab11 2b6f 7377 a3bf 1f55 4d68 a38e b23f
000000c0: 4fee 0c18 2b2c c63f 08c7 d625 d5eb b93f
000000d0: 5532 16c2 42b3 c4bf f2b7 f102 8501 88bf
000000e0: 47e9 f0d4 49e9 c5bf e63c 79ea 0ce2 a33f
000000f0: 27f7 f658 71a3 c0bf e01a c612 71fc b5bf
00000100: 5f95 f6b0 c1ca b73f c88a f40a e45e bfbf
00000110: d813 01f8 32d9 e1bf 6c6d b60d 705d b6bf
00000120: a99a 43b0 522f d63f 2707 7204 7743 d0bf
00000130: f421 0373 8c04 c43f 4397 979e b91c d2bf
00000140: 0a5a 0aac 7458 d53f 04c2 2356 91e1 ac3f
00000150: 0fea 1d08 d965 d3bf 68bd c8eb 719c cebf
00000160: 1d7c 6de9 7464 d23f 3afc aa13 4256 e5bf
00000170: db9e 27c9 7b4a e3bf b873 42a0 5a16 c03f
00000180: 2b7f 3ad6 0994 d43f 12f3 4b5d 1b34 e33f
00000190: 9bba 1a71 c6d7 ba3f f2cd dbc3 38a0 a23f
000001a0: 8339 be53 62ce b6bf 7513 1a99 0044 c0bf
000001b0: 3a27 a8b9 d3a4 c63f c45b ea30 2bc2 d13f
000001c0: 7d80 a0d8 7b55 b13f 4dfa 2c41 3f48 a23f
000001d0: d3cf 81b0 d026 a93f 2b2a 7f97 31ab bc3f
000001e0: bc7c 44ef bec4 d33f b4b0 7edc 559f cb3f
000001f0: 26de 1004 19f4 d63f 5daa ab1d 8a5b c13f

encoder.bias_hh_l0 f8 [64]
0.32216182418120487 0.1781695799870947 0.6232580012414595 0.7820700977069596 0.13562134331149353 0.047863661394558714 -0.12746090093353174 0.48487064849602063
-0.009153277999818821 0.6601852884242339 0.3969168015295719 0.2557180428995494 0.08904803477486486 0.2348440893379734 0.647838729223432 0.2217645251729539
-0.020188958609856814 0.011633968018518561 -0.0034706505164830504 0.37851359835265397 0.031176037061194425 -0.10594621186373217 -0.1844314764216824 0.1996550504821573
0.13674617933598854 0.17891685055544945 -0.11790773369684514 0.12849577507748516 -0.16759119412911097 0.05641636001802822 0.04640834361095535 0.1140378073850074
0.2707007045306299 -0.0723001386400421 -0.6764135509807762 0.08120757022113949 0.22856088007249173 -0.4079005163585962 0.08642833820182733 -0.29685798156275556
0.37799022723029685 -0.26339693854799423 -0.24484480183278487 -0.24442343962571592 -0.011214873355184835 -0.3616178998125868 -1.0292850009254393 -0.07928834843468985
0.2608582584452851 0.8671503314686583 0.038812127221472204 0.3120817472062375 0.1895485325383371 0.20885093831370583 0.33249732556605793 0.4997016050996814
0.07720362223381248 -0.006673626464826929 0.10428007511737171 -0.08252250601147852 0.02419687739342786 0.3269019557605052 0.19873083016452275 0.17368839572675934
00000000: c630 b8a0 4c9e d43f 6ce3 97c3 42ce c63f
00000010: 3aad 89c3 baf1 e33f dd96 9ade b706 e93f
00000020: 43cb 1449 0a5c c13f 4780 b6f8 9581 a83f
00000030: 8a9c 8388 a350 c0bf 852a 85e6 1e08 df3f
00000040: 4d89 482d f4be 82bf 1ea3 e2e5 3c20 e53f
00000050: 155b 73ba 1567 d93f 4d0b d035 af5d d03f
00000060: c690 211d dacb b63f a4c8 ae01 5f0f ce3f
00000070: 5019 6349 18bb e43f 71f1 83ab c762 cc3f
00000080: 61e7 e013 6aac 94bf 3b48 4cc1 8cd3 873f
00000090: 923c da4e 7b6e 6cbf f804 8119 9139 d83f
000000a0: ff08 636e 9cec 9f3f 3dfe 167b 4a1f bbbf
000000b0: 7ac4 ca5b 739b c7bf 09ab 26f4 4b8e c93f
000000c0: 48ee 0c18 e680 c13f 8763 eb52 bfe6 c63f
000000d0: b765 2c84 332f bebf 6ae4 d0af 8c72 c03f
000000e0: 45e9 f0d4 a073 c5bf f43c 79ea 9ae2 ac3f
000000f0: 8e23 249c d5c2 a73f 3ce5 39ed 9431 bd3f
00000100: 4ea5 3d0c 2953 d13f 0d8b f40a 4382 b2bf
00000110: c313 0108 2ea5 e5bf 3394 49f2 04ca b43f
00000120: d335 87a0 7b41 cd3f 1b07 72c4 0a1b dabf
00000130: 0c44 06e6 2a20 b63f 3e97 979e b8ff d2bf
00000140: d859 0aec fd30 d83f b187 3bd5 7edb d0bf
00000150: 27d4 3b10 1357 cfbf 69bd c86b 4449 cfbf
00000160: dd7c 50d2 d2f7 86bf 0df8 5567 bf24 d7bf
00000170: 39cf 938c f377 f0bf b418 7bbf 3d4c b4bf
00000180: 3a7f 3ad6 e6b1 d03f 47f3 4b0d b2bf eb3f
00000190: d075 35e2 2edf a33f 227a 7bb8 25f9 d33f
000001a0: bae3 2056 2043 c83f 80ec e5a6 a0bb ca3f
000001b0: 6413 d4dc a247 d53f 905b ea70 1cfb df3f
000001c0: a780 a0d8 9dc3 b33f 702c 98f6 cd55 7bbf
000001d0: a9e7 4058 19b2 ba3f e3d5 80e8 3120 b5bf
000001e0: d2c6 47f4 10c7 983f 0659 3f2e f6eb d43f
000001f0: 30bc 2108 0370 c93f 65aa abdd 6b3b c63f

encoder.weight_ih_l1 f8 [64, 16]
0.6771299162628176 0.03614053415216615 -0.957403981075149 -0.5717441873790157 0.5538160949987617 -0.6217970011185067 0.4865989274140066 -0.7527084296386699
0.2569639974090401 -0.004321254459104467 -0.7787818677086261 -0.7137023728242435 0.5009753035017467 -0.8645386716064454 -0.8980321969794318 -0.3543376687636615
0.7452787067731075 -0.4326672589177808 -0.7024878494061041 -0.5330724659408399 0.4465254134201468 -0.33203102926806766 0.6509225540449313 -0.6239948333199186
-0.05934144531798051 -0.3106910065354043 -0.7132190479751142 -0.52197204645911 0.8032404813742723 -0.22654644416978975 -0.6994115009685392 -0.3430152333360299
0.20916131817159248 -0.6196915979969452 -0.03483991321868382 -0.5207553319244864 0.4884611415218095 -0.1984294467719524 0.32576847988808844 -0.5533128310689952
0.2859943169946312 -0.8727551683457169 -0.23277850016846202 -0.18955460490690548 0.025277849718176686 -0.22990871037791202 -0.582092266424904 0.22715931895901179
0.20818463280461158 -0.14162749094977803 -0.2764120520974708 0.15757314267441072 0.10983799793093278 0.005807491789668944 0.12787348359147926 0.019816819655690873
0.18640572937801772 0.01533992380778151 0.05451977337159691 -0.2100600943598724 0.11707311111531707 -0.2213330598623484 -0.30563741818743134 0.23596680148401666
0.038940891435272594 -0.01052770174975294 -0.17040445615224228 0.1668110427128009 -0.020589465336918036 -0.10316564263677579 -0.04596705435408733 -0.13965620536102824
0.13747205861598458 0.06525719555156238 -0.1751485251093835 -0.2875697169268206 -0.06828052445085399 0.04706548930186186 -0.3016594308866784 -0.14082422082730567
0.3698168798444078 -0.32950364883462924 -0.212248148730574 -0.5138972093820363 0.14609442074601472 -0.4648525769051287 0.23636079475860824 -0.4947528644841248
0.33092343072993696 -0.6887066288967622 -0.47609088647936576 -0.08679581363809409 0.1837586143561965 -0.3212048778900802 -0.7977175124526575 -0.20127177487003034
0.10607972214211314 0.0010842197228646661 -0.5707695128453131 -0.2154024508931706 0.1338432624890405 -0.34511733206538125 0.026411826971398492 -0.5326779109984897
0.2702245451869361 -0.39743327086052177 -0.20164664314184774 -0.34392510961657874 0.41200631469920024 -0.2412624881013015 -0.29139461023930946 -0.09692680155647573
-0.20140415118620464 -0.1307493938132106 0.20404087472021143 0.05169179554509815 -0.12309925252282522 0.005388830580030869 0.11042637103814039 -0.1502218773505031
0.18951258772391713 0.05859501292333454 0.27696488301388195 0.26598921944471926 -0.22382196469514284 0.05867338032632855 0.10274768900066811 0.04386220766771291
-0.10329654373985364 -0.6901309580250193 -0.4239442616903186 -0.26533772455320115 0.2529275745816752 -0.7381927890243246 0.008440598765400889 -0.48762502285087106
0.5465528467970111 -0.5872298539105304 -0.1808609666382327 0.016171690841333283 0.12579434811339352 -0.26398023135575044 -0.5496531094983752 0.39778455771819826
0.09682033529683583 -0.09191223890364075 0.014440580324350288 -0.2267834262551722 -0.17241747745383007 -0.04862416233250331 0.10005576059825488 0.21567063953984733
0.20519337702556054 0.1693840572337214 0.13599558454542088 -0.07734655788273544 -0.037620462673880556 -0.08351623199327948 0.06501718199506655 0.09967849782899237
0.1163285152450955 -0.6986403560813121 -0.7343068520080694 -0.6616602585385143 0.4969305671204788 -0.4898718947768413 0.5257792892939317 -0.5373848661124817
0.21433874791424865 -0.3922484664411549 -0.24563352031913827 -0.1030059533356613 0.470168375692808 -0.28182793277641294 -0.39810862776186334 -0.05648966897871881
0.1598442053606453 0.03932390376357357 0.030033740932939607 0.08553713893106202 0.1063043819834742 -0.08924455506648733 0.24756122287826723 0.07819162314520041
0.13849423931934998 0.16355424361784687 -0.1478709413053042 0.04952597734209862 0.09518920960435089 -0.14996395159379566 -0.06943642098580655 0.010939701421989738
-0.10514125541357457 0.04622885739804445 0.04761811696499929 0.016194733400679836 -0.020898533699250346 -0.3135664533416861 0.05668900830678426 -0.0988590471011494
0.08947870811427612 -0.022423188132952902 -0.29742850472945753 -0.2202971653706406 0.08617700619606365 -0.012721780215377808 -0.05099520024693076 -0.13490045672460915
0.26543509521324615 0.1997976311357441 -0.73588472855657 0.3556070526775273 0.17973558199352577 -0.4031147427623456 -0.17887067215701943 -0.3152328767660793
0.875817798214728 0.3167542089727896 -0.31253295755797944 -0.2657958970904446 -0.029538075823990883 -0.7777667481434355 -0.31914108210141123 0.2378268685867505
0.5532272670832818 0.09803348117890436 -0.2596743548394826 -0.478176422860407 0.36467900218762006 -0.29517948322601334 0.47794423466235547 -0.08778820124707715
0.1930113161797895 0.18968172402967773 -0.060104850289084286 -0.2651685307541537 0.5949519259587639 -0.19057017122492317 -0.29822118489373084 -0.00846040359353028
0.08993812731713562 -0.19620137265216536 -0.45326880643422973 -0.0838576195536722 0.03324643491418067 -0.15834567612610587 0.3733901010666014 -0.19540953044342738
-0.061072795862681564 -0.10394449063742134 -0.31965668315438817 -0.25608064554801613 0.14279593319588307 -0.3291069935185637 -0.32632630272123725 -0.28516934151153417
00000000: a1be af5b 0cab e53f 45af 7c18 0381 a23f
00000010: 1de5 78ac 0da3 eebf 2c12 4f77 ba4b e2bf
00000020: 5d94 0088 dcb8 e13f 6dc1 11d3 c2e5 e3bf
00000030: edc1 e0d3 6f24 df3f 6217 17fd 2f16 e8bf
00000040: a8c2 471f 1972 d03f f9d3 45e9 29b3 71bf
00000050: d7d7 90f3 c7eb e8bf 7c72 cb5b a6d6 e6bf
00000060: ff98 145c fd07 e03f b6a9 1501 4daa ebbf
00000070: 9a03 9904 aebc ecbf f12b c5e6 77ad d6bf
00000080: 88dc ffba 52d9 e73f 6e84 c603 d2b0 dbbf
00000090: bf2b 61cc c77a e6bf bca5 f3fc ed0e e1bf
000000a0: f73b de53 df93 dc3f 1fab fd12 ff3f d5bf
000000b0: b841 3b89 5bd4 e43f b86c 3f03 c4f7 e3bf
000000c0: 764e e07d 0062 aebf cdc6 0e88 5ce2 d3bf
000000d0: f0fe bdc0 b0d2 e6bf 6efa 9eb8 feb3 e0bf
000000e0: ed6c ca61 25b4 e93f c0fe 5d50 79ff ccbf
000000f0: 9165 633a 9461 e6bf d050 4d2a f6f3 d5bf
00000100: 8d4f 914e ccc5 ca3f 6b17 6079 83d4 e3bf
00000110: 9c4c bd7f 89d6 a1bf 58aa fa15 07aa e0bf
00000120: f2fd 0c85 f242 df3f d475 39d8 2266 c9bf
00000130: 60f7 cb09 64d9 d43f 92c0 3c1c bdb4 e1bf
00000140: f25c 951b bb4d d23f eab6 2e3f 9ced ebbf
00000150: a4bd b796 afcb cdbf 69d0 7046 5343 c8bf
00000160: fb3c 69c7 6fe2 993f dfbf 110c a66d cdbf
00000170: 5a95 f1f5 7fa0 e2bf 298e f47a 8e13 cd3f
00000180: 4279 b646 cba5 ca3f b502 ec80 d920 c2bf
00000190: 0ea6 fe2c bcb0 d1bf 51dc 4153 5b2b c43f
000001a0: 63b2 f8d0 571e bc3f 4546 efb4 98c9 773f
000001b0: 0a87 0687 285e c03f 6fe3 5341 dc4a 943f
000001c0: 3199 bb97 24dc c73f 4ed4 9eb8 896a 8f3f
000001d0: f790 3b07 04ea ab3f a533 bcc9 3fe3 cabf
000001e0: ea33 7bdf 80f8 bd3f 60f2 d046 a454 ccbf
000001f0: 1121 e33e 908f d3bf ca64 a8ff 2834 ce3f
00000200: 1317 627e 0ff0 a33f 88e3 bc35 8c8f 85bf
00000210: 331e 222f d0cf c5bf f014 8872 105a c53f
00000220: 7487 0ea1 6715 95bf 531e 3245 1069 babf
00000230: 61dc 4966 fe88 a7bf 02c3 5a29 41e0 c1bf
00000240: 194a ef35 af98 c13f bffe b810 b2b4 b03f
00000250: bcca a451 446b c6bf b152 61d0 8a67 d2bf
00000260: 815b 781b d57a b1bf 64ba a4c2 f718 a83f
00000270: 630c 8c5b 634e d3bf 120f 782f 8706 c2bf
00000280: 0a31 1c6b 14ab d73f dc12 ea78 9616 d5bf
00000290: 1599 b784 f22a cbbf f9a5 798f d871 e0bf
000002a0: a3b8 9dd3 38b3 c23f e234 d105 25c0 ddbf
000002b0: b3bb c50d 1241 ce3f d8f1 23eb 07aa dfbf
000002c0: d9c5 1d78 d92d d53f d1cc f47b e209 e6bf
000002d0: c38f d6e8 4578 debf f95c 011d 4038 b6bf
000002e0: 6a52 82fb 6685 c73f dba0 76e7 9e8e d4bf
000002f0: c7c7 6de0 e686 e9bf 185b 5605 46c3 c9bf
00000300: 2880 5e69 0a28 bb3f 36a4 1610 8cc3 513f
00000310: df2e e76c be43 e2bf b53e 08b9 4e92 cbbf
00000320: 7216 97a9 c621 c13f bb3a a001 6716 d6bf
00000330: 1171 47b4 b30b 9b3f 9948 e18b b20b e1bf
00000340: 1de1 09e4 5b4b d13f 4d0c 2cf5 8b6f d9bf
00000350: c73a d2a4 8ecf c9bf 14e4 8476 de02 d6bf
00000360: 263a d8bb 4f5e da3f 61c6 1270 b0e1 cebf
00000370: 1458 4d94 35a6 d2bf 627b cae2 31d0 b8bf
00000380: 32cb 4f79 9cc7 c9bf ec24 3369 65bc c0bf
00000390: b23a fce9 021e ca3f fde8 acd6 5877 aa3f
000003a0: 6461 bfbf 6e83 bfbf c1bd ad31 9912 763f
000003b0: d38a 3914 e744 bc3f f19b 2e71 783a c3bf
000003c0: dd2e 3acf f241 c83f 5bc8 6d60 2a00 ae3f
000003d0: 7fd8 abea cab9 d13f fba1 a6a5 f705 d13f
000003e0: 4dfd 3eb9 32a6 ccbf 9571 4bf3 6f0a ae3f
000003f0: c858 ff2b ac4d ba3f e626 ed76 1b75 a63f
00000400: 900a 276d a471 babf 6196 d584 8d15 e6bf
00000410: ac5a d21c e721 dbbf b077 5614 4bfb d0bf
00000420: ef6e 4523 f72f d03f 7f14 e07b 469f e7bf
00000430: a899 3ffd 4d49 813f 82c4 7695 3f35 dfbf
00000440: 6eec 5065 5c7d e13f 8ffa 3843 96ca e2bf
00000450: a4c5 6ac0 7326 c7bf dc60 23cd 4f8f 903f
00000460: cc96 9579 071a c03f 5ca9 1d57 0de5 d0bf
00000470: 5a16 2e1e c296 e1bf 1d39 905c 4d75 d93f
00000480: c50a b0ad 37c9 b83f 887a 317c 8f87 b7bf
00000490: d6a6 d3e1 0593 8d3f af38 8543 3d07 cdbf
000004a0: 7025 76a1 c611 c6bf 0de9 0626 44e5 a8bf
000004b0: c4c0 8b1b 419d b93f 68f9 c373 189b cb3f
000004c0: 411d d7cd c643 ca3f 142d 2475 60ae c53f
000004d0: 32f1 02a6 4d68 c13f 5d84 90e8 fbcc b3bf
000004e0: 447d b041 fd42 a3bf 16a6 18dd 5161 b5bf
000004f0: d7cd 584e f7a4 b03f cd38 4ab0 8784 b93f
00000500: 73e6 91a0 b4c7 bd3f f81e 2105 435b e6bf
00000510: cf4e 5315 717f e7bf de8b 6f22 522c e5bf
00000520: 7692 8add b5cd df3f 15f3 d2a5 0f5a dfbf
00000530: 56cf 8d16 2fd3 e03f b930 2abf 4132 e1bf
00000540: 2755 47bc 736f cb3f a756 d14f 991a d9bf
00000550: f238 4950 eb70 cfbf 2fb6 de20 995e babf
00000560: 06b3 4d19 3d17 de3f 4aef 9706 7809 d2bf
00000570: 6d87 1f9c 9c7a d9bf 16a3 a6c1 36ec acbf
00000580: 7a52 3d61 c675 c43f e62f 3b41 4322 a43f
00000590: 3584 553c 2ac1 9e3f d464 4d0e c3e5 b53f
000005a0: 145f 0a94 c336 bb3f 614c 5b2d bbd8 b6bf
000005b0: e58c 020e 16b0 cf3f add3 3ac0 5d04 b43f
000005c0: 07cf 47e2 2dba c13f 34f7 ba6f 58ef c43f
000005d0: a4ae 775c 6fed c2bf 5f37 f909 785b a93f
000005e0: 6bca 2eee 515e b83f ca4e d6cd 0432 c3bf
000005f0: 340b 49d5 95c6 b1bf bc00 afde 8d67 863f
00000600: 0931 768d 89ea babf 99e5 4f0d 4fab a73f
00000610: f0a0 1fde 6661 a83f 8f1e 4b29 5a95 903f
00000620: 672d 17db 6c66 95bf 866a 8e07 7911 d4bf
00000630: 91cc 7079 5706 ad3f ac91 3696 d34e b9bf
00000640: 7505 0a9d 13e8 b63f 4ef6 cfae 1af6 96bf
00000650: 5384 2d91 1109 d3bf 4c8e 5590 b232 ccbf
00000660: 137f 473f b20f b63f 6c8c c66f e00d 8abf
00000670: 2688 a0fa 0a1c aabf 1c80 ec0c 6b44 c1bf
00000680: ceb2 497b e3fc d03f e8ec c501 f892 c93f
00000690: 7ed7 5821 5e8c e7bf 0186 5e15 44c2 d63f
000006a0: ef7b 4b57 9301 c73f 54c8 2cc7 a1cc d9bf
000006b0: 3760 90f3 3be5 c6bf 5165 1584 c62c d4bf
000006c0: 93c8 120c b306 ec3f 8e24 1a72 b345 d43f
000006d0: 2d8e e83b 8a00 d4bf 3486 5acb cc02 d1bf
000006e0: b36d 9ab6 3a3f 9ebf 8527 6617 77e3 e8bf
000006f0: 12e1 9bb7 ce6c d4bf ec57 585f 1c71 ce3f
00000700: d419 6cab 09b4 e13f a390 93e3 b818 b93f
00000710: 7f4f 692f 819e d0bf 77d6 7948 719a debf
00000720: 68c2 fb98 e656 d73f 65fa b97c 38e4 d2bf
00000730: b4f0 4b6a a396 de3f 6cb3 549d 4979 b6bf
00000740: a803 6045 98b4 c83f 4f9d ada0 7d47 c83f
00000750: ee2a a51c 10c6 aebf 121e e16d 85f8 d0bf
00000760: 60ec 159f d809 e33f 7d88 8076 9a64 c8bf
00000770: c8f2 054f 0e16 d3bf 7d1d f625 b053 81bf
00000780: c396 7d63 2f06 b73f 7e55 7c67 201d c9bf
00000790: 6aa5 fb2a 5b02 ddbf efe0 8065 b177 b5bf
000007a0: b07a 543d ad05 a13f 5d5a 36ce ab44 c4bf
000007b0: c8cb 2e98 9fe5 d73f f965 4af3 2d03 c9bf
000007c0: e29d cff9 ee44 afbf 2c19 e32b 1b9c babf
000007d0: bd23 064e 4175 d4bf 661b 7113 a063 d0bf
000007e0: caff 891b 2347 c23f ef03 83c7 1610 d5bf
000007f0: afc9 80b7 87e2 d4bf 0c4a e7e8 3640 d2bf
