lstm_with_validation.pth (torch, 42538 bytes, 16 tensors)

encoder.weight_ih_l0 f8 [64, 6]
0.146717741012149 0.1822552313826313 -0.15254751827352273 -0.058998614184286806 0.04445019249422767 0.22925753102602375 0.01794031902664397 0.14294554052829261
0.1566617102773585 0.07014648686973474 -0.06244624022770221 0.03380571167404784 -0.16841158052155816 0.06357100772851337 0.05409177563210047 0.19132417659298878
-0.06368571435210724 -0.12986541739570845 -0.1542865696533789 0.21736153585863846 -0.13979447748056387 -0.09791165097622401 0.02618854280054901 -0.12882411368008997
0.08148858640824477 0.0953804598303838 0.13455026134517942 -0.05230869676507939 0.0107150508050363 -0.19052068787177795 -0.05819261402733968 -0.02485751545913117
-0.026227532435982234 0.1728607743273136 -0.16871708065562013 0.0807208805938326 0.12644874197927247 0.2044498228095875 -0.1426435505201262 0.10421483140235427
-0.03691546969719283 0.1137551714630785 -0.08233687894232153 0.024418223407523393 -0.02858519374174081 0.025687272441674545 0.1198679907380229 0.10670902044967488
-0.005550510823704754 -0.00619586311523501 0.09042816618092747 0.2554608764002712 -0.13223956925817523 0.18287554865558528 -0.12920445613693718 0.038577022150916095
0.09925531638891047 0.005983041405345451 -0.0927595482665613 0.04892804878673089 0.24413279246030034 0.15476397253920995 0.007564437877200798 -0.14690516209103371
-0.013462223278629405 -0.16581202380840956 0.2095326860450058 0.07998163222608881 -0.04813107327310554 -0.15611021309256803 0.2562644513240614 0.037005139930990125
-0.10491306151877504 -0.24122138483522335 -0.11255530613454892 -0.16139454382557053 -0.1889614519076527 0.03574815325076555 0.24629218417454055 0.1414588645214479
0.10363435141594614 -0.2055295406964492 -0.07831233810120401 0.11382071028648391 0.22512231659901544 -0.039641611002932474 0.18751135330564442 0.06229301621105558
0.03880028929933029 0.12850727100026096 0.0004972503919485374 -0.14324070604876796 -0.013587074971867888 0.08170338552790558 -0.12918513301434828 -0.1501181290549241
0.23440011015763168 -0.11817717347470608 0.0875948040794516 -0.06036095716336561 0.12523907412392196 -0.09769707851533097 0.08448962747342592 0.06641313475639576
-0.09314197625614329 -0.07176174569881345 -0.23244929158856012 0.12436572732741874 -0.06106216255031854 -0.23446404997834866 0.09449980611120291 -0.12359183535726558
0.18967685900692807 -0.02211814282741286 0.007603138846176989 0.08600943507754 0.06881230317860751 0.03074084251992656 -0.005416383003743999 0.21917919755489446
-0.02728011632865868 -0.12207171670822027 0.14650046176439566 -0.07943748989744887 -0.11498959319694517 -0.0005217794745844456 0.07445180907255997 0.1588052175527249
-0.0936643756144385 -0.011594360464786114 0.24827408069266635 0.06817683610479675 -0.07455103141292954 -0.031241433541412265 0.21080324314814922 -0.1502737910551344
-0.21700897004046987 0.10895587568351828 -0.23317055933856262 -0.24106630352079408 -0.032638688061888355 -0.04442407581114397 0.1414663480417035 0.0470147344038969
-0.21259902904658515 0.08946383694242223 0.1133107933858058 -0.024859276071764948 -0.12702160288634917 0.19567064200430884 -0.04785384467609318 -0.17451228911115377
-0.15823904054019405 0.1090114952695948 -0.2173378668719911 -0.08183426484878553 0.20919589100481742 0.12438766992977354 0.05115892379264239 -0.12154561300448768
0.1583645581260614 -0.1089329384478732 0.032085268121055346 0.15964609475407734 -0.2005032113364622 -0.08412679375291997 -0.09517152865319696 0.23459195778387587
0.079898533101546 0.049035586193724945 0.2343183695500396 0.21063275263623316 -0.19242790879607613 0.06832685520446197 0.08341481019931436 -0.16697942133235963
-0.23897104552452375 -0.12144039441927999 -0.12860521613605383 -0.06086851322470822 -0.032484318714605366 -0.06997114676168568 -0.19422655298529173 0.029678061240552778
-0.03325378559386029 -0.1384486721589601 0.1320703665224003 0.07606304215507298 0.10205199337207199 -0.2091382789225567 -0.06766608438071002 -0.013846603053437535
-0.053392388570387715 0.09538505190953325 -0.04992960464625974 -0.06738613964112744 0.24157745908727968 -0.010553430908675126 0.13123892173970422 -0.09990162288042555
0.08665779608138789 -0.07342400647013135 -0.07295202035710144 0.14657640700295993 0.18256135011820807 0.14605876449974445 0.20875822721995296 -0.05997677829511084
0.04457979090948339 -0.026710506420072617 0.09377105002827979 -0.07668391745378832 0.1789578718942959 -0.07775742379354934 -0.22607253344344883 0.1717103443071895
-0.08749136101010929 -0.25477551084986183 -0.11721317874701788 0.06733093757928525 -0.012136449746819912 0.12733939310254855 0.1109424601048294 0.25060639309266747
-0.023499059344249788 0.25591382002634694 -0.19040336133455937 0.0014927525808242433 -0.03699290439255788 -0.10358945125522522 -0.03972278236872817 0.07086642640531837
0.1114988389404714 -0.16213594307659762 -0.084045809785432 0.1195190735595526 -0.06308944597893806 0.09896304809013189 0.22349555908662502 0.1167185593305598
-0.029948361867541688 0.17899831786965134 -0.15223455784266451 0.2337615921623219 -0.22409955710694238 0.2289299973790488 0.1312677778015487 0.15263615409510958
0.13111421316197575 0.07991581790106068 0.0706066726579352 0.13498594200356284 0.167353437221885 -0.02006285530697611 0.19485303115526534 0.04128191974131073
00000000: 59f1 b19d a5c7 c23f af1a 28b1 2354 c73f
00000010: 170e 0955 ad86 c3bf 3796 dcfc 1035 aebf
00000020: d291 20f6 2cc2 a63f 442a 0f8f 4f58 cd3f
00000030: 6739 ff6d f25e 923f a6ca d61a 0a4c c23f
00000040: 839d 16ad 7d0d c43f ece8 08c3 1ef5 b13f
00000050: 0581 121f f4f8 afbf 89b7 1d74 fb4e a13f
00000060: 2dcb 4dbb 828e c5bf 3cf0 2a87 3046 b03f
00000070: 0517 a5ce eab1 ab3f 7a54 b384 4f7d c83f
00000080: e05c 5dfc b44d b0bf 5448 4c14 6e9f c0bf
00000090: eac7 6f8d a9bf c3bf 57e9 f5b7 80d2 cb3f
000000a0: 0560 7812 c9e4 c1bf 881a d7ea bc10 b9bf
000000b0: 34da 6e5b 2bd1 9a3f 1d99 98fd 4e7d c0bf
000000c0: fae4 9e9d 6fdc b43f f120 a693 da6a b83f
000000d0: 87a9 1266 f138 c13f fa06 ce9b 34c8 aabf
000000e0: b5c8 42c6 c5f1 853f 6e73 cf5d fb62 c8bf
000000f0: 437b 3b1c 6ccb adbf dfbe d39f 3f74 99bf
00000100: 4cf0 44e8 63db 9abf 479f 3f46 4d20 c63f
00000110: 46a3 d873 8598 c5bf ad3c 41a6 1faa b43f
00000120: bced b5ed 782f c03f 32f1 516b 692b ca3f
00000130: e710 3cd4 2442 c2bf 9c9a a1bc d2ad ba3f
00000140: 8fc0 219e 95e6 a2bf b34e 2f15 0f1f bd3f
00000150: 0ede 4f9a 0714 b5bf f8d0 d83b 1701 993f
00000160: 5618 15e1 6f45 9dbf 79e2 3dac c34d 9a3f
00000170: 209a 0e2c abaf be3f 2701 0549 4851 bb3f
00000180: a328 6ce7 21bc 76bf fef2 3457 d560 79bf
00000190: e463 62e0 4c26 b73f 87fc 6293 7859 d03f
000001a0: 07ba 99e8 39ed c0bf a75d 5b4a 7768 c73f
000001b0: af84 cd88 c589 c0bf 23cf 0711 5ec0 a33f
000001c0: 5e31 d8e1 cb68 b93f 0648 aa72 ac81 783f
000001d0: 5055 32fa 16bf b7bf d6cd cae2 180d a93f
000001e0: 3ac3 bf4b be3f cf3f 5dd5 534c 4ecf c33f
000001f0: c824 b954 e3fb 7e3f 6eb4 65d1 c9cd c2bf
00000200: e78e b405 1592 8bbf 6935 c511 5439 c5bf
00000210: 9acf 0091 f7d1 ca3f 9a16 b11e ad79 b43f
00000220: 853c 42d3 a2a4 a8bf 11ef e661 6bfb c3bf
00000230: 4e1c 6403 a366 d03f 0634 9373 56f2 a23f
00000240: d378 2518 95db babf 5747 7ba3 57e0 cebf
00000250: ead2 d6ae 6cd0 bcbf b5e8 bd8f 93a8 c4bf
00000260: 25f3 128c e32f c8bf 6478 35fa 944d a23f
00000270: b320 2596 8086 cf3f 32a9 6cf6 521b c23f
00000280: 61db 12e6 c787 ba3f 6e9a d3bf ca4e cabf
00000290: 6b99 0403 470c b4bf 62b6 49a4 5a23 bd3f
000002a0: 663e b2dd ced0 cc3f 9bfe a2bd e74b a4bf
000002b0: edc8 093d 5f00 c83f c696 cac6 dee4 af3f
000002c0: 6b5f 3bab a1dd a33f 3546 1f1f ed72 c03f
000002d0: 218a ee15 3d4b 403f 71bb f721 b655 c2bf
000002e0: 9b43 3855 8ad3 8bbf f998 d058 83ea b43f
000002f0: 5788 b670 2389 c0bf 02ef 6923 1237 c3bf
00000300: 4a25 a7a3 d200 ce3f 0c24 35f7 db40 bebf
00000310: 1d1e d2f2 9c6c b63f 7b9e f1a1 a1e7 aebf
00000320: 8793 c57f d507 c03f ea59 23fd ac02 b9bf
00000330: 907e d9ba 1ca1 b53f 28b6 cd81 7300 b13f
00000340: 68aa e70d 27d8 b7bf 8959 e14e fa5e b2bf
00000350: 39f5 acfc e5c0 cdbf fc50 9dab 6ed6 bf3f
00000360: 6772 5a2e 8a43 afbf e352 5f01 eb02 cebf
00000370: 59d8 b9a8 2331 b83f 8f7d e9ea b6a3 bfbf
00000380: bb12 1fd1 5447 c83f fe33 5e70 23a6 96bf
00000390: d578 0f0b 7824 7f3f 4033 cede b604 b63f
000003a0: 26ed b6df ae9d b13f 1729 1905 877a 9f3f
000003b0: 5dad d13d 7d2f 76bf 181c bb5e 100e cc3f
000003c0: c1c4 d99d 51ef 9bbf 1944 078f 1740 bfbf
000003d0: cf40 10f2 86c0 c23f 6495 2fed 0356 b4bf
000003e0: f345 293e f56f bdbf a960 b8e3 0019 41bf
000003f0: 063d 1815 460f b33f f35b e9b7 ba53 c43f
00000400: 3674 1076 63fa b7bf fa44 1db8 c8be 87bf
00000410: e57d 82f0 71c7 cf3f e033 6a81 0974 b13f
00000420: ba35 cdc1 c615 b3bf 19b2 5c1d c1fd 9fbf
00000430: 0724 9bc5 99fb ca3f f88c 03ed 2b3c c3bf
00000440: 5a98 a12e f3c6 cbbf 708b c442 88e4 bb3f
00000450: 46e4 5f6b 88d8 cdbf b90b e5b8 42db cebf
00000460: c8cc 9ea3 04b6 a0bf 551c 87a1 c0be a6bf
00000470: 066e 29bd 911b c23f 1dc5 63b5 5012 a83f
00000480: d14d 75ea 7136 cbbf 39a6 d71d 1ae7 b63f
00000490: a437 e0a7 ef01 bd3f 3aff ebc6 b574 99bf
000004a0: aa24 246f 3e42 c0bf f810 1950 bc0b c93f
000004b0: 5b4d be93 4c80 a8bf a3c2 3d2f 6b56 c6bf
000004c0: d607 0948 2d41 c4bf fc2a 1267 2de8 bb3f
000004d0: ade4 322b bad1 cbbf 90bd 3723 17f3 b4bf
000004e0: f560 2953 eec6 ca3f c6bf 5fce ded7 bf3f
000004f0: 7c08 2da1 8031 aa3f 9498 d300 9d1d bfbf
00000500: 3b9b ff32 4a45 c43f 6f3e 1770 07e3 bbbf
00000510: 6ad2 86f2 7a6d a03f 8d91 f381 486f c43f
00000520: 386f b7d7 16aa c9bf 4fd9 e263 5589 b5bf
00000530: 2568 134b 295d b8bf d40d 4bf9 1b07 ce3f
00000540: 3d65 abf2 3a74 b43f 30a0 153e 311b a93f
00000550: 24e4 08f3 24fe cd3f 8c00 0598 03f6 ca3f
00000560: e2f3 8e4b 7aa1 c8bf 4cac 8a68 de7d b13f
00000570: cddf ce49 ac5a b53f 5f1e dde8 945f c5bf
00000580: 3800 9c6c 9a96 cebf b7b3 71ba b716 bfbf
00000590: 511e b3be 2276 c0bf 0202 5063 282a afbf
000005a0: 252e 06dd c8a1 a0bf 5f4b 010b a1e9 b1bf
000005b0: fe16 8b6a 6adc c8bf 1058 bff9 ec63 9e3f
000005c0: f209 30e3 a306 a1bf 4576 8ca3 afb8 c1bf
000005d0: 3702 7e88 aee7 c03f d084 7d16 de78 b33f
000005e0: fc4f 0656 1420 ba3f aa34 280a 0bc5 cabf
000005f0: a3a9 7683 9052 b1bf 3aa0 339a 9b5b 8cbf
00000600: 5bc0 8745 3f56 abbf 968c 7a9e 276b b83f
00000610: 72a4 1d86 5f90 a9bf 5c5b f6d1 3740 b1bf
00000620: c085 1d9b 02ec ce3f c926 e884 099d 85bf
00000630: 6dcb 6ade 6fcc c03f 85b8 161b 2793 b9bf
00000640: 6fed 1c90 342f b63f 47cf 876a eacb b2bf
00000650: 6e62 9ccd fbac b2bf e4b0 3805 04c3 c23f
00000660: 44ba 229a 2b5e c73f 6108 69b8 0db2 c23f
00000670: 0c1f 57ef 96b8 ca3f 0109 98ba 46b5 aebf
00000680: 8199 0990 29d3 a63f 129f 22be ff59 9bbf
00000690: d0db 2e29 6101 b83f efda 97a5 8ea1 b3bf
000006a0: c0e9 926f 17e8 c63f e9e9 3618 e9e7 b3bf
000006b0: e1ec d4dc f1ef ccbf 7296 97c4 9afa c53f
000006c0: 1c90 3876 d565 b6bf 96ff baf1 3d4e d0bf
000006d0: d1ee 60d1 ae01 bebf f37b e9ae 993c b13f
000006e0: 7461 04b6 feda 88bf 7618 6f40 a84c c03f
000006f0: bd55 e39d b966 bc3f 0519 a065 ef09 d03f
00000700: 2134 7b2d 2310 98bf c1e2 e65b e460 d03f
00000710: dc7d fd28 235f c8bf a291 00e1 0e75 583f
00000720: 82a5 19e5 bbf0 a2bf 270e 5a99 d684 babf
00000730: 7010 5c66 8b56 a4bf 6894 cb57 4d24 b23f
00000740: 5f92 ca1a 308b bc3f c892 82de dec0 c4bf
00000750: b2ee 64b4 0684 b5bf 40be 2f50 cd98 be3f
00000760: c8c9 3343 a126 b0bf 6741 0f6f a455 b93f
00000770: 6905 8aa2 809b cc3f a436 297b 44e1 bd3f
00000780: 61d2 288b c8aa 9ebf 5b03 a5b8 6ae9 c63f
00000790: 81ac a007 6c7c c3bf b6f3 b25c e6eb cd3f
000007a0: 7744 6956 4baf ccbf 267f e801 944d cd3f
000007b0: 3e8f 56ee 61cd c03f 894a 03dd 9489 c33f
000007c0: 8e25 c9bc 59c8 c03f 1572 51f0 5c75 b43f
000007d0: 39f9 f165 4713 b23f 689b 2927 3847 c13f
000007e0: 28df de61 d66b c53f 72a1 a16d 5b8b 94bf
000007f0: 854e 2bb2 f1f0 c83f 37f9 685e e722 a53f

encoder.weight_hh_l0 f8 [64, 16]
-0.19104391365886828 0.05149783743500259 0.10685867566502764 -0.21942673795177214 -0.025395784368967046 0.09634323074476715 -0.1150634185797724 -0.1661109338548858
0.040252060028911435 0.020559886891814868 -0.12393022335879479 0.22335372993515612 0.17215586142864361 0.02532439304418513 0.21214320002993511 0.03918739827570308
-0.22429551394221478 0.10755285623292997 0.0188955165535107 -0.12665366178920712 0.16361034943205752 -0.12523580242765972 -0.017533239841196643 -0.09817976779579186
-0.22976228313733363 0.06251141679457714 -0.15497437203393868 0.09276192426003148 -0.010521716174651545 -0.007453253576385069 0.019261311201444142 0.15006321682992238
-0.08351955378584526 0.13706453017633646 0.1639666172922785 0.13905757231717478 -0.12945877424263713 -0.01971511479820395 0.11245201379030072 0.22044511091442193
-0.18824722002356084 -0.18654024949886663 -0.18468708628130703 -0.007032996622388862 -0.18067797053215043 -0.13675141706433025 0.08620741868050354 0.15600060730000798
-0.08955769764250034 0.019006478357894027 0.10988148407573921 0.11472000919291477 0.09340369699246093 -0.18246877043263018 -0.06586723644198669 0.11144313364698888
-0.07054751702161277 -0.172727477870344 0.2547362689395661 0.12521073443623484 0.1438218209088243 0.07395440977387907 -0.14813956255192826 0.05222659607613841
-0.15340999397163999 0.10115550850601324 -0.23996825586076725 -0.11443326603154799 0.12028833959819656 -0.13567810065456248 0.05657281693211012 0.0980417927466254
-0.19381556221426507 0.08305106444761148 0.20735284396867082 0.0836026235290421 -0.11832356020894463 -0.21124445217016036 -0.12035089147383768 0.20197531040045127
-0.06992316897679611 -0.23878194432004118 0.15818060627683772 -0.1717789134192001 0.057563940992982926 -0.12990608681525007 -0.04270496648101463 0.11998416887451005
-0.23071772699698365 0.07639732025600357 -0.24428140900584266 -0.22283614115150496 0.06873322430847152 -0.1636147909998418 0.008649528550460715 -0.07638367091307917
0.17818911073279184 -0.004627619702557858 0.07722060147164903 0.17939474100763161 -0.011567065411244496 -0.08727277888126271 -0.1992472913471479 -0.24384059214118647
0.091418010539638 0.1021875942695526 -0.10637745980997375 0.19521205761713523 -0.0745165926184084 -0.15819459881811532 0.21307998813806853 0.08149280253397055
0.11704011685106228 -0.14030080850193644 0.10708640076295321 0.19186683320129513 -0.03810195309015929 -0.16863845903273544 0.033372401595395416 0.16256229618918044
-0.23813266385644288 0.08996037436995695 -0.19418086767346365 -0.02824330758032739 0.1253896863638572 -0.1838699046072971 -0.12514371364330307 -0.015201688682783304
0.013904573148559378 -0.16903869107195998 0.015516075844968948 -0.14195011943179295 0.060055478994972634 -0.08417940151150269 -0.09126354836856891 0.04130522122070632
0.10171680689894522 0.12981434269281042 0.09395733120381512 0.13047032571042166 0.10752397199546763 -0.22319965014837087 -0.06957950198631836 -0.10234429472596329
0.03323924928198417 0.008500386356690561 -0.2574948577099024 -0.2469680260504428 0.19516605922521252 0.2036487859821395 0.042466494092490197 -0.12049850443963221
-0.028898360508577244 0.2110386582110319 -0.03925993373957097 0.03925265071294022 0.13740150724263514 -0.09624875806723585 0.08295677059415914 -0.1207534852175601
0.10620853173622766 0.16166829502540445 -0.04321463237481504 -0.019544371868346167 -0.02369663056275391 0.026695700072896945 0.1381639280717205 0.07404320347320321
0.1353888903153894 -0.14527580312316432 -0.011903159960660074 -0.09826324812483217 -0.1556002457938156 0.03879619194135282 0.17821424556451365 0.04207672081015745
-0.009177587657628538 0.09749260302867949 0.19191536720241115 0.13843327658201468 -0.23450733385068412 -0.13633719746999046 0.15925694705561466 0.21497271386635106
0.21483393503561046 0.07329645047556765 0.1166134778193925 -0.052609944844754626 0.17112947105856435 0.15353001133157593 0.10956871411652946 -0.24587358178626512
-0.08347577162938684 0.245410481128873 0.044690988390889884 -0.12729867368127326 -0.10883379321308127 0.026844025186913253 -0.20638202609440806 0.16682384264062922
-0.027730118546274645 -0.15221265667099745 0.11505729253874779 0.24289725564135653 -0.21540962465660385 -0.1285736285131322 0.1972561849105229 -0.06872919300260291
-0.13381453438527854 -0.06080653161113693 0.20760077353825065 -0.18278921831409659 -0.03115359125475578 0.12164716401827354 -0.2105284389903135 -0.17267540357927702
-0.16307127040092106 -0.14622846201534917 0.12816672103353974 0.06723530198316491 -0.09927667374083096 -0.11710490205009377 -0.02936220578802366 0.1644453461480375
0.046627440882495895 0.15714430982973515 -0.12364267222261241 0.1490997140960585 -0.16412170855099156 -0.016128977945653513 -0.18525340481681796 0.2175268929466688
0.12138095401501589 0.23925049606858864 -0.06075018080170513 0.22499008551185667 -0.16041435713495805 -0.06292647513769067 0.199297149928295 0.1650601839601468
0.11424196351378896 0.010463335187733179 -0.14946526081398848 0.2463907102698586 0.0021008591677089917 -0.0692275216764719 0.2177784202667875 0.17740120063834083
-0.027788368578517426 -0.1927737697978175 -0.06398478975336293 0.022602593074058198 -0.08148119051260254 0.21864980648211954 -0.053189132416872925 -0.09104595314285438
00000000: 43e1 a180 2074 c8bf 0135 32af ec5d aa3f
00000010: 3371 4615 175b bb3f 2477 afe3 2c16 ccbf
00000020: 5daf 483d 5a01 9abf b160 3d31 f3a9 b83f
00000030: e61d c4d3 cb74 bdbf a616 3582 1f43 c5bf
00000040: 8c73 d702 eb9b a43f 3f3d 3da7 a60d 953f
00000050: 29df 4f20 e4b9 bfbf 1c6c c1e2 da96 cc3f
00000060: 314b 5309 3409 c63f 08ce a93f a3ee 993f
00000070: 0343 1925 8227 cb3f 73d9 04e4 5e10 a43f
00000080: c3ba 8224 b7b5 ccbf 7fa0 1c80 9588 bb3f
00000090: f5ac 8da6 5859 933f 30d2 a6eb 2f36 c0bf
000000a0: 5785 0c16 2ff1 c43f eb88 db0d ba07 c0bf
000000b0: afec d7ce 3bf4 91bf 21d2 cf2b 4f22 b9bf
000000c0: 11ee f6b9 d968 cdbf b663 c28a bf00 b03f
000000d0: b74c cd41 33d6 c3bf ffc7 02d7 3ebf b73f
000000e0: 6981 f1d6 688c 85bf 9df9 bf85 4d87 7ebf
000000f0: c0cc c0b6 3cb9 933f 43fc 4e80 4535 c33f
00000100: 2d33 1698 8961 b5bf a844 469d 548b c13f
00000110: 91fa 73ad dbfc c43f 9184 ae76 a3cc c13f
00000120: 2eb4 c6e8 1a92 c0bf 7741 2ef5 3230 94bf
00000130: 4343 99b9 a7c9 bc3f 7263 f89e 8b37 cc3f
00000140: c334 c822 7c18 c8bf b91e 7e07 8de0 c7bf
00000150: e82e c991 d3a3 c7bf 70d0 c6a7 a1ce 7cbf
00000160: d188 45ab 7420 c7bf c889 fc07 1281 c1bf
00000170: 81c4 e77b b011 b63f f83c 41f1 d3f7 c33f
00000180: c1c6 7ad6 40ed b6bf 3c4f d62b 6f76 933f
00000190: 038f 8a64 3121 bc3f ed2d ae5f 4a5e bd3f
000001a0: 1c7a e8ff 4de9 b73f 4f55 c6fc 225b c7bf
000001b0: 7a6f 65da acdc b0bf b8a8 6086 8987 bc3f
000001c0: 10fd 6bee 660f b2bf b76e 491a ef1b c6bf
000001d0: f1d4 0c5a 994d d03f ab81 c1c4 e706 c03f
000001e0: bb95 a0e0 c068 c23f ecb0 5f1b adee b23f
000001f0: 63bf 33b8 3cf6 c2bf cbbf 41c4 71bd aa3f
00000200: 9f6e 7e4d f0a2 c3bf a4f4 d7d0 53e5 b93f
00000210: 1a05 80a1 47b7 cebf 4612 2e9f 7f4b bdbf
00000220: db15 aa74 37cb be3f 8220 8c66 e65d c1bf
00000230: cecb 21bd 1cf7 ac3f 59eb 7c55 4419 b93f
00000240: 7b43 95c6 f2ce c8bf a252 b3a5 d542 b53f
00000250: f4fc c9b9 898a ca3f dec2 ea45 fb66 b53f
00000260: 9896 71ed 734a bebf 9621 c4e6 0e0a cbbf
00000270: 26b1 ece6 50cf bebf 457b 62b4 53da c93f
00000280: f3ee fc1b 7ce6 b1bf 606c dd20 6890 cebf
00000290: 2c05 6919 433f c43f 9291 a3f7 d9fc c5bf
000002a0: e4ca fc57 0579 ad3f 7c1f 363d c3a0 c0bf
000002b0: e051 d3e4 6cdd a5bf 2290 5a51 48b7 be3f
000002c0: bb9d 0792 2888 cdbf 2267 0058 c68e b33f
000002d0: e6b6 59fb 9c44 cfbf 2868 4e09 e585 ccbf
000002e0: 51b3 8d26 8098 b13f a93b 3e58 54f1 c4bf
000002f0: ac18 0012 d8b6 813f 5f25 8558 e18d b3bf
00000300: 8be2 8c99 e6ce c63f ef33 7e34 69f4 72bf
00000310: 42ef e5b5 bac4 b33f a3e0 d928 68f6 c63f
00000320: 6f45 373d 79b0 87bf a745 2043 8257 b6bf
00000330: df87 136c ef80 c9bf 8482 5724 2b36 cfbf
00000340: 1c7b 88b5 2b67 b73f 48d4 7157 f728 ba3f
00000350: 1b57 ea9e 8d3b bbbf 300f a06d b5fc c83f
00000360: f22f 4ef8 8413 b3bf 4af0 297a b83f c4bf
00000370: d916 3e7e 3446 cb3f 7327 be59 b6dc b43f
00000380: 3601 3252 57f6 bd3f 6220 0f7c 60f5 c1bf
00000390: 3b8c 1fad 036a bb3f efb0 e4a6 178f c83f
000003a0: 3036 df64 1982 a3bf 105c 32ed f195 c5bf
000003b0: 2be5 e1fa 2f16 a13f 2afc d860 d7ce c43f
000003c0: 5eb7 af91 217b cebf 87d9 daa1 a407 b73f
000003d0: 944d 152e ebda c8bf 2fb2 8d49 d0eb 9cbf
000003e0: 951f 18ed c40c c03f bfe4 808d 0c89 c7bf
000003f0: def0 b28e b504 c0bf 9668 e41d 1022 8fbf
00000400: e9d2 8037 007a 8c3f dbd3 f450 0fa3 c5bf
00000410: 41fb 8772 e4c6 8f3f 61b9 4fe8 6b2b c2bf
00000420: 6d42 757c 97bf ae3f 2e1f 7d00 c88c b5bf
00000430: c356 8f43 0c5d b7bf 9c0d 983c f525 a53f
00000440: e6a2 15d7 1c0a ba3f f76b 35a2 c19d c03f
00000450: 4165 bd70 960d b83f 522a 036b 40b3 c03f
00000460: 7bad 41e7 b086 bb3f a1d5 ee5e ce91 ccbf
00000470: 01d2 8055 f6cf b1bf 08bb c756 3c33 babf
00000480: 5e2c 3821 bc04 a13f 6e28 3e8b a668 813f
00000490: 1d24 30b6 cb7a d0bf 89ac 85f5 a59c cfbf
000004a0: 9aab d490 33fb c83f 0bea d4d5 2911 ca3f
000004b0: c725 9b16 2bbe a53f 5bfe c86f fdd8 bebf
000004c0: af5f 2b25 8897 9dbf 26a3 9a93 5003 cb3f
000004d0: 46bf e8c6 e019 a4bf bad0 2f66 ec18 a43f
000004e0: e19c 0362 5f96 c13f c6ec 2d34 c2a3 b8bf
000004f0: 2d06 afa8 a73c b53f 462f e34d b3e9 bebf
00000500: a6ff 5c7a 7b30 bb3f 9793 f7f3 8bb1 c43f
00000510: 4059 8471 3a20 a6bf 8d4c fb97 7003 94bf
00000520: b470 2bf5 ed43 98bf 4d15 071b 1e56 9b3f
00000530: 2408 4708 5baf c13f 3d92 68d1 7ef4 b23f
00000540: e5ba 1254 6c54 c13f 4335 a8c3 6598 c2bf
00000550: 0f30 0016 af60 88bf 8c4a 18bd c727 b9bf
00000560: 4c8d 7777 b5ea c3bf dae4 312f 18dd a33f
00000570: 4ec1 3072 b9cf c63f b0e7 9a77 148b a53f
00000580: f9f7 c3f6 b2cb 82bf ca2e 9c75 46f5 b83f
00000590: d6f9 ddc8 ae90 c83f 3187 cc7d 2eb8 c13f
000005a0: acc9 c718 5604 cebf d652 2e4e 7f73 c1bf
000005b0: a8e0 a119 8862 c43f d74e cbd3 3984 cb3f
000005c0: 8543 86aa ad7f cb3f 2898 b461 8ec3 b23f
000005d0: 1bd2 8181 61da bd3f 69ec 1ad1 b0ef aabf
000005e0: 2406 ca0c 92e7 c53f 0bd3 cf14 dfa6 c33f
000005f0: a896 cbfb b10c bc3f 4677 5c18 c978 cfbf
00000600: b315 280d ab5e b5bf 35a6 4553 9c69 cf3f
00000610: db2b 21bb bce1 a63f e582 24ac 524b c0bf
00000620: 67c0 8c0e 88dc bbbf af4a 1509 007d 9b3f
00000630: c162 47ea b96a cabf a0d2 2ad2 7b5a c53f
00000640: 8bf1 14c1 4865 9cbf 0b38 384f b47b c3bf
00000650: 2bc7 9e0c 6574 bd3f 8b46 a2dc 4117 cf3f
00000660: 5c66 92e6 8a92 cbbf 36c5 cbc4 1975 c0bf
00000670: 25ed 8fcf b03f c93f d605 3a84 3c98 b1bf
00000680: c705 75ac d520 c1bf 1259 4ea1 0822 afbf
00000690: a34c 7c82 a992 ca3f ad37 5c19 a365 c7bf
000006a0: b856 5e1e bae6 9fbf e510 1cbf 4424 bf3f
000006b0: a1b0 2b8c 98f2 cabf 102a 9945 3a1a c6bf
000006c0: 2c02 a5f6 84df c4bf bad6 0c3f 9db7 c2bf
000006d0: 5f26 a361 c467 c03f 4485 272f 5536 b13f
000006e0: caf7 f832 326a b9bf cca5 813c 96fa bdbf
000006f0: cb55 6446 2011 9ebf 4fb5 d78b 8b0c c53f
00000700: 0b7c 5f4b 8ddf a73f 6850 bc03 4e1d c43f
00000710: 1a0f 96d1 0ba7 bfbf c458 f10d b315 c33f
00000720: b623 65ad f001 c5bf 078e 2d63 1d84 90bf
00000730: c897 9431 62b6 c7bf 7b6c 9ad5 ebd7 cb3f
00000740: ce0d da7b d212 bf3f 714b 15a0 c29f ce3f
00000750: 2ff0 89cf a51a afbf 2e4d 99a1 79cc cc3f
00000760: 960c da28 7588 c4bf 28d9 c410 f31b b0bf
00000770: 7a63 90aa 9182 c93f 7583 fd2d b120 c53f
00000780: 5c5f 1f19 f63e bd3f dfd7 8113 cd6d 853f
00000790: c4c6 8a7b ad21 c3bf 38d9 5215 bb89 cf3f
000007a0: 36e8 662d d235 613f 5d65 9515 e5b8 b1bf
000007b0: bc02 69cc 29e0 cb3f b3a3 8121 15b5 c63f
000007c0: 4505 04d9 8d74 9cbf 0575 6796 cfac c8bf
000007d0: 0da0 6ea3 4e61 b0bf dd43 3b58 2225 973f
000007e0: 53a3 7d88 f3db b4bf 0508 0f84 b7fc cb3f
000007f0: 9c56 7720 9b3b abbf 6a84 2e9f c94e b7bf

encoder.bias_ih_l0 f8 [64]
-0.1892926478121722 0.1838986006654488 0.1854155009123882 -0.1951424654924891 0.1345649543475951 -0.08225154302612354 -0.09204678188659239 -0.06937131136292973
-0.020566520239808397 0.11784668502009739 -0.10160060006424969 -0.2563253321245369 0.14156000196364532 -0.2107303699482608 0.006898805580070311 0.02296292787347902
-0.2523505156381792 -0.16309992441922685 -0.03796843305184184 0.056416545473033895 -0.18093113775496933 -0.15737688589685978 -0.0749308090807101 0.04101955757156186
0.10750238470554425 0.10788139206343086 -0.23881686806067423 -0.023327905809813865 -0.19000072372055904 -0.014594184838675748 -0.23173560021106832 -0.09416145299378775
0.01873561982873029 -0.0996635914180169 -0.04904649034721171 -0.19048590567138723 0.22920855667437784 -0.07697705960316727 0.08538608990356751 -0.18190082548407105
-0.04664582899046277 0.09983391609452855 -0.1362234714467669 -0.1643006979929467 0.17610211857143074 -0.20209105245594394 0.2173561471847053 0.17481271444562888
0.18288603758815852 -0.09723938769463088 -0.06345820663365809 -0.052831724759951966 -0.1959763571098899 -0.23028310812903754 0.0873716493620491 0.025835617629163907
-0.0352511164418344 -0.1647023372544681 -0.06320189510688594 0.01699669445378993 0.1940094949824133 0.10096225125040667 0.13031252785941017 0.0558878803750997
00000000: cafe dcd1 bd3a c8bf b7b2 d145 fd89 c73f
00000010: 8b8a 4bf4 b1bb c73f 2eef aca5 6dfa c8bf
00000020: e929 0ea7 6c39 c13f a5bd 57e7 6f0e b5bf
00000030: 6dab e7bd 6090 b7bf 509c 9579 51c2 b1bf
00000040: 373d 4acf 630f 95bf ed73 1a4a 332b be3f
00000050: 5ba9 8736 7f02 babf 4c1e a75d a267 d0bf
00000060: be82 6d5d a31e c23f 51d3 9977 36f9 cabf
00000070: 27da 9005 ec41 7c3f ecaf f200 9883 973f
00000080: a1dc f2c6 8226 d0bf d129 ae54 75e0 c4bf
00000090: 91de 7934 9970 a3bf c31b 8523 a1e2 ac3f
000000a0: 3e2a be63 c028 c7bf 1663 0901 ed24 c4bf
000000b0: 7de7 765e aa2e b3bf 9351 88f4 8300 a53f
000000c0: 0d65 8dba 4685 bb3f 5a67 c26a 1d9e bb3f
000000d0: 0be1 0617 8d91 cebf f036 2642 45e3 97bf
000000e0: 124e 4c97 f151 c8bf 1f4a c054 8ee3 8dbf
000000f0: 2cdc 1c1c 83a9 cdbf f0f3 2609 f71a b8bf
00000100: 411e bd29 6e2f 933f a406 be99 8d83 b9bf
00000110: a9b9 0c20 9f1c a9bf f890 9a97 d761 c8bf
00000120: ca9d 70bb b456 cd3f 49b0 89c1 c4b4 b3bf
00000130: a54c abdf dcdb b53f 00e5 48b8 8648 c7bf
00000140: 8087 044c f6e1 a7bf 0259 a82c b78e b93f
00000150: b6dd 674d c56f c1bf 997a 4b26 ce07 c5bf
00000160: 53a3 02a4 838a c63f 6466 8e9e 1ede c9bf
00000170: 6c16 df83 53d2 cb3f f906 bc55 4360 c63f
00000180: 8a07 2b47 cf68 c73f ad10 0836 aee4 b8bf
00000190: e884 270a cc3e b0bf 890e 1284 c20c abbf
000001a0: bbc0 49d6 c015 c9bf 2923 1eb9 ea79 cdbf
000001b0: 5f8a 9b08 fd5d b63f 4c29 28f3 a674 9a3f
000001c0: ecc3 8730 6f0c a2bf 0296 0a58 f714 c5bf
000001d0: 0b80 87d8 ff2d b0bf a0ca 46db 9467 913f
000001e0: 750e 089a 4dd5 c83f 9e43 407f a9d8 b93f
000001f0: 1827 b5b6 14ae c03f 3c5a e814 569d ac3f

encoder.bias_hh_l0 f8 [64]
0.2238613283898389 -0.1480008932672752 0.07601802996130795 -0.2319028254950068 -0.1854084250259553 -0.09171893618598988 -0.19730399500228454 0.12693745047216842
-0.22558378889749275 -0.027172399195066782 0.22751467150404864 0.16873467187135865 4.53430357276738e-05 0.015538279152996534 -0.07996220878607954 0.16425675159250355
-0.01125950268346722 -0.00778464445859458 -0.2062676014001542 0.05836564715951157 -0.036185847475580915 -0.1735482518731934 -0.22134157234441246 0.16818562016502192
0.07102565340519025 0.1855434725897827 -0.19500399708136515 0.116889517629212 -0.18641002070999996 0.0029881720911033097 -0.05533937928859813 0.1057595589309559
0.19649875406983444 -0.0494220614764581 -0.16769647971374305 -0.021915089154511177 0.11113106992091427 -0.23075984454197948 0.015425614935610975 -0.19575556753424192
-0.002179512290481072 -0.2199714675877223 -0.07797697810722824 -0.16957481498589713 -0.12249414436039298 0.10307060249324425 -0.20908662496533437 -0.030157824170551507
0.12220874762538993 0.16980023914214581 -0.12950104711446236 0.22287137759028297 0.08265884672845863 0.10564309679077744 0.24296385250230787 0.24806110486137223
-0.02575812308703705 -0.20708341525930513 -0.008046081412885762 -0.17751302038805264 -0.09067704061443428 0.212064176623484 -0.029605184352198666 0.09397021179409078
00000000: 3601 23ee 7ca7 cc3f 494d 2e7a b1f1 c2bf
00000010: 1b15 97e8 ea75 b33f 2eef ace5 fdae cdbf
00000020: 17d6 f198 76bb c7bf a5bd 5767 e47a b7bf
00000030: b7d5 f3de 4141 c9bf d431 3583 7c3f c03f
00000040: a847 e9f9 eddf ccbf 4830 96d7 14d3 9bbf
00000050: 522b bc64 331f cd3f 6ec3 b104 1999 c53f
00000060: d97f 2bd8 d6c5 073f f8ca 6286 88d2 8f3f
00000070: 5af2 a63f 6778 b4bf f955 1e80 5d06 c53f
00000080: 0994 5bde 380f 87bf 593a c595 cae2 7fbf
00000090: a477 1e0d fa66 cabf c51b 8523 1ae2 ad3f
000000a0: faa8 f88e f386 a2bf 1663 0941 d436 c6bf
000000b0: bd73 3baf eb54 ccbf 6414 223d 1b87 c53f
000000c0: 0d65 8dba bc2e b23f aa33 6175 e3bf c73f
000000d0: 0be1 0617 e4f5 c8bf 4372 76af 78ec bd3f
000000e0: 124e 4c97 48dc c7bf 90d7 feac a67a 683f
000000f0: a370 7370 7155 acbf 100c d9f6 0e13 bb3f
00000100: c9a3 3705 df26 c93f 4e0d 7c33 d94d a9bf
00000110: 692e 0308 1477 c5bf ef87 d4bc e870 96bf
00000120: a13b e1f6 1573 bc3f 23d8 c4e0 8989 cdbf
00000130: 2c65 5afd 7697 8f3f ffe4 48b8 840e c9bf
00000140: f277 48c0 c4da 61bf 7ad3 ab69 0628 ccbf
00000150: 67bb cf9a 4cf6 b3bf 997a 4ba6 a0b4 c5bf
00000160: 59b9 fab7 c65b bfbf 3533 e3c2 d562 ba3f
00000170: 94e9 20bc 59c3 cabf 2dc8 1f52 b1e1 9ebf
00000180: 110f 568e 1249 bf3f a8f7 fba4 03bc c53f
00000190: 6ec2 1385 7d93 c0bf 5c7c fb9e 0c87 cc3f
000001a0: 947e 6c53 2129 b53f a8b9 c30d 6d0b bb3f
000001b0: 2fc5 4d84 7019 cf3f 2c05 655e 77c0 cf3f
000001c0: db87 0f61 5660 9abf 0296 0a98 b581 cabf
000001d0: 7f00 3cc4 767a 80bf a926 9724 bfb8 c6bf
000001e0: 19e3 ef4b 9c36 b7bf cd21 a03f eb24 cb3f
000001f0: 30c7 564a d250 9ebf 1d2d 748a 6e0e b83f

encoder.weight_ih_l1 f8 [64, 16]
0.02001345602507256 0.21633701667465874 -0.10394447637135573 -0.03818616574754613 -0.12586475153953583 -0.044315291570844996 0.0014628100496843763 -0.15016783914591642
-0.23626103721301306 0.14308820943612274 -0.11608023211451914 -0.05958370418657622 -0.06767383022246011 -0.19117461616278095 -0.14350192987934982 -0.044901382226958574
0.2413218731264 -0.1467227252609588 -0.19980790594881193 -0.009339171284087159 -0.09271974856349703 0.05550409272769368 0.22882937875592438 -0.17566708783055873
-0.2551320063689924 -0.035215875531796656 -0.2092371424212853 -0.04255817244535445 0.23416366014981876 0.07155117405670298 -0.13548225188310695 -0.14366531030527735
0.06761206755054716 0.1884166390949483 0.21711706651629575 -0.2138894792746429 0.15028505911620854 0.21093800501638657 0.06476092234195126 0.1372136572889956
0.11304338047369665 -0.25040242705775123 0.012208338499385176 -0.007739052150300116 -0.17486791778751837 0.008440494867138118 -0.09415422049348539 0.15437872029674526
0.20940038643266315 -0.12852554328718382 -0.24022142155313264 0.18485995045521667 0.08874408685364703 0.045560302617011834 0.11466239347407535 0.058976755097702435
0.14288176313756737 0.06799572306893735 0.07886850838204015 -0.20156779036420694 0.09346986933784165 -0.19189471717575174 -0.25726632976689295 0.18200199261039499
-0.08784320598169126 0.004462143250007399 -0.04780731986480892 0.23321400827477903 -0.12081564582308055 -0.03121397230048526 -0.1661224714556141 -0.06939174991087801
-0.0668023356830362 0.12593449074921267 -0.08008518896798618 -0.19361669708875967 -0.25017401633618563 0.20690871881423406 -0.1390103831809423 -0.06042052020108039
0.2186817616231308 0.11214113588522884 0.20306237450654108 -0.20156787203668092 -0.22835307981344177 0.0010882174679169203 0.035091706605646616 0.17202210664984754
-0.0008230046790582572 -0.20511973875504824 -0.1779199887406364 0.1262721650787344 -0.021188518905801586 0.08364845088515635 -0.21149868426272 -0.20958214214836215
-0.13762186452236339 0.15786097970089566 -0.21042146122071653 -0.02388253448911005 -0.15882402864432257 -0.09616327050097465 -0.18233735840612456 -0.2427447808240442
-0.02762812346310591 -0.25285080538679816 0.07521461284432303 -0.10577045952290694 0.09668860147800784 0.07149855165754593 0.1835547467919776 -0.05583258774301217
-0.12093973267349452 -0.0784635180784579 0.17194681554017702 0.012139484645709287 -0.08239872793012891 -0.011098303559143723 0.1633080274498168 -0.14167924344291963
0.2252586917765765 0.02679151096975831 0.22373766746818147 0.22451333893024364 -0.1356929355977946 0.0313973359016882 0.055964370115241635 -0.02946732918854564
-0.15467898750605133 -0.1559569742781282 -0.020350552626182652 -0.051944096432087326 -0.08256801412352599 -0.2283775797207634 -0.12703716298366227 0.23246031786915117
0.17233913433353082 -0.047000657102587134 0.03962102386407387 0.146079698809179 0.025060475961114284 0.160302551587765 0.07277758126552082 0.12571891442119285
0.02749750190713412 -0.24613969096558147 0.04266769463840341 -0.2120530224147609 -0.19439447829663575 -0.034959085541600494 0.08655828093317842 0.2271685134353592
0.17775559899511525 0.16635423927584098 0.15352485877081787 -0.0535568589149614 -0.09363872291192996 -0.05676632551651076 0.08608237554386938 0.049739838585266906
-0.15124022386865935 -0.2244321601106813 -0.14370565953021652 -0.12867604207781677 -0.014507657692931369 0.05642945433829223 0.1747906954005448 0.13239893353677934
-0.1028143117521233 0.09175765181477773 0.19918830106509178 0.23975012995959383 0.2394074653265778 0.17601185746655382 0.19689540573021228 0.06958733698381186
0.09348418535371354 0.05694010416489927 0.09568623959010931 0.14144163004598734 0.044868712421318624 -0.02365147133781133 0.1992874462800349 0.13202416357387345
0.06580479420459323 0.23151909158186598 -0.08672459451596093 0.10067449400616282 0.016241236457960256 -0.08380452254770364 0.01795856786385381 -0.01971555424642731
-0.22095216501611809 0.09932395067406405 0.14508762937616104 0.10111745769498906 -0.10511190734186387 -0.2478200376791032 -0.053786532898003864 -0.028511922059266243
0.04450970517910682 -0.010546276882794841 -0.2185990492174132 -0.1488661836514179 -0.01619650813936804 0.07919049542991903 0.018612508961193562 -0.1404510108872076
0.054414055054551116 0.11135470887039459 -0.2355311931258235 0.04696988555699794 0.06342128933100691 -0.1358435843230252 -0.2370769023978831 -0.1219537966402351
0.1724504314667773 0.134415425439809 -0.12066303360566265 -0.11042671999007063 -0.21172387861115768 -0.1400076581642085 0.2499657465844638 -0.18059403079729774
0.16810144429752272 0.11960453938841621 0.010444666870925465 -0.23330653073430696 0.10423452729404868 -0.14835579013634315 0.1911686817837738 -0.0033006071149719934
0.14857875571789092 0.19770598689797647 0.21753689084539254 0.03193197086918551 0.22142126858653924 -0.04320449381888889 -0.10299091579603571 0.19818775556083038
-0.17439122946998323 0.012014729275369236 -0.24120649184690202 0.09651132769723077 -0.1686283442315887 0.03728205486504079 0.1366271313146764 0.03274870062831606
-0.14328141440727965 0.07420078181977044 -0.13146397620168998 -0.033340452529141036 -0.07947435173156747 -0.174871819432339 -0.13080224556259137 -0.129348103223365
00000000: 2634 6e4c 687e 943f 2f14 c46d eeb0 cb3f
00000010: b064 9dee 1a9c babf 9837 171a 238d a3bf
00000020: ad6d ca0f 561c c0bf 0ddb 0470 7eb0 a6bf
00000030: 7fc1 b654 78f7 573f 2e77 0523 b338 c3bf
00000040: 2410 133a cd3d cebf 0f55 fce5 b650 c23f
00000050: d1d9 a420 6fb7 bdbf 5136 b659 c181 aebf
00000060: d9bb 9977 1253 b1bf af4b 1fea 6878 c8bf
00000070: 1752 df6f 455e c2bf db82 6b60 50fd a6bf
00000080: a994 7198 a2e3 ce3f 2eb4 496d cfc7 c2bf
00000090: 6425 c432 4e93 c9bf 152a e559 6a20 83bf
000000a0: 3508 c63f 7bbc b7bf 5783 1e4e 086b ac3f
000000b0: d972 0ff5 474a cd3f a49f 9b56 427c c6bf
000000c0: c521 e131 1554 d0bf a60b 6bb3 d007 a2bf
000000d0: bf69 e75d 48c8 cabf 7420 a94d 2fca a5bf
000000e0: 1aa8 2027 13f9 cd3f 915e 9080 2d51 b23f
000000f0: 6160 8380 7b57 c1bf 8e59 aaf8 9f63 c2bf
00000100: 90cd f142 064f b13f 53af 7753 091e c83f
00000110: 26a4 0bf6 7dca cb3f 3ab6 38ff ba60 cbbf
00000120: 2ea3 fd72 8a3c c33f d3b1 833c 0400 cb3f
00000130: 5579 84fb 2b94 b03f fc75 4f95 3790 c13f
00000140: 97ef 2936 69f0 bc3f 1155 c3e6 9706 d0bf
00000150: fb31 bf74 af00 893f 7084 33fe fbb2 7fbf
00000160: 522d 026a 1262 c6bf e8d0 540b 4049 813f
00000170: c5c5 ccb1 7d1a b8bf a0b9 6f91 aec2 c33f
00000180: 1dc0 bfc1 a1cd ca3f 3d3e 8f66 8673 c0bf
00000190: 5846 af56 93bf cebf 91cd c5a8 7da9 c73f
000001a0: bbf2 bfb6 eeb7 b63f b1cb 7813 ae53 a73f
000001b0: 6f5f 0dbe 835a bd3f b6d7 bc84 3332 ae3f
000001c0: 1f72 ef19 f349 c23f 5b55 d9ee 2a68 b13f
000001d0: ee66 2f00 ba30 b43f c547 c52d f9cc c9bf
000001e0: 0aa9 f72f a4ed b73f 52c3 458f 0190 c8bf
000001f0: 097d 2d32 0d77 d0bf f5c3 085f d74b c73f
00000200: e8fd dd70 e47c b6bf 19f7 4275 e546 723f
00000210: f253 a876 337a a8bf 152f 41e5 f4d9 cd3f
00000220: 76be a72f c6ed bebf 9ad8 d538 8ef6 9fbf
00000230: cc2a 044b 8043 c5bf 0ebc 7a60 a8c3 b1bf
00000240: 0a18 0e37 f519 b1bf 7b67 9a13 9f1e c03f
00000250: 65f0 8283 7680 b4bf 6256 fa92 6ec8 c8bf
00000260: c843 9ee0 d902 d0bf 1a3e 4822 fc7b ca3f
00000270: 8d85 c89c 17cb c1bf a5b9 8a3c 70ef aebf
00000280: fc95 3393 c3fd cb3f 4cd1 290f 48b5 bc3f
00000290: 94df c6a8 f2fd c93f a032 29dd f9cc c9bf
000002a0: 8cab de78 ac3a cdbf d482 e19b 50d4 513f
000002b0: 1cd3 7648 8af7 a13f e903 2005 d204 c63f
000002c0: 8957 2b17 ddf7 4abf 86c6 db14 5d41 cabf
000002d0: 670d 790a 15c6 c6bf 7042 b4b1 af29 c03f
000002e0: 2f1f 016f 71b2 95bf d6ad e920 fc69 b53f
000002f0: c017 078e 6312 cbbf d129 2d6f 96d3 cabf
00000300: a546 abdf 979d c1bf 799f 90e0 c934 c43f
00000310: b2e5 2827 17ef cabf c326 4ec2 a974 98bf
00000320: a154 6c84 5854 c4bf 5aca e0f5 279e b8bf
00000330: 39bf 989f d456 c7bf 91fc 74cf 4212 cfbf
00000340: 7543 e5fa 8b4a 9cbf e8d3 f924 b52e d0bf
00000350: d500 59ce 4341 b33f 9da5 88d8 c513 bbbf
00000360: 2878 3e8d 95c0 b83f 609d 14a5 ba4d b23f
00000370: 21a1 3fd1 b87e c73f 0488 d0c4 1696 acbf
00000380: d5a0 9e04 e8f5 bebf 137a 1364 2f16 b4bf
00000390: 65bd b26e 5a02 c63f 1a53 590c 96dc 883f
000003a0: b720 b141 1518 b5bf 29ee 9e16 b5ba 86bf
000003b0: 2d1e 8906 47e7 c43f 95ff 8da2 8b22 c2bf
000003c0: 5bfa 28dd 46d5 cc3f 05c0 b3dd 3b6f 9b3f
000003d0: 705f 5496 6fa3 cc3f f94e 1c64 dabc cc3f
000003e0: e46a 58d8 625e c1bf a930 c2c5 4f13 a03f
000003f0: 58bc c5a6 5ca7 ac3f 793c a9fc ae2c 9ebf
00000400: d3c2 5b64 85cc c3bf 42c8 0dec 65f6 c3bf
00000410: f79e f077 c6d6 94bf b3cb caa6 6a98 aabf
00000420: 9830 5b68 2d23 b5bf ee28 05fe 793b cdbf
00000430: 131b 32f6 c042 c0bf 82d1 6e7b 42c1 cd3f
00000440: 9a48 e470 350f c63f 7cd0 4a5a 7810 a8bf
00000450: 14e1 75f3 3449 a43f a75a 7f54 bdb2 c23f
00000460: 6462 b312 74a9 993f 7174 4444 cb84 c43f
00000470: 59da 6a33 8da1 b23f 1bbd f6b0 8e17 c03f
00000480: 2ebf a61d 4e28 9c3f 8eec 7861 8181 cfbf
00000490: f7a3 2242 8ad8 a53f 8509 25ae 8d24 cbbf
000004a0: d64c 6713 ebe1 c8bf a9cf 3242 28e6 a1bf
000004b0: d154 cef9 ae28 b63f 0a62 f19b db13 cd3f
000004c0: 63b5 2e0a b2c0 c63f 1ecf 9e80 184b c53f
000004d0: 5b97 c5db b3a6 c33f 4c51 08fb cd6b abbf
000004e0: 0ec3 8b14 b5f8 b7bf c40a 37cf 7910 adbf
000004f0: 9410 b99b 7e09 b63f 9567 1008 8077 a93f
00000500: a584 adf3 d65b c3bf 1e4a ec69 31ba ccbf
00000510: 9458 f771 f264 c2bf 6f60 40e0 7478 c0bf
00000520: 3660 a9da 30b6 8dbf aa03 d449 52e4 ac3f
00000530: dbf9 31a0 8a5f c63f 546a c8c0 72f2 c03f
00000540: 083f 89ea 0952 babf 0bc5 b3f1 6d7d b73f
00000550: ec01 6993 007f c93f b6b0 b1db 21b0 ce3f
00000560: d679 ff60 e7a4 ce3f c576 c379 8e87 c63f
00000570: 5505 2c60 de33 c93f 04ab 8fc8 79d0 b13f
00000580: 2b93 c95e 94ee b73f b32a 70da 4027 ad3f
00000590: 457c b7b5 e47e b83f c193 ab63 c21a c23f
000005a0: 9027 ed28 08f9 a63f c5bc 975f 1738 98bf
000005b0: 7757 2344 4082 c93f ef6f 6af4 2ae6 c03f
000005c0: 645b 073f 95d8 b03f fb32 5fe7 6aa2 cd3f
000005d0: 3075 3441 9533 b6bf c23d 4cbb cdc5 b93f
000005e0: 7bf2 bbed 8aa1 903f 876a 9993 3674 b5bf
000005f0: f20b a216 bb63 923f 35fb d772 5030 94bf
00000600: 6ec0 5c19 2948 ccbf 86c8 da5f 4b6d b93f
00000610: 9cc5 9c3f 3b92 c23f cac9 da6d d5e2 b93f
00000620: c417 742c 9de8 babf bc07 9026 91b8 cfbf
00000630: 2439 868f e889 abbf 05a0 29b3 3a32 9dbf
00000640: 849e 32e0 f9c9 a63f 7606 7352 4999 85bf
00000650: 76a9 a9bb 0dfb cbbf 8caf 210f 0c0e c3bf
00000660: 476a 1243 d195 90bf c589 060c d445 b43f
00000670: 56ab 2355 280f 933f 6db0 3979 4cfa c1bf
00000680: 42d8 cdb5 28dc ab3f 329c da00 be81 bc3f
00000690: 18e6 d4d9 e225 cebf 5874 bad4 6f0c a83f
000006a0: f2fc 8bab 603c b03f c7f7 0494 5263 c1bf
000006b0: 4ecb 3733 8958 cebf 415e 3130 5d38 bfbf
000006c0: dc5a aa11 db12 c63f 94c3 2b50 8634 c13f
000006d0: ff26 2cc7 c5e3 bebf 433f f6ee ec44 bcbf
000006e0: af66 359f c419 cbbf 099e 805c c5eb c1bf
000006f0: d8a9 59a9 e0fe cf3f 7048 1088 b41d c7bf
00000700: 6c88 d51e 5984 c53f 315b 2031 679e be3f
00000710: 72a2 0675 0364 853f 8039 b907 fddc cdbf
00000720: 978a d72d 1daf ba3f 1467 6791 52fd c2bf
00000730: 45ef 2322 3778 c83f 8e38 b4f3 df09 6bbf
00000740: cc27 58f0 a004 c33f 98a0 f905 6e4e c93f
00000750: b15f edb3 3fd8 cb3f adf2 2825 6359 a03f
00000760: 05e8 9b39 8857 cc3f dd16 fc3f e61e a6bf
00000770: 490a 21d7 9c5d babf f5fa 4c64 375e c93f
00000780: 1933 a4a9 7352 c6bf 24cb 76aa 2d9b 883f
00000790: e45c 08b5 dadf cebf 8534 2764 f7b4 b83f
000007a0: 759f d313 9d95 c5bf 83fd be2c a216 a33f
000007b0: 2415 5f72 ff7c c13f 04c7 5e0c 70c4 a03f
000007c0: 727f 809e 0b57 c2bf 5ae8 408b d2fe b23f
000007d0: 76b6 31c3 cfd3 c0bf 6935 7ef2 ff11 a1bf
000007e0: 70d1 8e5d 6e58 b4bf d519 ba24 3362 c6bf
000007f0: f5a3 77c3 20be c0bf 196e 9288 7a8e c0bf
